SabrinaPalis-Gotta-get-it-bd72ba5/checkpoint_critic.pth (torch_old, 87005 bytes, 5 tensors)

fcs1.weight f4 [128, 33]
0.4695424 0.37528566 -0.3293823 -0.09151155 -0.049855143 -0.55964726 0.09665852 0.027076818
-0.062967554 -0.0057093487 0.10866562 0.03753883 0.039670028 -0.66541576 -0.11686636 0.53964543
0.24601263 0.18038484 -0.15611523 -0.00017482432 -0.025792865 0.06626574 -0.19029084 -0.15098715
-0.054071967 0.1456554 0.51868445 0.3671016 -0.24548186 -0.0004203543 -0.40228215 -0.031246398
0.8054617 0.42357114 -0.050586358 0.12741037 -0.22160986 -0.35190302 0.048891135 0.06309345
0.06565852 0.0598084 0.055456728 -0.022137536 -0.019225428 0.023184985 -0.4621879 0.07575263
-0.22259407 -0.16430098 -0.17943309 -0.031287197 0.051500835 -0.026666228 -0.014517778 -0.037206702
-0.23087929 0.040890947 0.009419357 0.050307784 0.55554974 0.35913828 -0.049497783 -0.61578333
-0.046756987 2.2808497 -0.10297148 0.3514586 -0.42245162 0.0552281 -0.45760465 0.67455614
-0.48038134 0.045776043 0.2656659 -0.08438443 0.07028477 0.011082029 0.023433475 -0.31303865
1.3597158 -0.026307346 0.34515762 0.28803512 0.20970158 -0.24127617 0.041210823 -0.27763358
-0.073219836 -0.22580233 0.34384015 0.094793096 0.22472763 0.20240432 -0.063451976 -0.03916012
-0.25987682 -0.04325412 -0.77646166 -0.3475964 0.8517918 0.0012829646 -0.5599049 0.11078878
0.050915252 -0.21357974 0.015966363 0.19024555 -0.038310684 -0.029452499 0.24445166 0.044652507
-0.0768219 0.2544602 -0.039043237 -0.39124733 0.033178277 0.61361575 -0.3123172 -0.14393125
-0.0053626313 -0.08886048 -0.3275103 -0.04979643 0.20611057 -0.13069092 0.76958 0.35876405
-0.03370774 -0.7936868 0.059218876 0.55730915 0.029938443 0.22264874 0.6050956 -0.5813466
0.32469696 0.23856778 0.108768575 0.15268372 -0.29681176 0.2904642 0.16414249 0.01394957
0.1637245 0.22476485 0.72879773 0.009466975 -0.16112453 0.54698914 -1.0451257 -0.06605432
-0.08586686 0.1021208 -0.107517995 0.079036325 0.10785446 0.033986025 -0.22419085 0.77192485
-0.25590467 0.045772664 -0.78566617 0.071299426 0.85087633 -0.09889212 0.041558746 -0.067786194
-0.39752746 -0.034826737 -0.025035592 -0.062261824 0.11660456 0.0067229057 -0.04703042 0.00051307696
0.028292026 0.049270105 0.014064615 -0.015930982 0.05211968 -0.08028228 -0.043787185 -0.0067517725
-0.012631403 -0.011167575 -0.008010501 0.023774315 0.009457179 -0.008643987 0.037170712 0.10290536
0.16108046 0.10126375 -0.014070831 -0.18327864 0.0079577565 3.3743818 -0.23735806 0.48056
0.09518947 -0.13839386 0.35396165 -0.16228636 0.37608808 -0.088370346 0.1646249 -0.22490624
-0.03916835 0.24094066 -0.22107756 0.07137827 -0.18766288 -0.35337242 0.28166592 0.24545333
0.28488865 0.16686164 0.049047504 0.003198454 0.036863502 0.14004217 -0.022497343 -0.35487828
-0.08133187 0.43739232 0.16569407 -0.04365979 -0.3913277 0.037509598 -0.031951673 0.25595823
0.5044707 0.041669123 0.0074650818 -0.17286925 0.38621736 -0.26783708 0.19454321 0.30341303
-0.15166804 -0.021747744 -0.008940981 0.027698247 -0.42559877 -0.39512825 0.09277945 0.5186446
0.042786546 -0.23601982 0.108106375 0.0071441457 0.18288977 -0.037079174 -0.1724689 -0.03594802
00000000: dd67 f03e 7125 c03e cca4 a8be 686a bbbd
00000010: e834 4cbd 0b45 0fbf e7f4 c53d 34d0 dd3c
00000020: 22f5 80bd 7d15 bbbb 158c de3d 51c2 193d
00000030: 0a7d 223d b058 2abf a157 efbd 3426 0a3f
00000040: bcea 7b3e ceb6 383e acdc 1fbe 0c51 37b9
00000050: 8f4b d3bc 55b6 873d 9adb 42be 609c 1abe
00000060: 917a 5dbd b026 153e 81c8 043f bef4 bb3e
00000070: 995f 7bbe 0063 dcb9 edf7 cdbe 72f8 ffbc
00000080: bd32 4e3f 51de d83e a433 4fbd dd77 023e
00000090: b2ed 62be a22c b4be 1242 483d 2437 813d
000000a0: f977 863d a7f9 743d 9826 633d c759 b5bc
000000b0: a57e 9dbc 70ee bd3c e4a3 ecbe 3224 9b3d
000000c0: b3ef 63be 843e 28be 4fbd 37be 0127 00bd
000000d0: 8af2 523d 2273 dabc f9db 6dbc 0e66 18bd
000000e0: 9f6b 6cbe 447d 273d a653 1a3c 890f 4e3d
000000f0: 8238 0e3f f9e0 b73e 30be 4abd faa3 1dbf
00000100: 4184 3fbd 71f9 1140 b6e2 d2bd 62f2 b33e
00000110: 944b d8be dc36 623d 284b eabe b6af 2c3f
00000120: 8bf4 f5be a97f 3b3d 5c05 883e bed1 acbd
00000130: 76f1 8f3d 6691 353c 8ff7 bf3c 9a46 a0be
00000140: 2b0b ae3f 8182 d7bc 80b8 b03e 5779 933e
00000150: 03bc 563e 1a11 77be aecc 283d fd25 8ebe
00000160: 48f4 95bd ba38 67be d10b b03e e222 c23d
00000170: 001f 663e 1443 4f3e 1cf3 81bd 5d66 20bd
00000180: 930e 85be 3b2b 31bd 31c6 46bf 28f8 b1be
00000190: 070f 5a3f 2629 a83a ed55 0fbf 3ae5 e23d
000001a0: 838c 503d a6b4 5abe e4cb 823c bbcf 423e
000001b0: aaeb 1cbd 5e46 f1bc 8951 7a3e 8ce5 363d
000001c0: cd54 9dbd 9b48 823e cdeb 1fbd 9251 c8be
000001d0: f2e5 073d ec15 1d3f 0ae8 9fbe b762 13be
000001e0: 03b9 afbb 7cfc b5bd 6eaf a7be 57f7 4bbd
000001f0: a60e 533e d7d3 05be 3203 453f ecaf b73e
00000200: 2111 0abd 0f2f 4bbf 7e8f 723d d0ab 0e3f
00000210: 7741 f53c 08fe 633e 8ce7 1a3f 21d3 14bf
00000220: ae3e a63e 1d4b 743e 0fc2 de3d 1f59 1c3e
00000230: b6f7 97be b9b7 943e f814 283e bd8c 643c
00000240: 65a7 273e c228 663e 7d92 3a3f 5f1b 1b3c
00000250: d4fd 24be 7b07 0c3f aec6 85bf 7d47 87bd
00000260: f7da afbd b624 d13d 6532 dcbd ccdd a13d
00000270: cde2 dc3d ee34 0b3d 4992 65be de9c 453f
00000280: f005 83be 1e7c 3b3d 6b21 49bf 6f05 923d
00000290: 08d3 593f f487 cabd 8139 2a3d 7dd3 8abd
000002a0: b888 cbbe 7ba6 0ebd 7117 cdbc 4106 7fbd
000002b0: 5fce ee3d d24b dc3b f8a2 40bd 0380 063a
000002c0: aec4 e73c 73cf 493d 456f 663c b181 82bc
000002d0: 727b 553d 096b a4bd 315a 33bd f93d ddbb
000002e0: f2f3 4ebc 34f8 36bc 7a3e 03bc 5ac2 c23c
000002f0: 49f2 1a3c 829f 0dbc 5140 183d 0cc0 d23d
00000300: 47f2 243e 5e63 cf3d 5889 66bc 65ad 3bbe
00000310: 4061 023c dff5 5740 fe0d 73be f60b f63e
00000320: b2f2 c23d 1fb7 0dbe 763a b53e 652e 26be
00000330: 9e8e c03e 83fb b4bd 6e93 283e d24d 66be
00000340: fe6e 20bd 26b9 763e 2862 62be c52e 923d
00000350: b32a 40be 3bed b4be 8436 903e 1e58 7b3e
00000360: eddc 913e c7dd 2a3e 09e6 483d 279d 513b
00000370: 2ffe 163d 3767 0f3e 594c b8bc 9bb2 b5be
00000380: 5391 a6bd e3f1 df3e b5ab 293e 9cd4 32bd
00000390: 1b5c c8be aaa3 193d c2df 02bd f50c 833e
000003a0: fe24 013f 3ead 2a3d a59d f43b a304 31be
000003b0: 48be c53e f121 89be 5636 473e f458 9b3e
000003c0: de4e 1bbe 5328 b2bc 317d 12bc 6fe7 e23c
000003d0: 15e8 d9be 404e cabe 2703 be3d e4c5 043f
000003e0: f240 2f3d 2eaf 71be e066 dd3d 7019 ea3b
000003f0: 7547 3b3e 55e0 17bd b09b 30be 3b3e 13bd

fcs1.bias f4 [128]
-0.5072888 -0.63136345 -0.34023097 -0.71457475 -0.97141296 -0.38567325 -0.33630136 -0.8821002
-0.5828565 -0.7356986 -0.64062876 -0.098913975 -0.372433 -0.35630187 -0.52576685 -0.65049636
-0.7209949 -0.62610817 -0.6473253 -0.5899524 -0.89494 -0.9408934 -0.44488043 -0.25428793
-0.6567737 -0.17826702 -0.5275601 -0.43500626 -0.37673822 -0.20895042 -0.28977206 -0.89450836
-0.37435386 -0.22421381 -0.8878502 -0.3763473 -0.17490482 -0.432094 -0.25856203 0.46477944
-0.4244937 0.038419303 -0.3684134 -1.0261008 -0.176099 -0.69010663 -0.70815367 -0.4899156
-0.18152475 -0.33806705 -1.1845243 -0.2587721 -0.67130244 -0.40201515 -0.43343684 -0.2919097
-0.50524276 -0.34696552 -0.6523386 -0.80174595 -0.9910011 -0.055255983 -0.46019638 -0.8681135
-0.45887476 -0.11353334 -0.7663103 -0.36113945 -0.4558332 -0.52102214 -0.7582594 -0.4285205
-0.7750696 -1.2687446 -0.090016626 -0.6871511 -0.49320188 0.464731 -0.2244582 -0.8891977
-0.78683203 -0.34243754 -0.6014698 -0.67151505 -0.7810064 0.08983605 -0.7797689 -0.7246059
-1.0927031 -0.5027504 -0.97708124 -0.34809473 -0.12817459 -0.28887317 -0.26779726 -0.22526158
-0.37007257 -0.2764423 -0.63630116 -0.33067748 0.06173447 -0.61474407 -0.6837492 -0.027360192
-0.6230286 -0.74409175 0.109123476 -0.21372801 -0.2587998 -0.4780123 -0.35527968 -0.55671334
-0.77423817 -1.0461735 -0.4022325 -0.71674365 -0.421151 -0.40079385 -0.21453266 -0.21287388
-0.79999787 -0.9933861 -0.83834445 -0.6845873 -0.483299 0.44587505 -0.028709117 -0.6508517
00000000: aedd 01bf 09a1 21bf c132 aebe 5fee 36bf
00000010: 85ae 78bf f776 c5be b12f acbe 52d1 61bf
00000020: 1536 15bf be56 3cbf 3f00 24bf 6993 cabd
00000030: 8aaf bebe 336d b6be a898 06bf ee86 26bf
00000040: 1f93 38bf a048 20bf 1cb7 25bf 1f07 17bf
00000050: ca1a 65bf 64de 70bf 5ec7 e3be 0732 82be
00000060: 5222 28bf a18b 36be 2e0e 07bf 24b9 debe
00000070: d5e3 c0be 19f7 55be 015d 94be 80fe 64bf
00000080: 4fab bfbe 4e98 65be 274a 63bf 98b0 c0be
00000090: 401a 33be 6d3b ddbe 3e62 84be 92f7 ed3e
000000a0: 3d57 d9be 8f5d 1d3d aea0 bcbe 4557 83bf
000000b0: 4c53 34be d4aa 30bf 8f49 35bf 38d6 fabe
000000c0: a0e1 39be 2017 adbe 7e9e 97bf c77d 84be
000000d0: 7ada 2bbf eed4 cdbe 6feb ddbe 3075 95be
000000e0: 9757 01bf 77a5 b1be aaff 26bf 393f 4dbf
000000f0: 40b2 7dbf 1954 62bd dc9e ebbe b03c 5ebf
00000100: a2f1 eabe 2b84 e8bd e92c 44bf 45e7 b8be
00000110: f862 e9be b561 05bf 4a1d 42bf 0a67 dbbe
00000120: f66a 46bf 3966 a2bf a35a b8bd 22e9 2fbf
00000130: f584 fcbe 39f1 ed3e 5fd8 65be 76a2 63bf
00000140: d36d 49bf f953 afbe edf9 19bf 69e8 2bbf
00000150: 09f0 47bf f7fb b73d ef9e 47bf c67f 39bf
00000160: b2dd 8bbf 40b4 00bf ff21 7abf 7939 b2be
00000170: 3340 03be 2fe7 93be b91c 89be f9aa 66be
00000180: 277a bdbe d889 8dbe a2e4 22bf 8f4e a9be
00000190: 49dd 7c3d de5f 1dbf 300a 2fbf 7b22 e0bc
000001a0: cd7e 1fbf cc7c 3ebf 217c df3d 84db 5abe
000001b0: 6881 84be 07be f4be 38e7 b5be c484 0ebf
000001c0: 7934 46bf 03e9 85bf 6bf1 cdbe 837c 37bf
000001d0: 1ba1 d7be da34 cdbe 73ae 5bbe 9cfb 59be
000001e0: a9cc 4cbf 8d4e 7ebf be9d 56bf 1d41 2fbf
000001f0: f772 f7be bc49 e43e 622f ebbc 389e 26bf

fc2.weight f4 [128, 132]
-0.24465191 -1.2234222 0.41038412 -0.4177793 0.072350875 0.14842026 0.58977693 -0.116406165
-0.018867878 -0.09922974 0.42220035 -0.19835411 0.03807348 -0.08967681 -0.17721736 -0.111342356
-0.11376963 0.5707932 0.045529064 -1.0996163 0.14976329 0.0046349145 -0.39649194 -0.35720688
-1.1558897 0.1514408 -0.8670242 0.61580694 0.028001385 0.38038647 0.13273808 -0.05473096
-0.5588198 -0.50518245 -0.061418407 0.324872 0.061247393 -0.35904863 -0.060630813 -0.1363958
0.005412134 -0.18788607 0.24851862 -0.12790163 -0.15843974 -0.0057305717 0.110572636 -0.0015893473
-0.11911517 0.09723377 -0.15582508 -0.25742736 0.07458452 -0.048513982 -0.19721375 0.5429197
-0.28022477 -0.20133549 -0.16204391 0.57754856 -0.41372362 -0.4551884 -0.16146292 -0.2601529
0.51698816 -0.049449164 -0.16819267 0.09555414 -0.12856482 -0.10825316 -0.34877512 0.30281517
-0.38179448 -0.001983637 0.0057748808 0.48404878 0.31350288 0.1006162 -0.34577042 -0.77689886
0.07655165 0.15032047 0.23410429 0.15742509 -0.17202608 -0.014723797 -0.33909386 -0.09770474
0.49848396 0.2480037 0.26619682 -0.47877482 -0.80477816 0.01480425 -0.32443202 -0.27945822
-0.4253638 0.17695011 -0.12636937 0.01685879 -0.1871854 0.039235685 0.60272324 -0.16143791
0.44283712 -0.24718387 -0.26779017 0.11171611 -0.2941165 -1.2371639 0.07564303 0.19665015
0.1342237 0.21004283 -0.2380272 -0.18454716 -0.116856195 -0.19714065 0.02054386 -1.3245068
0.44841778 -0.5250985 -0.012633319 -0.7761834 -0.021957107 -0.1434657 0.14005733 -0.3071679
-0.18727762 0.02668107 0.057018172 -0.012359322 -0.47552702 0.26388967 0.28986737 0.072287545
0.00960973 -0.12214492 -0.15731592 0.27508637 0.1075331 0.12503922 0.35736015 0.093889914
0.2752128 0.6830803 -0.090807125 -0.03549584 -0.096608795 0.040097546 0.10863145 0.69345576
0.29564774 -0.06177493 -0.29487604 0.02619817 -0.048024215 0.05280964 -0.003825358 0.18485673
-0.15611318 -1.1825536 0.18155698 -0.12616318 0.064482324 -0.05121381 0.053919196 0.19094183
-0.05477538 0.20603342 -0.11561673 0.1654027 0.069722116 -0.10552201 -0.7048656 -0.18684523
0.08582804 0.37281653 -0.08857485 0.033233885 0.27532908 0.18213373 -0.33635008 -0.21156485
-0.019393919 -0.15624684 0.27599144 0.15537873 0.5402303 0.1581847 0.16091834 0.4013063
-0.35995573 0.116178945 0.24023643 0.098667026 0.44189143 0.31359726 -0.07047254 0.0042264825
-0.5406056 0.48816082 0.15596895 -0.91243297 -0.25362852 -0.11553481 -0.17132683 0.5194899
0.22273673 -0.027812961 -0.44489512 -0.03804949 -0.49110147 -0.1254272 0.061492067 0.052133102
0.4636269 -0.06606904 -0.23378718 0.20029083 0.14448243 -0.2871773 0.08812495 0.2508925
-0.11126248 0.066614464 0.19554374 -0.033856954 -0.075989954 0.073435314 -0.01044848 -0.10864715
0.24039651 0.20662183 -0.24490987 -0.3230174 0.017038474 0.07571221 -0.45287234 0.023033246
0.0685044 -0.051889647 -0.44765282 -0.8363741 -0.11567857 -0.25336826 -0.058453813 0.04127611
0.6877978 0.09840821 -0.28616053 -0.022222657 0.3167847 0.3327205 0.01211919 -0.038546707
00000000: 0886 7abe 1999 9cbf de1d d23e 2be7 d5be
00000010: b22c 943d 7bfb 173e 9ffb 163f 5b66 eebd
00000020: cf90 9abc f638 cbbd a52a d83e 571d 4bbe
00000030: f0f2 1b3d 7aa8 b7bd 7878 35be 7607 e4bd
00000040: 0d00 e9bd 811f 123f af7c 3a3d 3ac0 8cbf
00000050: 8c5b 193e 7be0 973b fe00 cbbe d2e3 b6be
00000060: 32f4 93bf 4c13 1b3e 4cf5 5dbf 86a5 1d3f
00000070: 2963 e53c 04c2 c23e 7eec 073e 922d 60bd
00000080: d00e 0fbf a353 01bf de91 7bbd 9f55 a63e
00000090: 8cde 7a3d 39d5 b7be 0458 78bd 57ab 0bbe
000000a0: 4558 b13b 3565 40be aa7b 7e3e a5f8 02be
000000b0: 073e 22be 85c7 bbbb e873 e23d a551 d0ba
000000c0: a7f2 f3bd 8022 c73d 9c90 1fbe 85cd 83be
000000d0: c5bf 983d 99b6 46bd 67f2 49be c9fc 0a3f
000000e0: 9f79 8fbe e42a 4ebe d7ee 25be 39da 133f
000000f0: 95d3 d3be 740e e9be 8956 25be c332 85be
00000100: 5659 043f 358b 4abd b33a 2cbe e4b1 c33d
00000110: 7fa6 03be d5b3 ddbd a792 b2be 970a 9b3e
00000120: 917a c3be e8ff 01bb 363b bd3b 3ed5 f73e
00000130: 7383 a03e de0f ce3d d208 b1be d8e2 46bf
00000140: 1dc7 9c3d 9ced 193e 09b9 6f3e 0b34 213e
00000150: 9b27 30be 153c 71bc b69d adbe 6c19 c8bd
00000160: 4a39 ff3e aff4 7d3e f34a 883e f921 f5be
00000170: f105 4ebf 868d 723c f41b a6be 2615 8fbe
00000180: 49c9 d9be 6932 353e f966 01be 721b 8a3c
00000190: 88ad 3fbe 99b5 203d 124c 1a3f fb4f 25be
000001a0: 8cbb e23e c51d 7dbe cb1b 89be 6acb e43d
000001b0: 7096 96be 635b 9ebf bcea 9a3d a85e 493e
000001c0: f071 093e 7815 573e 67bd 73be eef9 3cbe
000001d0: 4d52 efbd 3ddf 49be 994b a83c 7089 a9bf
000001e0: 0497 e53e db6c 06bf fbfb 4ebc f5b3 46bf
000001f0: 64df b3bc ace8 12be 306b 0f3e 1c45 9dbe
00000200: b4c5 3fbe 4292 da3c e38b 693d c17e 4abc
00000210: 4778 f3be 8c1c 873e 7f69 943e 7e0b 943d
00000220: 2172 1d3c 1e27 fabd 6d17 21be 1fd8 8c3e
00000230: 503a dc3d 480a 003e e9f7 b63e 5b49 c03d
00000240: b1e8 8c3e 5ade 2e3f 16f9 b9bd 1664 11bd
00000250: d5da c5bd 533d 243d 2a7a de3d 5186 313f
00000260: 245f 973e b607 7dbd fef9 96be 8b9d d63c
00000270: 0ab5 44bd ec4e 583d dcb2 7abb 154b 3d3e
00000280: 22dc 1fbe eb5d 97bf 13ea 393e ec30 01be
00000290: 4f0f 843d 92c5 51bd 60da 5c3d 4186 433e
000002a0: 265c 60bd 6dfa 523e 77c8 ecbd 535f 293e
000002b0: 78ca 8e3d ec1b d8bd 1272 34bf 5b54 3fbe
000002c0: 9dc6 af3d cfe1 be3e bb66 b5bd 4120 083d
000002d0: eff7 8c3e 4481 3a3e 1436 acbe 75a4 58be
000002e0: ffdf 9ebc 2cff 1fbe c04e 8d3e 9a1b 1f3e
000002f0: 884c 0a3f 2cfb 213e c7c7 243e 0578 cd3e
00000300: 1e4c b8be 3aef ed3d 8a00 763e f011 ca3d
00000310: 983f e23e d28f a03e e853 90bd 4e7e 8a3b
00000320: 2165 0abf 37f0 f93e 53b6 1f3e 3595 69bf
00000330: 99db 81be 849d ecbd 4d70 2fbe 4afd 043f
00000340: 1915 643e 02d8 e3bc 4bc9 e3be c8d9 1bbd
00000350: a771 fbbe fd6f 00be 1bdf 7b3d 8589 553d
00000360: 8160 ed3e 344f 87bd e865 6fbe 0a19 4d3e
00000370: 34f3 133e e708 93be db7a b43d fb74 803e
00000380: 95dd e3bd 2a6d 883d 9e3c 483e 97ad 0abd
00000390: 9fa0 9bbd 4165 963d 1a30 2bbc 6682 debd
000003a0: 812a 763e ac94 533e a7c9 7abe 8962 a5be
000003b0: 4594 8b3c 010f 9b3d e2de e7be 38b0 bc3c
000003c0: 094c 8c3d 3d8a 54bd c032 e5be 9d1c 56bf
000003d0: e3e8 ecbd 7cb9 81be 446d 6fbd 2311 293d
000003e0: 8413 303f 3e8a c93d a283 92be 4a0c b6bc
000003f0: 9b31 a23e 575a aa3e 918f 463c 27e3 1dbd

fc2.bias f4 [128]
0.3015763 0.6321912 -0.13376783 -0.19895765 -0.33143097 -0.2728913 0.52325916 -0.055299878
-0.13175921 -0.01607074 -0.152743 -0.16363017 -0.1427085 1.2437493 -0.18111208 -0.068671376
-0.31835175 -0.016940324 -0.18718119 0.47530392 -0.052304458 -0.46322924 1.0641344 -0.26261207
-0.08560053 -0.09425337 -0.118420504 0.8648457 0.5542852 0.10607845 0.7645183 -0.04236366
-0.6387305 0.5050659 -0.2340011 -0.12877716 0.029696025 0.5254017 0.9617117 -0.046172313
-0.038647145 0.017258469 0.5758375 0.11497314 -0.7527678 -0.076775506 0.461247 -0.020621391
0.7844547 -0.056512147 0.7036168 -0.07971562 1.5327889 -0.03970127 -0.07092102 -0.5621254
-0.1524153 0.54245913 -0.16612673 -0.0793895 0.51194656 -0.20566879 -0.015420589 -0.05403031
-0.113845035 -0.11597074 0.18839845 -0.13055915 0.9699484 -0.122336656 0.17854413 -0.015713764
-0.010541709 -0.09460573 0.50293845 -0.09291967 -0.13428523 0.10997819 -0.13817991 -0.068497576
-0.24062774 -0.11055453 -0.10636157 -0.2001299 -0.75720745 -0.096715316 -0.18926488 1.5928999
-0.55794096 -0.04215146 -0.06735012 -0.02659724 0.597607 -0.06584243 -0.054196358 -0.062474728
-0.0594326 0.24621311 -0.4010647 -0.035742685 -0.15711136 -0.12523574 0.34649527 -0.0858466
0.76871693 -0.10743605 0.7277684 -0.11709012 -0.10472103 -0.108806156 -0.08907261 -0.19994305
-0.15726162 0.24781711 0.39461297 -0.10523478 -0.08623825 -0.16761082 -0.040927242 -0.101537906
-0.023113232 -0.15232459 -0.15353625 0.4644505 0.062430043 -0.076041915 -0.158543 0.4367768
00000000: 3568 9a3e 48d7 213f 6ffa 08be 8ebb 4bbe
00000010: 52b1 a9be 69b8 8bbe 50f4 053f 2082 62bd
00000020: e3eb 06be c9a6 83bc a968 1cbe ab8e 27be
00000030: 2d22 12be 2d33 9f3f 7275 39be 94a3 8cbd
00000040: 00ff a2be 6fc6 8abc 6dac 3fbe 095b f33e
00000050: 333d 56bd 622c edbe 8e35 883f 1775 86be
00000060: 554f afbd e907 c1bd 7386 f2bd 8766 5d3f
00000070: a3e5 0d3f a93f d93d 79b7 433f 8485 2dbd
00000080: d883 23bf 004c 013f fc9d 6fbe 29de 03be
00000090: 1445 f33c ba80 063f bd32 763f 2e1f 3dbd
000000a0: 784c 1ebd a261 8d3c 166a 133f 0a77 eb3d
000000b0: 64b5 40bf 7a3c 9dbd 9128 ec3e 31ee a8bc
000000c0: 06d2 483f 4879 67bd 3b20 343f f141 a3bd
000000d0: 6d32 c43f cd9d 22bd 0a3f 91bd 73e7 0fbf
000000e0: c212 1cbe 9ade 0a3f 201d 2abe f696 a2bd
000000f0: ee0e 033f d79a 52be a3a6 7cbc e34e 5dbd
00000100: 9627 e9bd 1182 edbd 86eb 403e 4cb1 05be
00000110: 8a4e 783f a48b fabd 46d4 363e 27ba 80bc
00000120: 22b7 2cbc a6c0 c1bd 93c0 003f ab4c bebd
00000130: 1182 09be 3f3c e13d 097f 0dbe 7548 8cbd
00000140: 1e67 76be 6a6a e2bd 18d4 d9bd daee 4cbe
00000150: 59d8 41bf ae12 c6bd a7ce 41be 25e4 cb3f
00000160: 38d5 0ebf 02a7 2cbd dcee 89bd 74e2 d9bc
00000170: c6fc 183f 65d8 86bd 00fd 5dbd 80e5 7fbd
00000180: 996f 73bd 4a1f 7c3e 5a58 cdbe ec66 12bd
00000190: cde1 20be cc3d 00be d467 b13e 58d0 afbd
000001a0: a2ca 443f 6f07 dcbd 084f 3a3f f2cc efbd
000001b0: fb77 d6bd c3d5 debd b36b b6bd dfbd 4cbe
000001c0: 3109 21be c5c3 7d3e b60a ca3e 5585 d7bd
000001d0: ae9d b0bd 2ca2 2bbe 53a3 27bd 1bf3 cfbd
000001e0: f657 bdbc fafa 1bbe 9b38 1dbe 75cc ed3e
000001f0: a5b6 7f3d ddbb 9bbd 1959 22be 35a1 df3e

fc3.weight f4 [1, 128]
0.024814993 0.021586282 -0.011902378 -0.14186022 -0.058506947 -0.043002322 0.04154773 -0.002496218
0.0058872295 -0.017615676 -0.0031845316 0.005639778 -0.008989699 0.07637741 0.0022433978 -0.003464449
-0.01905061 0.048040032 0.025996165 0.03410425 0.013444943 -0.106092975 0.06561396 -0.038709123
-0.017956564 -0.005160375 0.0044483794 0.08393101 0.023103056 0.031462032 0.04849826 0.008056947
-0.015198435 0.021196833 -0.011978878 0.0073828553 0.07308942 0.01276679 0.07862361 0.0029843007
0.013169515 -0.006344593 0.023471957 0.024087816 -0.029615045 0.017505718 0.013360599 0.03546019
0.03871177 0.0035884683 0.068343535 0.004021054 0.121699415 -0.001357817 0.02260319 -0.047270093
0.0011521732 0.035630107 0.018052956 -0.007711584 0.01837752 0.02512007 -0.0014790003 0.04688489
-0.01707819 0.06706313 0.020022076 -0.019250493 0.035143808 0.026119022 0.01653441 -0.008049132
0.03266708 -0.06394001 0.026883397 0.020186495 0.010153066 0.021482352 -0.0023489823 -0.028176518
-0.0066519096 -0.02023839 -0.024532465 0.003439598 -0.032579526 -0.005849171 0.03258394 0.18173091
-0.03221753 -0.0021416263 0.023819586 0.008845135 0.03545788 0.01871539 -0.012868617 0.015945207
0.010931603 0.029607251 -0.02702275 -0.0018931781 -0.001868958 0.005141792 0.06600643 0.004379295
0.035933837 0.008633137 0.02831561 0.065214396 -0.0045852587 -0.02196393 0.0034414348 0.015990566
-0.023610443 0.026682092 0.019985693 -0.022755783 0.0044441344 -0.03456832 0.019210272 0.013212603
-0.0059651784 -0.02319851 0.01782848 0.02290243 0.07497446 -0.002630973 -0.010578617 0.017165951
00000000: d048 cb3c b7d5 b03c 3102 43bc ce43 11be
00000010: fba4 6fbd 3423 30bd f42d 2a3d 9797 23bb
00000020: a9e9 c03b c04e 90bc 93b3 50bb e3cd b83b
00000030: 8849 13bc c26b 9c3d f805 133b cf0b 63bb
00000040: 0610 9cbc a0c5 443d e9f5 d43c e6b0 0b3d
00000050: 2e48 5c3c 4647 d9bd 9d60 863d 758d 1ebd
00000060: a519 93bc 5d18 a9bb b6c3 913b 05e4 ab3d
00000070: 9f42 bd3c 55de 003d 1da6 463d 4901 043c
00000080: db02 79bc fba4 ad3c 0e43 44bc e1eb f13b
00000090: e8af 953d cc2b 513c 6a05 a13d 4294 433b
000000a0: f3c4 573c 4ee6 cfbb 4348 c03c d053 c53c
000000b0: 409b f2bc 2768 8f3c 6ae6 5a3c b43e 113d
000000c0: 3c90 1e3d 822c 6b3b b2f7 8b3d 0cc3 833b
000000d0: 8b3d f93d c7f8 b1ba 532a b93c 499e 41bd
000000e0: 8404 973a e0f0 113d cbe3 933c 75b1 fcbb
000000f0: 748c 963c 9bc8 cd3c 04db c1ba 5f0a 403d
00000100: 8fe7 8bbc 6558 893d 5605 a43c 36b3 9dbc
00000110: f4f2 0f3d 8ff7 d53c 2c73 873c 82e0 03bc
00000120: ebcd 053d fbf2 82bd 923a dc3c 265e a53c
00000130: 0c59 263c c2fb af3c 62f1 19bb 71d2 e6bc
00000140: 43f8 d9bb fbca a5bc 4ff8 c8bc e16a 613b
00000150: 1c72 05bd 67aa bfbb bd76 053d ab17 3a3e
00000160: 87f6 03bd 875a 0cbb 4b21 c33c 2feb 103c
00000170: 483c 113d 0451 993c e4d6 52bc 869f 823c
00000180: 771a 333c e88a f23c d05e ddbc 8424 f8ba
00000190: d3f7 f4ba 7a7c a83b 612e 873d 3080 8f3b
000001a0: 5c2f 133d 0072 0d3c 23f6 e73c 208f 853d
000001b0: f03f 96bb b3ed b3bc b289 613b a6fe 823c
000001c0: b06a c1bc 6794 da3c 09b9 a33c 566a babc
000001d0: 1aa0 913b 8397 0dbd dc5e 9d3c ac79 583c
000001e0: 8b77 c3bb cd0a bebc 080d 923c e09d bb3c
000001f0: 368c 993d 676c 2cbb f051 2dbc 9c9f 8c3c
