SabrinaPalis-Gotta-get-it-bd72ba5/checkpoint_actor.pth (torch_old, 86503 bytes, 6 tensors)

fc1.weight f4 [128, 33]
-0.97643054 0.6903161 0.062737525 -0.3603356 -0.24991463 -0.017356195 -0.2554332 -0.10135557
0.33606744 -0.09376197 -0.3253898 0.13914089 -0.30850813 -0.08876563 0.45878682 0.18294844
-0.43705302 -0.17490557 0.08277439 0.12456455 -0.21478437 0.08227896 0.31033757 -0.095654614
0.06996874 -0.038674217 0.08566237 0.63372374 0.55802363 -0.000659883 -0.6388203 -0.08161551
1.4933738 1.2787727 0.27539015 0.2088826 -0.063270606 -0.047576748 -0.46185672 -0.42938146
0.3752358 -0.1613982 0.660098 0.15655404 0.09297624 0.19992983 -1.3853582 -0.14157037
-0.16499169 -0.05751568 -0.34897983 0.12392394 0.0494055 0.1212519 -0.12065215 -0.4703615
-0.18130726 -0.08329643 -0.10769213 0.672264 -0.06351794 0.0022805303 -0.009252876 0.05964234
-0.0005205944 0.63825065 0.16227485 0.30553034 -0.04755059 -0.35394073 -0.679462 -0.7848124
-0.83076257 0.13883927 -0.42345822 -0.7833342 -0.5108097 0.40694985 0.15827265 -0.14154668
0.32500464 -0.54437 0.19822854 0.14330281 0.296381 0.2619729 -0.7291796 0.25074685
0.6550383 -0.64992213 -0.39894652 -0.27545205 -0.040970676 0.51364267 0.4672296 -0.071898
-0.44476077 -0.08655783 0.51043725 0.24822451 0.43945354 -0.7700334 -0.21209045 0.051092435
0.42979705 -0.41410246 0.05177762 -0.25656602 -0.1672566 -0.096252814 0.03470312 0.039890092
-0.044095583 -0.092020355 0.46157435 0.1866068 0.47045687 -0.22454394 -0.019737942 -0.13927858
0.06117825 0.541798 -0.2254084 0.23555632 0.24013573 -0.3976683 0.5624506 0.33656815
-0.0060155466 -0.48507568 -0.032832026 3.5186899 1.3812195 0.5560728 -0.10192162 -0.13725337
0.015916526 0.65547436 -0.0138877705 0.17881873 0.15635006 0.32892713 0.024409411 -0.21694635
-0.2094288 -0.81073886 -0.17512791 -0.12552364 0.42179528 0.08644984 0.050621435 -0.24269581
0.050276246 0.14697242 0.012055704 -0.5659339 -0.07695947 -0.19538887 -0.29724887 0.08338346
-0.28529155 0.019418858 -0.06063474 -0.062415205 -1.993766 -0.060475387 0.4601449 -0.23125324
-0.1939228 -0.30799133 0.2233603 -0.15601633 -0.2839092 0.53129804 0.1911212 -0.11660866
0.12291239 -0.06771131 -0.6613968 0.42961597 0.23409158 0.2784925 -0.44805613 -0.0031423485
0.11096379 -0.2781421 -0.103666164 0.31644192 0.093099676 0.36683118 0.031926155 -0.29566905
0.63552547 -0.6982867 0.07400567 -0.6425718 -0.06926866 0.33460948 0.4113974 -0.5179667
0.16198374 0.16004111 0.017224276 -0.06974057 0.58784586 0.25383747 0.3743839 0.32366383
0.016891452 0.011156263 -0.12241131 -0.66874725 0.4211265 -0.2681407 0.374232 -0.29281867
-0.36655954 -0.013344121 -0.095261805 0.012125688 -0.2817981 0.19537611 0.0416682 -0.20119788
0.4387387 0.051286638 -0.10281856 0.026572905 -0.106368735 0.019789174 -3.1164203 1.1838515
0.568139 -0.51796037 -0.25004408 0.9251286 -0.12649734 -0.5364898 -0.09035438 0.16499805
0.3831934 0.021656597 -0.5214775 -0.10605812 -0.5823177 0.37027946 0.109920785 0.07328811
-0.11669333 0.17163485 -0.094784416 0.03332282 0.27074686 0.004601119 -0.1164686 -0.08859537
00000000: 5af7 79bf 8eb8 303f 887c 803d e87d b8be
00000010: 9fe9 7fbe 942e 8ebc 24c8 82be 8293 cfbd
00000020: 0811 ac3e 4706 c0bd 7e99 a6be f37a 0e3e
00000030: c7f4 9dbe c1ca b5bd 1be6 ea3e d656 3b3e
00000040: 6ac5 dfbe 721a 33be 9f85 a93d b31b ff3d
00000050: 6ff0 5bbe df81 a83d 91e4 9e3e 91e6 c3bd
00000060: c54b 8f3d db68 1ebd c16f af3d b83b 223f
00000070: a3da 0e3f 00fc 2cba ba89 23bf 0826 a7bd
00000080: df26 bf3f d3ae a33f f0ff 8c3e 52e5 553e
00000090: 0594 81bd d6df 42bd 7c78 ecbe e3d7 dbbe
000000a0: e81e c03e 9245 25be 2ffc 283f b44f 203e
000000b0: 546a be3d 68ba 4c3e 6b53 b1bf d3f7 10be
000000c0: 95f3 28be 9095 6bbd 7cad b2be d6cb fd3d
000000d0: 6c5d 4a3d eb52 f83d 7918 f7bd 39d3 f0be
000000e0: 9ca8 39be 5297 aabd b18d dcbd 7e19 2c3f
000000f0: b215 82bd f374 153b 6099 17bc 874b 743d
00000100: 8078 08ba 6564 233f 612b 263e 796e 9c3e
00000110: 68c4 42bd b837 b5be 39f1 2dbf 77e9 48bf
00000120: dbac 54bf e22b 0e3e 84cf d8be 9788 48bf
00000130: 6dc4 02bf bb5b d03e 3a12 223e 9df1 10be
00000140: 0267 a63e d55b 0bbf 6cfc 4a3e f9bd 123e
00000150: 40bf 973e 5021 863e 84ab 3abf e461 803e
00000160: 97b0 273f 4c61 26bf b842 ccbe 0d08 8dbe
00000170: ded0 27bd 167e 033f b838 ef3e 423f 93bd
00000180: afb7 e3be 3b45 b1bd 04ac 023f 912e 7e3e
00000190: 0e00 e13e e920 45bf 3d2e 59be 4d46 513d
000001a0: 5c0e dc3e 3d05 d4be c514 543d 9f5c 83be
000001b0: 5045 2bbe 3220 c5bd dc24 0e3d cb63 233d
000001c0: 929d 34bd 2b75 bcbd 7953 ec3e da15 3f3e
000001d0: b9df f03e d9ee 65be 77b1 a1bc 0b9f 0ebe
000001e0: 0b96 7a3d 46b3 0a3f 76d1 66be ad35 713e
000001f0: 24e6 753e 2e9b cbbe c3fc 0f3f a952 ac3e
00000200: 101e c5bb d75b f8be e07a 06bd 3732 6140
00000210: cdcb b03f c95a 0e3f 48bc d0bd 268c 0cbe
00000220: 6063 823c 2bcd 273f 8889 63bc 421c 373e
00000230: 3b1a 203e 2369 a83e 3ff6 c73c 2f27 5ebe
00000240: 8174 56be 958c 4fbf bb54 33be 4589 00be
00000250: 8df5 d73e 9d0c b13d 6c58 4f3d 4085 78be
00000260: 77ee 4d3d f07f 163e 4a85 453c 0be1 10bf
00000270: ed9c 9dbd 0514 48be 0131 98be f3c4 aa3d
00000280: bc11 92be 4c14 9f3c 225c 78bd 16a7 7fbd
00000290: b933 ffbf 0ab5 77bd 1d98 eb3e a6cd 6cbe
000002a0: b393 46be 0ab1 9dbe 90b8 643e bfc2 1fbe
000002b0: 8c5c 91be 2603 083f 47b5 433e 85d0 eebd
000002c0: 7eb9 fb3d 3aac 8abd 4d51 29bf a0f6 db3e
000002d0: b4b5 6f3e 9296 8e3e 9d67 e5be dcef 4dbb
000002e0: fc40 e33d a468 8ebe ed4e d4bd ad04 a23e
000002f0: 0bab be3d 4cd1 bb3e 00c5 023d ef61 97be
00000300: ccb1 223f ebc2 32bf 4990 973d 967f 24bf
00000310: badc 8dbd ef51 ab3e aea2 d23e 7799 04bf
00000320: 11df 253e d1e1 233e ed19 8d3c 25d4 8ebd
00000330: 117d 163f fcf6 813e 3faf bf3e 44b7 a53e
00000340: f15f 8a3c c2c8 363c c8b2 fabd 0533 2bbf
00000350: e59d d73e bd49 89be 569b bf3e 54ec 95be
00000360: b1ad bbbe 4da1 5abc 9f18 c3bd d2aa 463c
00000370: d747 90be ad10 483e 46ac 2a3d d106 4ebe
00000380: 5ca2 e03e f011 523d 8a92 d2bd 6caf d93c
00000390: dad7 d9bd e81c a23c 6e73 47c0 7288 973f
000003a0: 8f71 113f 0d99 04bf c705 80be 3ad5 6c3f
000003b0: 8588 01be 6557 09bf b80b b9bd 40f5 283e
000003c0: ed31 c43e 2d69 b13c 8d7f 05bf 0035 d9bd
000003d0: c612 15bf 4595 bd3e 261e e13d 1418 963d
000003e0: eafc eebd 0cc1 2f3e 551e c2bd 827d 083d
000003f0: 559f 8a3e fcc4 963b 1787 eebd 7d71 b5bd

fc1.bias f4 [128]
-0.782498 0.09838896 -0.6186655 -0.558361 -0.25171027 -0.7740025 0.048381448 -0.61291623
-0.6343768 -0.40678105 -0.78992605 -0.24764046 -0.035402328 -0.2659927 -0.452045 -0.25530744
-0.52396595 -0.037641827 -1.055228 -0.61565274 -0.019658934 -0.38688958 -0.4735428 -0.44732848
-0.7750698 -0.27877104 0.030928785 -0.049127664 -0.4766372 -0.21414672 -0.5443966 -0.77342224
-0.6265377 -0.60155636 -0.25204843 -0.42307478 -0.1776094 -0.8199013 -0.08445469 -0.67385846
-0.44340864 0.014053422 -0.10558406 -0.77056706 0.18998078 -0.31658238 -0.41884395 -0.05994453
-0.28942505 -0.31806585 -0.3154038 -0.7786256 -0.074506104 -0.33168614 -0.3144458 -0.4097397
-0.3214286 -0.4139021 0.21353489 -0.0759936 -0.5222534 -0.26812482 -0.25162396 -0.3972461
-0.51462877 0.10212771 -0.5372226 -0.35046908 0.033301976 -0.5414194 -0.8114203 -0.36182776
-0.52745557 -0.33768892 -0.41668 -0.28278196 -0.08055223 -0.6766525 -0.24037471 -0.7948881
-0.090135455 -0.21526898 -0.7396674 -0.12887946 -0.024635876 -0.5777446 0.13392636 -0.89635104
-0.8732878 -0.47916505 -0.4712223 -0.29297376 -0.23175041 -0.45583037 -0.6230659 -0.5674171
-0.1443801 -0.3079473 -0.574942 -0.29507574 -0.6278285 -0.75849986 -0.5079989 0.15606578
-0.21539074 -0.46222642 -0.52198327 -0.2291376 -0.091672964 -0.20881046 -0.35971236 -0.51839685
-0.7386595 -0.09379426 -0.114415795 -0.22214161 -0.46526495 -0.32595158 0.43071917 -0.14705975
-0.71716297 0.0025645664 0.25250334 0.17691925 -0.4682578 -0.53203744 -0.42303354 -0.2968627
00000000: ca51 48bf 2780 c93d dd60 1ebf bff0 0ebf
00000010: 2be0 80be 0725 46bf a02b 463d 14e8 1cbf
00000020: 8566 22bf 9b45 d0be 9838 4abf 7695 7dbe
00000030: 0802 11bd 3230 88be 7172 e7be a8b7 82be
00000040: a222 06bf 512e 1abd b611 87bf 6b9b 1dbf
00000050: c60b a1bc 6416 c6be 3474 f2be 3d08 e5be
00000060: f96a 46bf 14bb 8ebe 5d5e fd3c 173a 49bd
00000070: cb09 f4be 4749 5bbe 935d 0bbf 00ff 45bf
00000080: c664 20bf 99ff 19bf 7e0c 81be 429d d8be
00000090: 3ddf 35be 0de5 51bf 95f6 acbd fd81 2cbf
000000a0: 7506 e3be 5340 663c 753c d8bd e243 45bf
000000b0: 528a 423e 1617 a2be b772 d6be 6588 75bd
000000c0: 852f 94be 87d9 a2be 9b7c a1be 0254 47bf
000000d0: a896 98bd c4d2 a9be 0aff a0be 67c9 d1be
000000e0: 4a92 a4be faea d3be e4a8 5a3e 88a2 9bbd
000000f0: 66b2 05bf a847 89be dbd4 80be d763 cbbe
00000100: b6be 03bf 5528 d13d 6c87 09bf af70 b3be
00000110: a767 083d 769a 0abf 3eb9 4fbf 7d41 b9be
00000120: 5407 07bf 90e5 acbe 1557 d5be ccc8 90be
00000130: 91f8 a4bd 1939 2dbf ca24 76be c97d 4bbf
00000140: f098 b8bd 796f 5cbe d85a 3dbf faf8 03be
00000150: 2dd1 c9bc 12e7 13bf fe23 093e 4377 65bf
00000160: ca8f 5fbf 1f55 f5be 0d44 f1be a800 96be
00000170: fb4f 6dbe 9962 e9be 3f81 1fbf 3f42 11bf
00000180: 60d8 13be 45ab 9dbe 662f 13bf 2b14 97be
00000190: 5eb9 20bf 0c2d 42bf 370c 02bf b5cf 1f3e
000001a0: 648f 5cbe f1a8 ecbe b2a0 05bf 0ca3 6abe
000001b0: 09bf bbbd 69d2 55be 382c b8be a8b5 04bf
000001c0: ca18 3dbf 3417 c0bd d452 eabd 1779 63be
000001d0: 3537 eebe 20e3 a6be 3987 dc3e d596 16be
000001e0: fe97 37bf 4912 283b 1e48 813e 522a 353e
000001f0: 7dbf efbe 9b33 08bf da97 d8be 63fe 97be

fc2.weight f4 [128, 128]
-0.36030868 -0.12051519 0.57051945 0.5355787 -0.7443745 -0.6728721 -0.85545754 -0.44206586
0.22059454 1.2193772 -0.05391747 0.21276848 -1.1426402 0.24232814 -0.13883606 -0.20757459
0.28298593 -1.5706052 -0.5259153 0.2567534 0.32960564 -0.031090926 -0.08286057 -1.1151929
-0.36881295 0.8955642 -0.095001936 0.7137329 0.20213658 0.47660437 0.12551853 -1.0419511
0.49800122 0.2510674 -0.33549607 -0.07779658 -0.00450076 0.22055417 0.21658288 -0.12981786
-0.19382446 -0.7412985 0.090056255 -0.13420436 0.051935382 -0.7646839 -0.18731835 0.19205004
0.1437043 -0.1091532 -0.21513121 -0.5595511 0.03580399 -0.13633549 -0.43776256 0.17305726
0.1606592 0.2681815 0.53421164 0.32256576 0.3111005 -0.7893339 -0.0835526 0.84805435
-0.34551817 -1.1705812 0.35256007 -0.5979886 -0.7911511 0.11213802 0.13583227 -0.19326343
0.27989718 -0.20272347 -0.4770142 -0.06612637 -0.19820875 0.33242184 0.23889689 -0.39612082
0.13330439 0.26808536 -0.18648666 0.14488499 1.049759 0.195543 -0.90566707 0.6379632
-0.8466272 -0.48267972 0.3331537 0.04545565 -0.7339245 -0.13611391 -1.0012082 -0.9430216
0.38358927 0.13571033 -0.73728913 0.6747275 0.6604811 0.5262481 -0.24276865 -0.13702026
-0.18728435 -0.68379074 -0.16177446 -0.21027626 0.36296764 -0.05139643 0.46113247 0.08655853
-0.46170017 -0.14870682 -0.3300959 -0.1468185 0.03190689 0.36582407 0.43859026 -0.9471333
0.06559804 -0.32214683 -0.19273354 0.12038472 0.47670117 -0.25836897 -0.88168365 -0.09829159
0.7310941 -1.1058893 0.082540035 0.30038217 0.25266534 -0.10506267 -0.23526575 -0.22413886
0.065299794 0.6994356 0.84200746 1.1330136 -0.122069605 0.14065526 0.7990207 -0.049468946
-0.9605454 -0.3550724 -0.022864543 0.2931419 0.51362425 0.21999098 -0.19704115 -0.044596467
0.24679586 -0.52237856 0.46918795 -0.5042543 0.18636689 0.33525363 -0.20614554 0.13818936
0.07163757 0.3550181 -0.032658763 -1.0146551 -0.17779121 -0.655438 0.0062233373 -0.2370507
0.28681985 -0.2285089 0.5606179 -0.916408 -0.49396768 0.04046676 -0.93907046 -1.2951788
0.057712458 -0.3282461 -1.709592 -0.41929457 -0.6096473 -0.664801 -0.8645849 0.41256627
-0.05162738 -0.44981498 0.4647547 0.2904424 0.7824015 -0.17812717 -0.13372646 -0.019003628
-0.21105158 -0.90190053 -0.25099397 -1.0586197 -1.7088599 0.2042897 0.4600049 0.4524401
0.05720502 -0.47962475 -0.088192835 0.5132966 -0.10110399 0.31166548 -1.6642644 -0.96363056
0.809681 -1.0939018 0.1472248 -0.8429559 -0.09317802 0.62783664 0.11689587 0.19691424
-0.3816449 0.36783326 0.36811677 -0.24594362 -0.94092155 -0.45011428 -0.62896013 -0.93977386
0.31054303 -0.10437791 0.28745466 -0.60997057 -0.50853026 -0.46350273 -0.026946688 0.63309693
0.11327925 -0.28568673 0.16598496 0.18373463 0.023275932 -0.25971624 -0.1409629 0.7495557
-0.7007403 0.103556454 -0.0674671 -0.34078133 -0.3497838 -0.7603628 0.2664215 -0.42363772
-0.03988787 -0.027443318 -0.5829752 -0.58849907 -0.5012756 -0.36415914 -0.32930455 0.22946414
00000000: 617a b8be abd0 f6bd 900d 123f b01b 093f
00000010: 548f 3ebf 5941 2cbf 44ff 5abf 7556 e2be
00000020: 89e3 613e 8d14 9c3f 91d8 5cbd fbdf 593e
00000030: 0942 92bf de24 783e 0a2b 0ebe 6f8e 54be
00000040: 88e3 903e 9709 c9bf 63a2 06bf 2f75 833e
00000050: 12c2 a83e 66b2 febc cdb2 a9bd a4be 8ebf
00000060: 0dd5 bcbe b243 653f 6090 c2bd 33b7 363f
00000070: e4fc 4e3e 7d05 f43e ee87 003e a75e 85bf
00000080: 04fa fe3e e88b 803e 24c6 abbe d053 9fbd
00000090: 1d7b 93bb f4d8 613e e7c7 5d3e f9ee 04be
000000a0: eb79 46be bdc5 3dbf 6a6f b83d de6c 09be
000000b0: 32ba 543d 53c2 43bf 62d0 3fbe c4a8 443e
000000c0: 3827 133e b78b dfbd 5b4b 5cbe be3e 0fbf
000000d0: 34a7 123d 889b 0bbe 6a22 e0be ec35 313e
000000e0: d883 243e 164f 893e 18c2 083f 5727 a53e
000000f0: 9148 9f3e c911 4abf a01d abbd 171a 593f
00000100: c2e7 b0be 9bd5 95bf c182 b43e c815 19bf
00000110: e188 4abf 9ea8 e53d 9d17 0b3e d9e6 45be
00000120: af4e 8f3e be96 4fbe 353b f4be 436d 87bd
00000130: 3cf7 4abe 3233 aa3e 63a1 743e 59d0 cabe
00000140: f280 083e 7c42 893e 5cf6 3ebe bb5c 143e
00000150: 815e 863f 6d3c 483e ccd9 67bf 8e51 233f
00000160: 8fbc 58bf cc21 f7be 1f93 aa3e b42f 3a3d
00000170: 7ae2 3bbf 7261 0bbe 9727 80bf dd69 71bf
00000180: d065 c43e a6f7 0a3e fbbe 3cbf f1ba 2c3f
00000190: 4a15 293f 32b8 063f 5898 78be 0a4f 0cbe
000001a0: 78c7 3fbe e90c 2fbf 34a8 25be a952 57be
000001b0: e5d6 b93e 1085 52bd 8e19 ec3e 9945 b13d
000001c0: f763 ecbe 9a46 18be 5402 a9be 9757 16be
000001d0: cdb0 023d 4b4d bb3e e78e e03e 5477 72bf
000001e0: 4458 863d 6ef0 a4be f15b 45be 448c f63d
000001f0: 2d12 f43e f048 84be 05b6 61bf 1a4d c9bd
00000200: fc28 3b3f c88d 8dbf c00a a93d b1cb 993e
00000210: 5a5d 813e 192b d7bd 81e9 70be a884 65be
00000220: e6bb 853d 360e 333f cd8d 573f 9706 913f
00000230: a1ff f9bd ef07 103e 9f8c 4c3f f39f 4abd
00000240: 4ee6 75bf 0dcc b5be 6c4e bbbc b216 963e
00000250: e17c 033f 5145 613e 28c5 49be c9aa 36bd
00000260: 0eb8 7c3e 9aba 05bf 6739 f03e cf16 01bf
00000270: f6d6 3e3e 5da6 ab3e d117 53be 8381 0d3e
00000280: b8b6 923d efc4 b53e 32c5 05bd 38e0 81bf
00000290: e60e 36be c9ca 27bf 23ed cb3b 6bbd 72be
000002a0: 0dda 923e 3dfe 69be a884 0f3f b799 6abf
000002b0: 55e9 fcbe 79c0 253d ec66 70bf 6bc8 a5bf
000002c0: e663 6c3d df0f a8be e9d3 dabf c7ad d6be
000002d0: d811 1cbf 6630 2abf 7055 5dbf e33b d33e
000002e0: 3b77 53bd 264e e6be 54f4 ed3e deb4 943e
000002f0: 774b 483f f866 36be 97ef 08be 7fad 9bbc
00000300: e81d 58be f4e2 66bf 4882 80be da80 87bf
00000310: ecbb dabf 5231 513e c385 eb3e 3ba6 e73e
00000320: d04f 6a3d 6091 f5be 729e b4bd 6867 033f
00000330: 9c0f cfbd 9e92 9f3e 9e06 d5bf 7eb0 76bf
00000340: 4147 4f3f f904 8cbf 19c2 163e f5cb 57bf
00000350: 1ed4 bebd e7b9 203f 1a67 ef3d e3a3 493e
00000360: f666 c3be a454 bc3e cd79 bc3e a5d8 7bbe
00000370: 3ce0 70bf 6175 e6be 8803 21bf 0595 70bf
00000380: 7fff 9e3e 16c4 d5bd 422d 933e 0827 1cbf
00000390: 0a2f 02bf 3b50 edbe 4dbf dcbc a412 223f
000003a0: f4fe e73d 8845 92be f6f7 293e ee24 3c3e
000003b0: 2bad be3c 87f9 84be 9458 10be e2e2 3f3f
000003c0: b763 33bf 6815 d43d 312c 8abd e47a aebe
000003d0: dd16 b3be 23a7 42bf 6668 883e 0be7 d8be
000003e0: 7761 23bd cfd0 e0bc dd3d 15bf e0a7 16bf
000003f0: 9953 00bf 1173 babe 9b9a a8be a6f8 6a3e

fc2.bias f4 [128]
-0.023177978 -0.19317542 -0.29531232 -0.2209878 -0.16467625 -0.8855609 0.068147495 -0.6109469
-0.6318534 -0.9404662 -0.4941039 0.20465243 -0.16399962 -0.5061878 -0.2750177 -0.16440934
-0.58504087 0.35907495 -0.22565725 -0.15212324 -0.51622874 0.2576321 -0.6565284 -0.18470646
0.12938322 -0.56222725 0.10796401 0.07520302 0.038500622 0.1955973 -0.40434536 -0.045941688
-0.35439336 0.1606659 -0.556984 0.25985208 -0.24990597 -0.52603614 0.60091424 -0.15826216
0.13351215 -0.92443836 -0.23365597 -0.16622855 -1.0679946 -0.1697143 0.17130893 -0.023926567
-0.42552432 -0.047227286 -0.15144826 -0.21608973 0.047008514 -0.17499298 0.28270388 -0.33813825
-0.027802004 -0.098494895 -0.23898506 -0.022706265 -0.21327096 -0.11277108 -0.28136885 -0.6671376
-0.39885196 0.4808974 -0.15623596 -0.33607364 0.09375979 -0.054840498 -0.058713242 -0.89971757
0.16988546 -0.5907588 -0.7098334 0.16061524 -0.7263221 -0.31530285 -0.37293243 -0.15311149
0.2619014 -0.19820055 -0.058632232 0.09074516 -0.1724302 -0.46300042 0.2503481 -0.4746459
0.46859434 0.31282037 -0.17516507 0.004408663 -0.549557 -0.1218797 -0.196523 -0.062266592
0.066990845 -0.08264687 -0.4161073 -0.5824129 -0.7362323 -0.06990942 -0.45724255 0.054597188
0.1949441 -0.024985384 -0.06741854 -0.40742844 -0.8830004 -0.33329967 -0.36438707 -0.35839733
-0.3623025 -0.3357543 -0.6145825 -0.11760901 -0.21783058 0.27344006 -0.28510162 0.032843396
-0.15441814 -0.30445093 0.017032022 -0.14615679 -0.3910717 -0.037470084 0.08350365 -0.112254634
00000000: bedf bdbc c7cf 45be 2d33 97be a04a 62be
00000010: e4a0 28be 1fb4 62bf ea90 8b3d 0467 1cbf
00000020: 25c1 21bf 65c2 70bf 30fb fcbe 6890 513e
00000030: 84ef 27be 8695 01bf 1fcf 8cbe ec5a 28be
00000040: 3dc5 15bf acd8 b73e b212 67be 32c6 1bbe
00000050: 9127 04bf 5be8 833e 3f12 28bf b123 3dbe
00000060: 097d 043e 20ee 0fbf 3c1c dd3d 0a04 9a3d
00000070: d4b2 1d3d a94a 483e 5b06 cfbe 5a2d 3cbd
00000080: 0c73 b5be 9a85 243e 8196 0ebf 550b 853e
00000090: 5ae7 7fbe 4eaa 06bf 84d5 193f 7a0f 22be
000000a0: 69b7 083e fea7 6cbf 8343 6fbe d137 2abe
000000b0: 0cb4 88bf 96c9 2dbe 9c6b 2f3e a601 c4bc
000000c0: 53de d9be 6671 41bd 4115 1bbe a046 5dbe
000000d0: 008c 403d 5c31 33be 90be 903e 7520 adbe
000000e0: 07c1 e3bc b1b7 c9bd 80b8 74be 7d02 babc
000000f0: b463 5abe 86f4 e6bd 940f 90be 88c9 2abf
00000100: 5336 ccbe 2f38 f63e 52fc 1fbe d811 acbe
00000110: 2205 c03d 6ea0 60bd 4c7d 70bd e453 66bf
00000120: 74f6 2d3e f83b 17bf a4b7 35bf 5278 243e
00000130: 3ff0 39bf 606f a1be 00f1 bebe 42c9 1cbe
00000140: f117 863e 16f5 4abe 5a28 70bd 99d8 b93d
00000150: 8b91 30be 640e edbe a02d 803e ca04 f3be
00000160: 99eb ef3e fe29 a03e 795e 33be 8c76 903b
00000170: c4af 0cbf 109c f9bd 533d 49be 410b 7fbd
00000180: 7f32 893d c342 a9bd 040c d5be 0319 15bf
00000190: b879 3cbf ac2c 8fbd b21b eabe 4da1 5f3d
000001a0: 6d9f 473e 26ae ccbc bb12 8abd 769a d0be
000001b0: 500c 62bf 41a6 aabe f190 babe db7f b7be
000001c0: b77f b9be fde7 abbe 4755 1dbf fedc f0bd
000001d0: fb0e 5fbe 5600 8c3e d7f8 91be cc86 063d
000001e0: ca1f 1ebe fee0 9bbe bd86 8b3c 20aa 15be
000001f0: 8d3a c8be 3b7a 19bd f603 ab3d c2e5 e5bd

fc3.weight f4 [4, 128]
-0.5294318 1.0503166 0.3546262 -0.3306301 -0.26111186 0.38349986 -0.28209972 0.41611183
1.5938731 -1.2859901 0.5863076 0.27289265 -0.2551389 0.46049613 -0.005569905 0.97566795
-0.6628293 -1.5963693 0.6259515 -0.35609826 -0.9984514 -0.15117887 0.60483366 1.1114798
0.048749894 1.390747 -0.18465115 -0.6988149 -0.49812934 0.073163435 -0.9463578 1.1422775
0.19229478 -0.45726448 0.44408736 0.008710779 1.0393231 -0.894628 1.205409 0.27661848
1.1102573 -0.56712645 -0.68852276 -0.22832207 -0.28551677 -1.5963732 0.645186 0.2336624
0.00457949 0.14760128 -0.1907013 1.3257271 0.00035818113 -0.3668302 0.97371876 -0.7039786
-0.94957906 0.6384603 0.7499962 -0.4120644 -0.7852177 -0.4754179 0.68091667 -0.6018189
0.20910019 0.39347336 0.0070111626 0.23226929 0.68229073 -0.9444957 -1.0796565 0.68368006
-0.2738043 0.054730903 0.7878203 -0.11355905 1.0380313 -1.4989418 0.23459052 0.20294884
-0.70023143 -0.54639035 0.20871648 0.32630414 0.70686173 -0.15835564 -0.96797013 0.23065598
0.153218 -0.6990588 -0.17274104 -0.05949577 -0.8722648 0.39617267 -0.19573447 -0.36349505
-0.02055132 -0.18766451 -0.7977369 -0.35662794 0.36970338 0.66467017 0.049106605 -0.74251837
0.10773159 0.5895685 -0.8727753 1.6366619 1.0647565 0.26151788 0.48941436 0.9620302
0.06686393 -1.1284806 0.75475323 0.47471482 -1.2100896 -0.3162746 0.089703344 1.2851025
-0.035674263 -1.1457897 -0.019225745 -0.072042614 -0.3051809 0.0022347972 0.2365952 0.09598692
-0.36365363 -0.0532679 -0.14724965 0.5089079 0.5413938 -0.5567132 -0.6058382 -0.2242213
0.1726104 0.6088477 -0.07929429 0.0907546 -0.16656323 -0.76456 -0.5619453 -1.0187385
-0.06808084 -0.18001519 0.763466 0.24375929 -0.4166335 0.5755231 0.0024527046 0.14738862
-0.5203054 0.9746103 0.19225568 -0.26589143 -0.6304814 0.30905667 0.10491048 0.9162701
-0.9330035 -0.4830031 0.061994422 0.89718395 0.18568946 0.71708757 -0.24489833 0.17794098
0.32122514 0.6204913 -0.31763992 -0.40131876 0.24066325 0.02227263 0.22668223 0.7981299
0.31592494 -0.75938445 0.68833053 0.3024725 0.033785354 0.3885334 -0.5764573 0.23508313
0.051845845 -0.35580948 -0.72687054 -0.47801828 -0.16448236 -0.4543035 0.38290143 -0.2367319
-0.8338207 -0.0006295854 -0.8071512 -0.3229623 -0.33762622 0.69024146 -0.2126438 0.8384469
-0.52236354 0.18175249 -1.1864061 0.30797544 0.039478537 0.11554919 0.33873582 0.43357924
-0.2915143 0.04220431 0.9607119 -0.21336964 -0.35218337 0.10272312 0.3946721 -0.070880055
-0.10790965 0.39067444 -0.37963137 0.45661852 -0.0632707 -0.8547764 -0.5736294 1.0879335
0.81637573 0.20856722 0.07027004 -1.2196841 0.2849848 0.25253817 -0.8326874 -0.07836502
0.50944006 -0.132874 0.7717223 -0.12796342 -1.1150874 0.55941796 0.9776232 0.14916497
0.13922292 0.6140547 0.7796998 0.0019291877 -0.25565302 1.0887707 0.9004069 0.20636953
-0.11837778 0.053327784 -0.31543398 -0.0051967013 0.927617 -0.14672521 -0.90463686 0.3288036
00000000: d888 07bf c670 863f 9191 b53e 5948 a9be
00000010: 74b0 85be 185a c43e 606f 90be 9c0c d53e
00000020: 0904 cc3f 539b a4bf 4118 163f 96b8 8b3e
00000030: 91a1 82be 26c6 eb3e c083 b6bb 60c5 793f
00000040: 2eaf 29bf d455 ccbf 5c3e 203f 8352 b6be
00000050: 839a 7fbf a2ce 1abe 61d6 1a3f f844 8e3f
00000060: f8ad 473d ff03 b23f 3115 3dbe 89e5 32bf
00000070: cf0a ffbe b6d6 953d 8144 72bf 2636 923f
00000080: ece8 443e 921e eabe 6b5f e33e a8b7 0e3c
00000090: 8a08 853f 5706 65bf d84a 9a3f f0a0 8d3e
000000a0: e91c 8e3f 332f 11bf 0743 30bf 43cd 69be
000000b0: 412f 92be f555 ccbf e92a 253f 3245 6f3e
000000c0: 8c0f 963b ca24 173e 3447 43be 6db1 a93f
000000d0: 42ca bb39 2bd1 bbbe a245 793f f137 34bf
000000e0: 9d17 73bf 2272 233f c0ff 3f3f 1bfa d2be
000000f0: 0704 49bf fa69 f3be 8e50 2e3f ce10 1abf
00000100: 5c1e 563e 5775 c93e e5bd e53b 00d8 6d3e
00000110: 9baa 2e3f 78ca 71bf 2f32 8abf a805 2f3f
00000120: 1430 8cbe 832d 603d 97ae 493f a691 e8bd
00000130: 36de 843f 53dd bfbf 7f38 703e d2d1 4f3e
00000140: 5e42 33bf 3de0 0bbf c6b9 553e 5611 a73e
00000150: e4f4 343f fb27 22be e4cc 77bf 1531 6c3e
00000160: 2ee5 1c3e 84f5 32bf 07e3 30be d6b1 73bd
00000170: bf4c 5fbf 25d7 ca3e 9e6e 48be 061c babe
00000180: 3e5b a8bc 202b 40be 7c38 4cbf f097 b6be
00000190: c349 bd3e d327 2a3f 0224 493d af15 3ebf
000001a0: 61a2 dc3d f6ed 163f 346e 5fbf 237e d13f
000001b0: f149 883f ace5 853e 8594 fa3e 9c47 763f
000001c0: f5ef 883d 0d72 90bf 8237 413f d20d f33e
000001d0: 37e4 9abf bfee a1be 63b6 b73d 3d7e a43f
000001e0: 2d1f 12bd 3da9 92bf 4f7f 9dbc 148b 93bd
000001f0: ac40 9cbe ad75 123b 0346 723e ca94 c43d
00000200: cf30 babe 712f 5abd 9dc8 16be ca47 023f
00000210: c998 0a3f c284 0ebf 3618 1bbf 459a 65be
00000220: c8c0 303e 71dd 1b3f 0b65 a2bd 8cdd b93d
00000230: 8d8f 2abe 34ba 43bf a6db 0fbf 0666 82bf
00000240: f86d 8bbd e755 38be 8272 433f 099c 793e
00000250: fc50 d5be 7b55 133f 8ebd 203b 0bed 163e
00000260: bc32 05bf 1080 793f acde 443e ec22 88be
00000270: 3b67 21bf ad3c 9e3e 4edb d63d ad90 6a3f
00000280: 51d9 6ebf 2f4c f7be dded 7d3d d9ad 653f
00000290: 6125 3e3e 0d93 373f a1c6 7abe 2936 363e
000002a0: 9f77 a43e 85d8 1e3f b3a1 a2be a779 cdbe
000002b0: 6d70 763e 1775 b63c 631f 683e 3e52 4c3f
000002c0: eac0 a13e 0567 42bf 6e36 303f addd 9a3e
000002d0: 8362 0a3d daed c63e b592 13bf a2b9 703e
000002e0: 4f5c 543d a92c b6be 3014 3abf d0be f4be
000002f0: 106e 28be 789a e8be a80b c43e d969 72be
00000300: 4675 55bf c30a 25ba 76a1 4ebf 515b a5be
00000310: 58dd acbe aab3 303f 4cbf 59be 75a4 563f
00000320: 9eb9 05bf 531d 3a3e 28dc 97bf f5ae 9d3e
00000330: 3fb4 213d 0ea5 ec3d c86e ad3e 19fe dd3e
00000340: 5d41 95be 6dde 2c3d 37f1 753f 927d 5abe
00000350: 6151 b4be 8060 d23d 7612 ca3e 9029 91bd
00000360: bcff dcbd 7b06 c83e 0b5f c2be e7c9 e93e
00000370: 1294 81bd a0d2 5abf 60d9 12bf 6841 8b3f
00000380: 00fe 503f a592 553e bde9 8f3d 9c1e 9cbf
00000390: 87e9 913e af4c 813e 002b 55bf d77d a0bd
000003a0: aa6a 023f 1f10 08be 988f 453f d808 03be
000003b0: 2fbb 8ebf 0436 0f3f 8445 7a3f b4be 183e
000003c0: 7490 0e3e b032 1d3f 689a 473f ccdc fc3a
000003d0: f4e4 82be d75c 8b3f 1181 663f 8952 533e
000003e0: 0d70 f2bd 3c6e 5a3d 9080 a1be 1749 aabb
000003f0: 4f78 6d3f 223f 16be 4896 67bf f258 a83e

fc3.bias f4 [4]
-0.376805 -0.11419439 0.13853331 0.02029471
00000000: 96ec c0be c0de e9bd addb 0d3e 1741 a63c
