SabrinaPalis-Grand-Chelem-a098441/agent2_checkpoint_actor.pth (torch_old, 142815 bytes, 6 tensors)

fc1.weight f4 [200, 24]
0	0x3d9fd062	0.07803418
1	0xbe7ccc03	-0.246872
2	0xbd422959	-0.047402713
3	0xbdbba72d	-0.091627456
4	0x3d33ca05	0.043893833
5	0x3d3d619f	0.046235677
6	0x3c3c9c70	0.011511907
7	0xbe3d8534	-0.18507844
8	0x3ddc4d6c	0.107569546
9	0xbe5ec94b	-0.21756475
10	0x3d2c4a78	0.042063206
11	0xbd099375	-0.03358789
12	0xbbaf13e8	-0.005342949
13	0xbe1b9d2c	-0.15196675
14	0x3d66ff59	0.056395862
15	0xbc12acf5	-0.008952369
16	0x3ccae09e	0.024765309
17	0xbdb49475	-0.088173784
18	0xbc008203	-0.007843497
19	0x3dbc4c94	0.091942936
20	0xbcf1ea8d	-0.029530788
21	0xbe6a6f2c	-0.22893971
22	0x3daa6f7d	0.08322046
23	0x3c79c8ed	0.015245658
24	0x3d7a1e09	0.0610638
25	0xbcc77546	-0.024347913
26	0xbb16b8f7	-0.0022998431
27	0x3e0219c6	0.12705144
28	0xbe59a979	-0.21256055
29	0xbc79d742	-0.015249075
30	0x3d79ae69	0.060957346
31	0x3dda2c6c	0.10653004
32	0x3c842107	0.01612903
33	0xbdb54555	-0.08851115
34	0x3b6cea5c	0.0036150431
35	0x3d79fb45	0.061030645
36	0xbde51770	-0.11186111
37	0x3e692ff6	0.22772202
38	0xbadbf298	-0.0016780673
39	0x3c0128dd	0.007883278
40	0xbcbb50cd	-0.022865677
41	0x3b9aca80	0.004723847
42	0x3cfd3e82	0.030913595
43	0x3e0cb8f9	0.13742436
44	0x39b5d58f	0.00034682124
45	0x3e82827d	0.2549018
46	0x3a65e2c9	0.00087694504
47	0x3defa649	0.11701638
48	0x3cddf79a	0.027095605
49	0x3db4c2ee	0.088262424
50	0x3ceb6ad2	0.02873746
51	0xbd1d1f2b	-0.038359802
52	0x3dac62d3	0.08417287
53	0x3da803d4	0.08203855
54	0x3d290c6d	0.041271616
55	0xbd0edcb2	-0.03487844
56	0xbbb2d748	-0.0054577924
57	0x3e1a112a	0.1504561
58	0xbd87ef63	-0.06637456
59	0xbd93c02a	-0.07214387
60	0x3e0448e4	0.1291843
61	0x3e22a48e	0.15883085
62	0xbda4addd	-0.08040974
63	0xbe25bda5	-0.16185625
64	0x3da63028	0.08114654
65	0x3c69c2e0	0.014267653
66	0xbd4cc2d0	-0.049990475
67	0xbcea7c20	-0.02862364
68	0x3dc1235e	0.09430574
69	0x3dc61047	0.096710734
70	0x3d830c64	0.06398848
71	0x3bcbac81	0.0062156324
72	0xbd4d8ddd	-0.05018412
73	0xbcc6dbb9	-0.024274694
74	0xbc15b4dc	-0.0091373585
75	0xbdfb9613	-0.12284484
76	0xbdddc52c	-0.10828623
77	0x3d037bb4	0.032100394
78	0xbc7da575	-0.015481343
79	0x3b3f6d99	0.0029209612
80	0xbd3e84ff	-0.046513554
81	0x3d999cda	0.0750062
82	0x3c2ed897	0.010671756
83	0x3d713d7c	0.058896527
84	0xbe255149	-0.16144289
85	0xbe3d8dfe	-0.18511197
86	0xbc5dfb0f	-0.013548627
87	0x3c0085e7	0.007844425
88	0x3d950335	0.07276002
89	0x3d7bb48a	0.061451472
90	0x3dac5b57	0.08415859
91	0x3da449cf	0.0802189
92	0xbe8774ca	-0.2645629
93	0xbe837ca6	-0.25681037
94	0x3c6de78a	0.014520535
95	0x3c2262a1	0.00991121
96	0x3c8f9d9e	0.017531212
97	0x3da2f65a	0.07957144
98	0xbd69fa6c	-0.057123587
99	0x3e0b6594	0.13612968
100	0xbe7a8733	-0.24465637
101	0x3e571c46	0.21006879
102	0x3cc46900	0.02397585
103	0x3e6d475b	0.23171751
104	0x3d004cdc	0.0313233
105	0x3e055088	0.13019001
106	0x3d1dc4fc	0.038517937
107	0x3e2c3967	0.16818772
108	0xbd6ff149	-0.058579717
109	0x3d8a08e2	0.067399755
110	0xbce63cd5	-0.028105179
111	0x3e0fc8ad	0.14041395
112	0xbd88223d	-0.066471554
113	0x3e28bb3f	0.16477679
114	0xbc9f1d1d	-0.019423062
115	0x3dd24178	0.102663934
116	0x3d45ae9b	0.04826222
117	0xbdd3a4c7	-0.10334163
118	0x3d05f9b7	0.03270885
119	0x3e4ba925	0.19888742
120	0x3cca2bdd	0.024679119
121	0xbdbf6a4e	-0.09346448
122	0x3d918663	0.0710571
123	0x3c766b99	0.015040302
124	0x3e5328f1	0.20621087
125	0xbe07663f	-0.13222598
126	0x3d31ea84	0.043436542
127	0xbd9c6dc0	-0.07638121
128	0x3ce137cb	0.027492424
129	0xbd93ddd0	-0.07220042
130	0xbcea5a7d	-0.028607601
131	0xbd06c950	-0.03290683
132	0x3da29b8f	0.07939827
133	0x3e1ffc30	0.15623546
134	0xbd3172f9	-0.043322537
135	0x3dabc7e2	0.08387734
136	0x3c800627	0.015627934
137	0xbdf77347	-0.12082534
138	0x3db3b8c9	0.08775479
139	0xbdb5d3a1	-0.08878256
140	0xbdb662c5	-0.089055575
141	0x3e85add6	0.2610919
142	0xbc513217	-0.01276829
143	0xbdc61b0d	-0.09673128
144	0xba8e1ae0	-0.001084175
145	0xbdccdeb4	-0.10003415
146	0x3dae3302	0.08505823
147	0xbcf8b68c	-0.030360483
148	0xbd605b66	-0.054774664
149	0xbea9b98e	-0.3314938
150	0xbce3fe30	-0.027831167
151	0xbbc26fa9	-0.005933721
152	0x3c209f47	0.0098036
153	0xbda57740	-0.08079386
154	0x3d8b0bc0	0.067893505
155	0xbdf5bb65	-0.11998633
156	0xbd09682f	-0.033546623
157	0xbea12a2a	-0.3147748
158	0xbc230998	-0.009951018
159	0xbdae6ce0	-0.0851686
160	0xbd2df3ab	-0.042468708
161	0xbc9eef4f	-0.01940122
162	0xbca82018	-0.020523116
163	0xbc6a19fb	-0.014288421
164	0x3b82b3b4	0.0039887074
165	0xbdf3753f	-0.11887597
166	0x3d23f5e6	0.04002943
167	0xbda5a990	-0.08088982
168	0x3dff499e	0.12465213
169	0xbd2f26f7	-0.04276177
170	0x3dd65f2a	0.1046737
171	0xbd73051e	-0.059331052
172	0xbc8f1329	-0.017465191
173	0xbdb5033d	-0.08838508
174	0xbb36074b	-0.0027775343
175	0xbc226361	-0.009911389
176	0xbd8d0326	-0.06885366
177	0xbd820e2f	-0.063503616
178	0xbc1e783d	-0.009672222
179	0xbd99fcff	-0.07518958
180	0xbdb652ed	-0.089025356
181	0x3e266b5b	0.1625189
182	0x3cd22085	0.025650272
183	0x3cb688b3	0.02228198
184	0x3bbc102c	0.0057392325
185	0xbc29e372	-0.010369169
186	0x3d987abe	0.07445286
187	0x3d35f235	0.04442044
188	0xbe12dad0	-0.14341283
189	0x3e8070b2	0.2508598
190	0xbd4fe8e3	-0.050759207
191	0xbd798451	-0.060917202
192	0xbc1dd915	-0.009634276
193	0x3b7cf6b8	0.0038599204
194	0x39d0b0af	0.0003980449
195	0x3d5fcc7b	0.054638367
196	0x3e30de99	0.17272414
197	0x3c18d5a2	0.009328278
198	0x3c15099d	0.00909653
199	0xbd2744c5	-0.040837068
200	0xbde58d13	-0.112085484
201	0xbc5b44e7	-0.013383127
202	0xbccce0c3	-0.025009518
203	0xbcdce1c0	-0.026963115
204	0x3ca45c04	0.020063408
205	0x3dd02946	0.10164122
206	0x3cceaafa	0.025228012
207	0x3cdc89b1	0.026921125
208	0xbdc120a9	-0.094300576
209	0xbdaf22ed	-0.085515834
210	0xbca57513	-0.020197427
211	0xbe183eea	-0.1486775
212	0xbcd72b85	-0.026265869
213	0x3e8ae8ec	0.2713083
214	0x3d1ca726	0.038245343
215	0xbe6603f7	-0.2246245
216	0xbd7fd34d	-0.06245737
217	0xbd9c3bd6	-0.076286
218	0x3a59e064	0.000831133
219	0x3d30b31b	0.04313956
220	0xbe10a734	-0.14126283
221	0x3d3f1f3e	0.046660654
222	0x3d2ddb9f	0.042445775
223	0x3cbd4df8	0.023108467
224	0x3d9ea254	0.077458054
225	0xbcb82acd	-0.022481347
226	0x3dbb1a07	0.09135824
227	0xbbe95a79	-0.007121381
228	0xbc5bdeaf	-0.013419791
229	0x3e08769c	0.13326496
230	0xbcc73d82	-0.024321321
231	0xbbbeb8ad	-0.005820355
232	0x3da30809	0.07960517
233	0xbd080e95	-0.03321703
234	0x3cd5a8de	0.026081499
235	0x3c17cb5b	0.009264792
236	0x3e2e3fd2	0.17016533
237	0x3e14b427	0.14521848
238	0xbd1d0a91	-0.038340155
239	0xbd40204f	-0.046905812
240	0xbd084993	-0.03327329
241	0xbd849576	-0.0647382
242	0xbd5da4c6	-0.05411222
243	0xbdca6e08	-0.09884268
244	0xbd315a5d	-0.043299068
245	0x3dba4105	0.09094433
246	0xbd4b8a5f	-0.049692508
247	0xbd8e811e	-0.06958221
248	0xbdb3af71	-0.08773697
249	0xbdde43ca	-0.108527735
250	0x3dd077a3	0.10179069
251	0x3db2068a	0.086926535
252	0x3c6363e3	0.013878795
253	0x3e2ac8ee	0.16678211
254	0xbc97fc98	-0.018553063
255	0xbbd87cd7	-0.006606679

fc1.bias f4 [200]
0	0x3e3fa27f	0.18714331
1	0x3db22bbe	0.086997494
2	0x3e002b79	0.12516584
3	0xbdc19495	-0.09452168
4	0xbe24d19f	-0.16095589
5	0xbd1a4df0	-0.037671983
6	0x3d40b560	0.047047973
7	0xbd950a27	-0.07277327
8	0x3e6a956a	0.2290856
9	0xbe29a44e	-0.16566584
10	0xbdca2424	-0.098701745
11	0xbcbb2cf0	-0.022848576
12	0x3e7a05e0	0.24416304
13	0xbe4c3972	-0.19943789
14	0x3e54b91c	0.20773739
15	0x3e29cea0	0.16582727
16	0xbd2506be	-0.040289633
17	0x3e03aad4	0.12858135
18	0x3dfcc39b	0.12341996
19	0xbe2624e0	-0.16225004
20	0xbd108917	-0.03528699
21	0x3e1830db	0.14862387
22	0x3e19cf08	0.15020382
23	0xbdd934fd	-0.1060581
24	0xbdc2921f	-0.09500527
25	0x3e082d70	0.13298583
26	0x3dc734f3	0.09726896
27	0x3d9e497c	0.0772886
28	0xbdd08094	-0.10180774
29	0xbe4774bd	-0.19478126
30	0x3b88e25f	0.004177376
31	0x3dcc3f0f	0.09972965
32	0x3e0aef2b	0.13567798
33	0xbe461936	-0.19345555
34	0xbbbe1a75	-0.005801494
35	0x3e705bd4	0.2347253
36	0xbe62defc	-0.22155374
37	0xbe123acf	-0.14280246
38	0x3e234a6e	0.15946361
39	0x3e8796fd	0.26482382
40	0xbe4d6e0e	-0.20061514
41	0xbe8c1a55	-0.2736384
42	0xbd735a38	-0.05941221
43	0x3e6348de	0.22195765
44	0xbd7f38d0	-0.06231004
45	0x3d1d4050	0.03839141
46	0x3e4a4c28	0.19755614
47	0x3b05b4fc	0.0020402065
48	0xbd57ca31	-0.05268306
49	0xbe4e7a69	-0.20163883
50	0x3c4dd293	0.012562412
51	0x3e1b7724	0.15182167
52	0x3e5844eb	0.2112004
53	0x3e34d73a	0.17660227
54	0xbd2abde1	-0.04168499
55	0x3cbac8ec	0.022800885
56	0xbd865d17	-0.06560724
57	0x3e49884e	0.19680902
58	0x3c133556	0.008984884
59	0xbe2b43e8	-0.16725123
60	0xbd8942d2	-0.06702198
61	0x3d468cc2	0.04847408
62	0x3e870de3	0.26377782
63	0xbdb773a3	-0.08957603
64	0xbe4bf218	-0.1991657
65	0xbe0c92d5	-0.13727887
66	0xbe7ce6d1	-0.24697424
67	0x3e2a71e3	0.16645007
68	0x3e775402	0.2415314
69	0x3ca5da56	0.020245712
70	0x3c887b43	0.016660338
71	0x3e57dbff	0.21080016
72	0x3e118726	0.14211711
73	0x3e3e3776	0.18575844
74	0x3e643d89	0.22289099
75	0x3ddede8e	0.10882293
76	0x3cd47953	0.025936758
77	0xbcfa008a	-0.030517835
78	0xbdd37ce2	-0.10326554
79	0x3d952180	0.0728178
80	0x3df37595	0.11887661
81	0xbd38b2ae	-0.045092277
82	0xbde65f75	-0.11248676
83	0xbe36d36b	-0.17854087
84	0x3e0c9648	0.13729203
85	0x3e0fc5d4	0.14040309
86	0xbe2fd03f	-0.17169283
87	0x3da5cb34	0.080953985
88	0x3d29129b	0.04127751
89	0x3e47a6d2	0.1949723
90	0xbe8590d6	-0.26087064
91	0xbe15d33d	-0.14631362
92	0xbdf9452a	-0.12171395
93	0x3e2adff3	0.16686992
94	0xbe8ce9ff	-0.27522275
95	0x3e308625	0.17238672
96	0x3e322a68	0.17398989
97	0xbd212d26	-0.039349698
98	0xbb368a25	-0.0027853337
99	0xbdbc3cf0	-0.091913104
100	0x3dba3cdc	0.09093639
101	0xbd928fe9	-0.07156355
102	0x3e3b34da	0.1828188
103	0x3d34c46c	0.044132635
104	0xbdd86239	-0.105656095
105	0xbe3007e7	-0.17190515
106	0xbe87319a	-0.2640503
107	0x3e429d30	0.19005275
108	0xbd6fa88c	-0.05851035
109	0xbd11e9ce	-0.035623364
110	0xbdd15cfe	-0.10222815
111	0xbe383bc2	-0.17991546
112	0xbdc2cd2c	-0.0951179
113	0xbd088ad0	-0.033335507
114	0xbe3b40e7	-0.18286477
115	0xbe401410	-0.18757653
116	0xbe28f93f	-0.1650133
117	0xbdbeddb5	-0.09319631
118	0x3e071b0b	0.1319391
119	0x3da5decd	0.080991365
120	0x3e10dd23	0.14146857
121	0xbe3ec3a3	-0.18629317
122	0x3e2a1843	0.16610818
123	0x3d96d971	0.073656924
124	0x3e10a6cd	0.1412613
125	0xbdbabfcc	-0.091186136
126	0x3dc273c6	0.09494738
127	0xbe4dcb0d	-0.20096989
128	0x3d9598e2	0.07304551
129	0x3e4da726	0.20083293
130	0xba9106e8	-0.001106468
131	0xbe2c085d	-0.16800065
132	0xbdb6ca1e	-0.089252695
133	0xbd7db8de	-0.06194388
134	0x3e2962c8	0.16541588
135	0xbd47d019	-0.04878244
136	0x3d4c64cc	0.049900815
137	0xbe607d9f	-0.2192292
138	0xbca2dea7	-0.01988156
139	0xbe1b8b3a	-0.1518983
140	0xbe03fa3e	-0.12888429
141	0xbe340eb0	-0.17583728
142	0x3e3c03f5	0.18360884
143	0x3e3631de	0.1779246
144	0x3cfb4fd8	0.03067772
145	0x3e5424f6	0.20717224
146	0x3dcafb6f	0.099112384
147	0xbe13362c	-0.14376134
148	0xbded03c1	-0.115729816
149	0xbe280c29	-0.16410889
150	0x3e1c783c	0.15280241
151	0x3daddabf	0.08488988
152	0xbca58f6a	-0.020209987
153	0x3e8308fc	0.25592792
154	0xbdbf30e0	-0.09335494
155	0xbdf5cf51	-0.12002433
156	0xbde5e545	-0.1122537
157	0xbe11b1e1	-0.14228012
158	0x3e7b1a00	0.24521637
159	0xbdde0716	-0.10841195
160	0xbdc985cb	-0.09839972
161	0x3dcf3cf4	0.10119048
162	0xbe84e550	-0.25956202
163	0xbe0cfded	-0.1376874
164	0x3e2b9116	0.16754565
165	0xbdad66ef	-0.08466899
166	0xbdf9a029	-0.12188751
167	0xbd99fc18	-0.07518786
168	0xbc255d8a	-0.010093102
169	0x3cd73229	0.026269035
170	0x3d464baa	0.048412003
171	0xbe866996	-0.2625243
172	0x3e147a1e	0.14499709
173	0xbe52dad1	-0.20591284
174	0x3def4395	0.11682812
175	0xbd37b4a7	-0.044850018
176	0xbc5e081d	-0.013551739
177	0x3e4eb672	0.20186785
178	0xbe463316	-0.19355425
179	0x3d1c825b	0.038210254
180	0x3e09a8ba	0.1344327
181	0x3e38b928	0.18039382
182	0xbe52d387	-0.20588504
183	0x3cf3a617	0.029742284
184	0x3e626e0f	0.22112297
185	0xbe417345	-0.18891628
186	0x3e089ac6	0.13340291
187	0xbe3cf276	-0.18451867
188	0x3dc663eb	0.096870266
189	0xbe2c2c14	-0.1681369
190	0x3dbbad0b	0.09163865
191	0xbd8b124a	-0.06790598
192	0x3dbf96cc	0.09354934
193	0xbc69dd3f	-0.014273941
194	0x3c5ca3ac	0.013466757
195	0xbc2dde79	-0.010612124
196	0xbde39d47	-0.11113983
197	0xbdfede22	-0.12444712
198	0x3d7f3851	0.062309567
199	0xbe329943	-0.17441277

fc2.weight f4 [150, 200]
0	0xbdbe4499	-0.09290428
1	0xbd2ea526	-0.042637967
2	0x3e26f6d8	0.16305101
3	0xbd3de847	-0.046364095
4	0xbd056096	-0.032562815
5	0xbd93d880	-0.072190285
6	0xbe6b1840	-0.2295847
7	0xbee28f95	-0.4425017
8	0xbd250b8b	-0.04029421
9	0x3df6d16a	0.12051661
10	0x3d2100f5	0.039307553
11	0x3b7c44d2	0.0038493169
12	0xbd130192	-0.03589017
13	0xbe17e446	-0.14833173
14	0x3d388d4e	0.045056634
15	0xbe3fb2dd	-0.18720575
16	0xbdc0da2a	-0.094166115
17	0x3ccee69e	0.025256451
18	0x3da3a261	0.07989956
19	0x3dcfbbda	0.10143252
20	0x3d8b1d09	0.067926474
21	0xbc70cb7e	-0.014696954
22	0x3d7a3ad0	0.061091244
23	0x3d6a1414	0.057148054
24	0x3c4bf3d3	0.012448269
25	0x3db5fd2b	0.088861786
26	0xbce6f0ed	-0.028191054
27	0xbc97d496	-0.018533986
28	0xbc33aa74	-0.010965932
29	0xbe354a05	-0.17704017
30	0xbdad231c	-0.08453962
31	0xbe92131b	-0.285302
32	0x3d901876	0.070359156
33	0xbd7ec1b7	-0.06219646
34	0xbd060d58	-0.03272757
35	0x3ddcc8d0	0.107804894
36	0x3e1e7138	0.15472877
37	0xbeb92310	-0.36159563
38	0xbdc9242b	-0.098213516
39	0xbe89455b	-0.26810727
40	0xbc647f8b	-0.013946424
41	0x3da5d220	0.08096719
42	0x3db49ba9	0.08818752
43	0xbdfe956b	-0.12430843
44	0xbd303134	-0.043015674
45	0xbdfa655d	-0.12226365
46	0x3ce9fbbf	0.028562425
47	0xbdbf2554	-0.09333292
48	0xbd21dfc2	-0.039520033
49	0xbbe7fa89	-0.0070794267
50	0x3d0f9837	0.035057273
51	0xbd8f2e2f	-0.06991231
52	0xbf091fe2	-0.53564274
53	0xbe32fc67	-0.17479096
54	0x3d6cf5b0	0.057851493
55	0x3c2167bc	0.009851392
56	0xbda7b85a	-0.08189459
57	0xbdc1958b	-0.09452351
58	0xbe172d38	-0.14763343
59	0x3d514845	0.051094312
60	0xbda798b8	-0.08183426
61	0xbdd64613	-0.10462584
62	0xbd2acf11	-0.04170138
63	0x3b58b56b	0.0033067118
64	0xbe1b161d	-0.15145154
65	0x3dbac1ef	0.09119021
66	0xbcbbb28b	-0.022912284
67	0x3d9ad8fd	0.075609185
68	0xbdbe2bd6	-0.09285705
69	0xbc83ddd0	-0.01609698
70	0x39d4a517	0.00040558793
71	0xbb3a82e6	-0.002845937
72	0x3d8e89da	0.06959887
73	0x3d5971cf	0.053087052
74	0x3df6b9fc	0.120471925
75	0xbdd2c237	-0.1029095
76	0xbdacb998	-0.08433837
77	0xbdae763c	-0.08518645
78	0xbda0c036	-0.07849161
79	0x3d52fb2a	0.05150906
80	0x3c3a275e	0.011361925
81	0xbe16162e	-0.14656898
82	0x3dcd450f	0.100229375
83	0x3dc3f4f0	0.095682025
84	0xbc2dba54	-0.010603506
85	0x3d0e6a1f	0.034769174
86	0xbdc4f9eb	-0.096179806
87	0xbd8d6936	-0.06904833
88	0xbd8ba885	-0.06819252
89	0xbe64e374	-0.22352391
90	0xbdb93252	-0.09042801
91	0x3d7a8854	0.06116517
92	0xbe42f5db	-0.19039099
93	0x3cdd47d2	0.027011786
94	0xbc19e502	-0.009392979
95	0x3e3c4914	0.18387252
96	0xbdd3eae4	-0.10347536
97	0x3df7da39	0.121021695
98	0x3df6b410	0.12046063
99	0xbcca2e17	-0.02468018
100	0x3d66755f	0.056264278
101	0x3db0a222	0.086246744
102	0x3c8c6ee8	0.017142728
103	0x3dd60c5c	0.10451576
104	0x3dc2075e	0.094740614
105	0xbe7ddfcc	-0.24792403
106	0x3dc9e212	0.098575726
107	0xbeb64199	-0.35596922
108	0xbdf4868d	-0.11939726
109	0xbe323395	-0.1740249
110	0x3cfd1d92	0.03089789
111	0xbdc79f96	-0.097472355
112	0xbdaf6720	-0.085645914
113	0xbe006449	-0.12538256
114	0xbe231001	-0.15924074
115	0xbca89ee3	-0.020583576
116	0xbcef1b98	-0.029187962
117	0x3d88e230	0.06683767
118	0xbdced686	-0.10099511
119	0x3d223e56	0.03961023
120	0xbd7af8ec	-0.061272547
121	0xbe54d363	-0.20783763
122	0x3c286825	0.010278736
123	0x3b1dec30	0.0024097078
124	0x3da5e218	0.080997646
125	0xbe0b7909	-0.1362039
126	0xbdddf994	-0.10838619
127	0x3c93738e	0.017999437
128	0xbd6685f2	-0.056280084
129	0xbd104f4a	-0.035231866
130	0xbd742c2a	-0.05961243
131	0xbd995647	-0.07487159
132	0xbdfea8f2	-0.124345675
133	0xbda3a8a7	-0.07991152
134	0x3cb09199	0.021553801
135	0x3ddd80e9	0.10815603
136	0x3be428c4	0.0069628675
137	0xbe908c91	-0.28232244
138	0x3cb0dc86	0.021589529
139	0xbe3171ec	-0.17328614
140	0x3d0837ec	0.033256456
141	0xbbb61623	-0.005556838
142	0x3d1c0c05	0.0380974
143	0x3de64586	0.11243729
144	0x3d84a667	0.06477051
145	0x3d455b86	0.048182987
146	0xbdeb409e	-0.11486934
147	0xbd9aa16f	-0.07550322
148	0xbdde4f1b	-0.10854932
149	0xb996cdc7	-0.00028763546
150	0x3d1bcd1d	0.03803741
151	0x3db23136	0.087007925
152	0x3da60332	0.08106078
153	0xbe0db9ea	-0.13840452
154	0xbd6fe4c9	-0.058567796
155	0xbb499bd9	-0.0030763058
156	0xbda1f2f2	-0.07907666
157	0x3e21b1fe	0.15790555
158	0xbc9a0d5e	-0.018805202
159	0x3c7e5257	0.015522561
160	0x3d28a353	0.041171383
161	0xbebfcb47	-0.37459776
162	0x3b9f1a5e	0.004855438
163	0x3d6aae1e	0.057294957
164	0xbcd207a5	-0.02563841
165	0x3d1703bd	0.0368688
166	0xbe86e308	-0.26345086
167	0xbd0d1f85	-0.034453887
168	0x3d7aff3a	0.06127856
169	0x3c5b092a	0.013368884
170	0x3d5a480f	0.053291377
171	0x3de3b2ec	0.11118111
172	0x3df27dda	0.118404105
173	0xbda8ed40	-0.08248377
174	0x3d9492ca	0.0725456
175	0x3ca0514d	0.019570017
176	0x3de9e8f6	0.11421387
177	0xbdc68753	-0.0969378
178	0xbd60c01e	-0.054870717
179	0xbe5c6ecd	-0.21526642
180	0x3dfabd54	0.12243143
181	0xbddfea9b	-0.10933419
182	0xbe585ffe	-0.21130368
183	0x3ba23e87	0.0049513015
184	0xbdde77dc	-0.10862705
185	0xbceb41d7	-0.028717918
186	0xbc3c1ac1	-0.011480988
187	0xbd9594e5	-0.0730379
188	0xbe1608ab	-0.14651744
189	0xbd88ec9c	-0.06685755
190	0x3cbcd85c	0.023052387
191	0x3dab78df	0.08372664
192	0x3c5cfe5c	0.013488378
193	0x3dbc0a39	0.09181637
194	0x3c98e269	0.018662648
195	0x3d672408	0.056430846
196	0x3cbc5756	0.022990864
197	0xbe259715	-0.16170914
198	0xbdc27e51	-0.09496749
199	0xbe24dd5b	-0.16100065
200	0xbcb522e4	-0.022111364
201	0x3ddb0230	0.106937766
202	0x3d88053b	0.06641623
203	0xbe29da75	-0.16587241
204	0x3de1ba82	0.11021902
205	0x3d5be562	0.053685553
206	0xbdc146b6	-0.09437315
207	0x3d8d47f3	0.06898489
208	0xbd3021f4	-0.04300113
209	0x3e529b4d	0.20567055
210	0x3d9a7894	0.0754253
211	0xbe21ba4d	-0.15793724
212	0x3d11affb	0.03556822
213	0x3dabd646	0.08390479
214	0x3d014405	0.03155901
215	0x3db97a32	0.0905651
216	0xbc8023de	-0.015642103
217	0x3a7d3171	0.00096585514
218	0x3d9954dc	0.07486889
219	0xbc4b79d8	-0.0124191865
220	0xbcf6d4df	-0.030130802
221	0x3da7d755	0.08195368
222	0xbda0a0fe	-0.07843207
223	0x3d3837f9	0.044975255
224	0xbe4cf14f	-0.20013927
225	0xbd155b83	-0.036464226
226	0xbdc792cf	-0.097447984
227	0xbcb8f271	-0.022576543
228	0x3cb57414	0.022150077
229	0x3cc8e324	0.024522372
230	0x3dc2cda9	0.09511883
231	0x3a9d9eb5	0.0012025448
232	0xbd56c9e8	-0.052438647
233	0xbdf5327c	-0.1197252
234	0x3d1bd6f8	0.038046807
235	0x3dad6bd4	0.08467832
236	0x3d657755	0.056022007
237	0x3c908001	0.017639162
238	0x3cfed58d	0.031107688
239	0x3d70d6d7	0.058798637
240	0x3da6e97d	0.08150003
241	0xbdb017e3	-0.08598306
242	0x3dd5f20c	0.104465574
243	0xbda42c8c	-0.08016309
244	0xbdcae4e8	-0.09906942
245	0xbd488579	-0.048955414
246	0x3d0eed47	0.034894254
247	0xbd2655d8	-0.04060921
248	0x3b5fc300	0.0034143329
249	0xbd2a1490	-0.041523516
250	0xbd075434	-0.033039287
251	0xbdab0e3f	-0.083523266
252	0xbc3618de	-0.011114327
253	0x3d5bacec	0.053631708
254	0xbc6c08e0	-0.014406413
255	0x3d044587	0.03229287

fc2.bias f4 [150]
0	0xbd4ba5fc	-0.049718842
1	0x3d776608	0.06040004
2	0x3a86bfe9	0.0010280582
3	0xbd9287b6	-0.07154791
4	0x3dadc56c	0.08484921
5	0xbdb42c9f	-0.08797573
6	0x3db1eda7	0.08687907
7	0x3d2b3c4f	0.04180556
8	0x3cf01aac	0.029309593
9	0x3d35059b	0.0441948
10	0x3dc86dcb	0.09786566
11	0xbd14498a	-0.036202945
12	0xbd8295e9	-0.06376249
13	0x3d5c062d	0.053716827
14	0xbdf6fb3e	-0.120596394
15	0xbc29aedd	-0.010356632
16	0x3da78edd	0.08181546
17	0xbb729897	-0.003701722
18	0xbcdbb66f	-0.02682039
19	0x3d4332f9	0.047656033
20	0x3cf2c040	0.029632688
21	0x3d3a2bff	0.045452114
22	0x3d915e93	0.07098117
23	0x3ddd9a69	0.10820467
24	0x3dea97e4	0.11454752
25	0x3e1fe225	0.15613611
26	0x3d09be3f	0.0336287
27	0x3ce4b01e	0.02791601
28	0x3df31921	0.11870027
29	0x3af2b69a	0.0018517554
30	0xbd0da18a	-0.034577884
31	0x3d2833c9	0.04106501
32	0xbd974439	-0.07386059
33	0xbd7c03d8	-0.061527103
34	0xbd08d8c4	-0.03340985
35	0x3d8b309f	0.06796383
36	0x3d971fca	0.0737911
37	0xbcb0d6c8	-0.02158679
38	0xbb4f6ede	-0.0031651775
39	0xbdba735b	-0.091040336
40	0x3e06bf57	0.13158928
41	0x3b8892de	0.0041678986
42	0xbd71b828	-0.059013516
43	0xbe2d7dee	-0.1694257
44	0x3d8da9a1	0.0691712
45	0x3d6d268a	0.05789808
46	0x3e29f2fd	0.16596599
47	0xbc879bf0	-0.016553849
48	0x3da866bd	0.08222721
49	0x3d30dacf	0.043177422
50	0xbbe7c19d	-0.007072641
51	0xbd10eb10	-0.035380423
52	0x3d812d73	0.06307497
53	0x3c4aa63c	0.012368735
54	0xbdba727b	-0.09103867
55	0xbd86179f	-0.06547474
56	0x3d2a17a8	0.041526467
57	0x3de28c9b	0.110619746
58	0x3d956c7a	0.07296081
59	0xbdd05694	-0.101727635
60	0xbc2e6cca	-0.0106460545
61	0xbc6c8fbf	-0.014438569
62	0xbc8d9dc9	-0.017287152
63	0x3d8fe4d2	0.07026066
64	0x3c88b19e	0.016686257
65	0x3cebdbc2	0.028791312
66	0x3ab2b907	0.0013635465
67	0xbc9ae44c	-0.018907689
68	0xbd8d3f93	-0.068968914
69	0x3de901ff	0.11377334
70	0x3b23141a	0.0024883808
71	0x3e278c55	0.16362126
72	0x3c6d9607	0.014501101
73	0x3d0865ce	0.033300214
74	0xbd913eab	-0.07092031
75	0x3d806ea9	0.06271107
76	0xbd274589	-0.0408378
77	0x3df10dc6	0.11770205
78	0xbd986705	-0.074415244
79	0xbbe2ad4c	-0.0069176313
80	0x3ceb93c4	0.028756984
81	0xbdb1fa8d	-0.08690367
82	0xbd82234d	-0.06354389
83	0x3d08649b	0.03329907
84	0xbbe952ce	-0.007120467
85	0xba7dcfb1	-0.00096821325
86	0x3d7a27d1	0.061073128
87	0x3d5ab0d3	0.05339129
88	0x3c8e591a	0.017376471
89	0xbcf8cffa	-0.030372608
90	0x3cc487ce	0.023990538
91	0xbd880acd	-0.06642685
92	0xbd38db28	-0.04513088
93	0x3d22ca05	0.039743442
94	0x3d73eeeb	0.05955402
95	0xbc2ddeff	-0.010612248
96	0xbc5637fd	-0.013074872
97	0xbd911eda	-0.070859626
98	0xbd8bda17	-0.06828707
99	0xbd752709	-0.05985168
100	0x3def016a	0.116701916
101	0xbc14b694	-0.009076733
102	0x3dbd7b68	0.092520535
103	0x3df99238	0.12186092
104	0x3d181008	0.037124664
105	0xbcd6c60a	-0.02621748
106	0xbcb8c637	-0.022555454
107	0x3d78e4b0	0.06076497
108	0xbd2534f4	-0.040333703
109	0xbc3016e0	-0.010747641
110	0x3e028c1c	0.1274876
111	0x3d037c7c	0.03210114
112	0x3da13404	0.07871249
113	0xbc989d7e	-0.018629786
114	0x3ba76b4b	0.005109226
115	0x3d1dc611	0.03851897
116	0xbd232223	-0.039827477
117	0xbcd1acd8	-0.025595114
118	0xbd4525ab	-0.048131626
119	0x3c3f40bb	0.011673148
120	0xbdbabdc0	-0.09118223
121	0x3d9df09f	0.077119105
122	0x3b8a8d61	0.0042282795
123	0xbd701d8a	-0.05862192
124	0xbcd472c7	-0.025933636
125	0x3d9b427c	0.0758104
126	0xbc982e05	-0.018576631
127	0xbd061b8f	-0.032741126
128	0x3d379cbf	0.04482722
129	0xbc9dce3d	-0.019263381
130	0x3d538a67	0.051645663
131	0x3d9ecdee	0.07754122
132	0x3d7d368a	0.06181959
133	0xbd8a5d49	-0.06756074
134	0x3d3fcd64	0.046826735
135	0xbbd690fc	-0.006548045
136	0x3d18bab1	0.037287418
137	0x3de2f921	0.11082674
138	0x3d148155	0.036256153
139	0xbcfdef2d	-0.030997837
140	0x3daa8e6c	0.08327946
141	0xbdc5065a	-0.09620352
142	0x3d95405d	0.07287667
143	0xbd0f5412	-0.034992285
144	0xbdd5d904	-0.10441783
145	0x3ccaf5e2	0.02477545
146	0x3d01b3a5	0.031665463
147	0x3da03f4e	0.078245744
148	0x3d5044de	0.050846927
149	0xbda4e4bb	-0.080514394

fc3.weight f4 [2, 150]
0	0x3ee9bedd	0.4565343
1	0x3ce09bc8	0.027418032
2	0xbccc5770	-0.024944037
3	0xbcb0c704	-0.021579273
4	0xbc72660f	-0.0147948405
5	0xbcf609ba	-0.030033935
6	0x3d25b25c	0.0404533
7	0x3e4d1a9c	0.20029682
8	0xbaf04c9f	-0.0018333382
9	0x3dd5ea8d	0.10445128
10	0x3dbb60d2	0.091493264
11	0x3dd9b524	0.10630253
12	0xbcaabfc0	-0.020843387
13	0xbc53c3ff	-0.012925147
14	0xbcc5f8c6	-0.024166476
15	0x3db518bf	0.088426106
16	0xbe3e0b8a	-0.1855909
17	0x3e78e188	0.24304783
18	0xbce24acd	-0.027623558
19	0x3c9457cc	0.018108271
20	0x3e9dda2a	0.30830508
21	0x3ca7397c	0.020413153
22	0x3db22da4	0.087001115
23	0xbde02c39	-0.10945935
24	0x3ca2d0e1	0.019874992
25	0x3e1f8b7c	0.15580553
26	0x3e172179	0.14758863
27	0xbdf1bf23	-0.118040346
28	0x3dd260a4	0.10272339
29	0xbc01184f	-0.007879331
30	0x3dd22e2d	0.102627136
31	0x3e856def	0.26060435
32	0x3d9f7547	0.07786041
33	0x3e42ecd0	0.1903565
34	0x3ea27cb4	0.31735766
35	0x3e893419	0.2679756
36	0x3e390cf3	0.18071346
37	0x3e77b980	0.24191856
38	0x3e881fc9	0.2658675
39	0xbcd5ca83	-0.026097542
40	0x3e2fa74c	0.17153662
41	0xbe435cf6	-0.1907843
42	0xbd26ebd8	-0.040752262
43	0xbb92d30f	-0.0044807266
44	0x3e21c478	0.15797603
45	0x3d66767f	0.05626535
46	0xbc8f227c	-0.017472498
47	0xbd7e2ecc	-0.062056348
48	0xbda4ffe7	-0.08056622
49	0xbe274f92	-0.16338947
50	0x3e020d5e	0.12700412
51	0x3e724f3c	0.23663038
52	0xbb858ddb	-0.0040757484
53	0x3e3c65d3	0.18398218
54	0xbc98e38d	-0.018663192
55	0x3d4d0c32	0.05006046
56	0xbd5490b5	-0.051895816
57	0x3d04ba0c	0.03240399
58	0x3df527aa	0.11970456
59	0x3e2eebb0	0.17082095
60	0x3dd7b462	0.10532452
61	0x3e31ef6c	0.17376488
62	0x3d9bc82f	0.07606541
63	0x3e99020e	0.2988438
64	0x3dfe51fc	0.12417981
65	0x3d153aba	0.03643296
66	0x3da61bd4	0.081107765
67	0x3d1f4c7b	0.038891297
68	0xbd29ab0c	-0.04142289
69	0xbd7a8ba4	-0.061168328
70	0xbcc0bb8d	-0.023526931
71	0x3c02c97e	0.00798261
72	0xbd3b4aed	-0.04572575
73	0x3d1b8ade	0.03797423
74	0x3d989af0	0.07451427
75	0x3e094618	0.13405645
76	0x3e9a5e94	0.30150282
77	0x3e14fbaf	0.14549135
78	0x3d56bafc	0.052424416
79	0x3df1a4d6	0.11799018
80	0x3e54a172	0.20764711
81	0xbd103113	-0.03520305
82	0xbe2682d1	-0.1626084
83	0xbcc3dd7d	-0.023909325
84	0xbe074652	-0.13210419
85	0xbc833a79	-0.016019093
86	0xbdce8220	-0.10083413
87	0x3e68735b	0.22700255
88	0xbe9115ee	-0.28337044
89	0x3dc97f2f	0.098387115
90	0x3d5728d5	0.052529175
91	0xbbf64bfb	-0.007516382
92	0xbd0c4a23	-0.03425039
93	0x3de76725	0.1129897
94	0x3ce91991	0.028454574
95	0x3e032ff8	0.12811267
96	0x3df5b277	0.1199693
97	0x3e8990e0	0.26868343
98	0xbd379e01	-0.04482842
99	0x3ebe2cc8	0.3714354
100	0x3de40e96	0.111355945
101	0x3def786f	0.11692893
102	0x3e048ecb	0.12945096
103	0x3e65cc65	0.22441252
104	0x3e2f63f1	0.17127968
105	0x3dfa7978	0.122301996
106	0x3e0692ae	0.13141891
107	0x3e33809e	0.17529532
108	0x3df3d54a	0.11905916
109	0x3e597648	0.21236527
110	0x3df1bef7	0.11804002
111	0x3e4e2a62	0.20133355
112	0xbd282f91	-0.041060988
113	0x3e4830fa	0.19549933
114	0xbd37506d	-0.044754434
115	0x3e0f71c5	0.14008243
116	0xbc90699c	-0.017628483
117	0x3e046e5c	0.12932724
118	0x3eaf6a75	0.34260908
119	0xbd14aa73	-0.036295366
120	0x3d84d725	0.06486348
121	0x3d9f7001	0.07785035
122	0xbd9b0d0d	-0.075708486
123	0xbc45e866	-0.012079334
124	0x3ea508d2	0.32233292
125	0x3cd43aac	0.025906883
126	0xbd26e366	-0.040744208
127	0xbd478e7e	-0.048719876
128	0x3d360240	0.04443574
129	0x3eb00fb6	0.34386986
130	0xbd7652e2	-0.060137637
131	0x3d9c115e	0.076205
132	0x3e1dbc40	0.15403843
133	0x3e42554b	0.18977849
134	0x3e39e876	0.18155083
135	0xbd0c22d8	-0.034212917
136	0xbdf62c88	-0.120202124
137	0x3da5221e	0.08063148
138	0x3c45cbde	0.0120725315
139	0xbcbad4c0	-0.022806525
140	0x3e86d0cd	0.26331177
141	0xbcb9ee50	-0.022696644
142	0x3e6b2ff5	0.22967513
143	0x3da60108	0.081056654
144	0x3e51cb11	0.2048762
145	0xbe90269a	-0.2815445
146	0x3e88c407	0.26712057
147	0x3e11ad53	0.14226274
148	0x3e7ae889	0.24502768
149	0x3d7c7303	0.06163312
150	0x3e247dab	0.16063564
151	0xbe0a923e	-0.1353235
152	0x3d5b254c	0.053502366
153	0x3d3e247b	0.04642151
154	0xbe72477a	-0.23660079
155	0x3dc6f890	0.09715378
156	0xbe5487aa	-0.20754877
157	0x3dbd4c3d	0.09243057
158	0xbe325031	-0.17413403
159	0xbe9da8b3	-0.3079277
160	0x3d0a4817	0.033760156
161	0x3ddcf3d7	0.10788696
162	0x3ec0f036	0.37683266
163	0xbe8b1e88	-0.2717173
164	0x3e2a3159	0.16620387
165	0x3e1e97c1	0.15487577
166	0xbf1dece7	-0.6168961
167	0x3dc75487	0.09732919
168	0x3d05fd93	0.03271253
169	0xbeb093f4	-0.3448788
170	0x3e2e90b5	0.17047389
171	0xbe8342b9	-0.25636843
172	0xbe49b888	-0.196993
173	0xbd8b1b0d	-0.06792269
174	0xbe281e81	-0.16417886
175	0x3e40b939	0.18820657
176	0x3daadb7e	0.08342646
177	0xbe22f67b	-0.15914337
178	0xbd5a50e8	-0.053299814
179	0x3d2094fb	0.03920458
180	0x3c71e4e6	0.014764046
181	0xbdb318b9	-0.0874495
182	0x3e696b78	0.22794902
183	0x3e04a659	0.12954082
184	0xbde8132e	-0.11331783
185	0x3cb994c9	0.022653954
186	0x3d41910e	0.047257476
187	0x3d074405	0.033023853
188	0xbe6054ab	-0.21907298
189	0x3d0aa615	0.033849794
190	0x3d859178	0.065218866
191	0xbd893d6f	-0.06701171
192	0x3cf04f95	0.029334823
193	0x3e26ea01	0.16300203
194	0x3e62f9b7	0.22165571
195	0x3d4cc708	0.0499945
196	0xbe95a39e	-0.29226393
197	0xbaa6b4ca	-0.0012718674
198	0xbe33faff	-0.17576216
199	0xbda4ebeb	-0.0805281
200	0xbd3f4bf6	-0.0467033
201	0x3e590a24	0.21195275
202	0xbe6e4304	-0.23267752
203	0x3dc49d6f	0.096003406
204	0x3de73ad4	0.112905174
205	0xbed272a5	-0.41103092
206	0x3d0b03b1	0.033939067
207	0xbe98232b	-0.2971433
208	0xbe67d26a	-0.2263886
209	0x3cfa1ddb	0.030531814
210	0x3e80cb33	0.2515503
211	0x3e64ce1e	0.22344252
212	0x3d9d5920	0.07683015
213	0x3d920bde	0.0713117
214	0xbe80f1cf	-0.25184485
215	0x3e47d573	0.19515018
216	0xbd1254e8	-0.035725504
217	0x3e74372c	0.23849171
218	0x3d225225	0.03962912
219	0xbe1a2cb6	-0.15056118
220	0x3c988879	0.018619763
221	0xbe40e7f9	-0.1883849
222	0x3d2ab77d	0.041678894
223	0xbe9e667f	-0.30937573
224	0x3e0be05c	0.13659805
225	0xbe3f2a3a	-0.18668452
226	0xbd91fbc0	-0.071280956
227	0xbd873b41	-0.06603099
228	0x3e68f57a	0.22749892
229	0x3d5ae357	0.053439464
230	0x3e65a48a	0.22426048
231	0x3ca60605	0.020266542
232	0xbe3794ab	-0.17927806
233	0xbea12128	-0.3147061
234	0xbd9a8641	-0.07545138
235	0x3dff05ac	0.12452254
236	0xbcfa816d	-0.030579293
237	0x3d316528	0.04330936
238	0xbdce2fbe	-0.100677
239	0xbda1d7aa	-0.07902463
240	0x3d16cab3	0.036814403
241	0x3e0de479	0.13856687
242	0x3d14302a	0.036178745
243	0xbd2aafca	-0.04167155
244	0x3e61f60f	0.2206652
245	0x3e41f6f4	0.18941861
246	0x3de58bf3	0.11208334
247	0x3cbc869b	0.023013404
248	0x3d439c26	0.047756337
249	0xbe078bc1	-0.13236906
250	0xbe15fbbc	-0.1464681
251	0x3e3b581e	0.18295333
252	0xbe5dbe45	-0.21654613
253	0xbda5afa6	-0.08090143
254	0xbd3ee412	-0.046604224
255	0x3e07700f	0.1322634

fc3.bias f4 [2]
0	0xbd9533c7	-0.07285266
1	0xbc05f7b0	-0.008176729
