SabrinaPalis-Grand-Chelem-a098441/agent2_checkpoint_critic.pth (torch_old, 164613 bytes, 5 tensors)

fcs1.weight f4 [200, 52]
00000000: 4f96 c5bc 291e 0dbf 0352 2d3c 8b44 8dbc
00000010: c6e2 0f3f 83b3 a0be c4c1 c5bd 6125 92bc
00000020: cfc8 033f 802e c8be 9353 f9bd 43d5 0b3e
00000030: 94b8 733e 258a 07be a62c f6bd 00c1 113e
00000040: 588c 4f3f d0d4 25be 1db1 79bd b9ec ad3e
00000050: 3079 283e dbf9 cfbe a587 93bd 213f 953e
00000060: 87d4 713e 82ee 733e c347 52bd 4315 413e
00000070: e45e f8be fa4c d3be f8e9 5bbd 522a 133e
00000080: 5b50 cf3e 04b5 0d3e 56a2 60bd 1bbc a6be
00000090: 145a a3be ac3c 60bd 2e33 87bd 06e5 bbbe
000000a0: 6d92 f03e 02d7 1abb 549f 9b3c 4008 43be
000000b0: b6c3 e8bd 2fad bebe 7ec1 843d af72 3abe
000000c0: c006 35be 5abb 08c0 bfe5 bb3f c1da 453f
000000d0: f2de 80be 63eb ac3d f311 14bd de0c 123d
000000e0: 2384 54bf 8dc0 edbd 8a51 0a3d 0acc 11bc
000000f0: 9a15 c43d 157d 3e3c 5196 91bd 840a a9bd
00000100: 0b18 88bc 1f60 e43d 933a 093d 5739 6cbd
00000110: 1e30 ae3e 4503 c5bd 6787 cebc 78ab c13d
00000120: 8e72 463f 6613 0c3f a567 a0bb 13f4 c93d
00000130: 3530 9ebd e412 1c3d 97b3 093c c096 c0bb
00000140: 0b72 583f edd0 34bc 0cf6 51bb d600 753b
00000150: f8fe 383d 4509 7f3e b252 7c3b d135 9ebc
00000160: ba74 ad3d 10e9 073e 02d4 9dbc 6b5b 8dbb
00000170: 58bb 023e f053 bd3e 8207 0dbd 89ba 863d
00000180: 5a3b 5ebf e77b 1a3f c5cb 0b3d 8528 653d
00000190: 3165 4d3f 213e 27bc 7bba 8ebe ea80 713e
000001a0: fb3b e33e 721a 043f 7d98 263d 2a82 9cbd
000001b0: d67a 21be 3485 023f 02ec 18bd 966a 03be
000001c0: 6bfa ea3e ed65 ca3e c893 abbd 2eea 6b3d
000001d0: 78a4 42bd 0ac6 dfbd fadd bd3c 8c29 19bd
000001e0: 5bda 403f 1b9b a43e 7759 20bd 1020 e4bd
000001f0: ee6c cebd e82c cabf 585f 43bd bf4a 2bbd
00000200: 5747 02bf d833 e5bb 792f b73c 887a c63d
00000210: 40b7 693e 671e 093f e912 263b f8ce 583d
00000220: dc2b 90be 1d57 c63c 6db2 16bd 4b1c 433e
00000230: f79c a03c 4a8f 8bbd 3302 5cbc 47ff f23d
00000240: c2f2 75be 9547 a0bb 62ce bfbd cc69 cc3d
00000250: 8378 563d c122 d3bf cb04 a8bd 7be2 123d
00000260: ff1f b53e abec 333f 614b cdbe e422 48bf
00000270: 56ed 9dbe 19a1 c63f 2e11 47bd a286 593e
00000280: 9dcf 21be 44b3 88bc 880b 433d 6576 483e
00000290: d1d5 d1bc 7bc7 de3f 1f06 9bbc 3ed8 34bc
000002a0: 02b5 cebd a4fa 89be b745 08bd 4e0a 963a
000002b0: fca6 953e b149 c43f cf62 15bd 959a 973d
000002c0: 9d41 d23c 5ac4 82bf 4254 96bc 0307 373d
000002d0: 1745 bf3d d027 d4be 6f47 e83a e99d 29be
000002e0: a172 193e 517d 8d3d 3131 56bc 65f3 21be
000002f0: 58df e13d 4706 0bbf c156 c23c 4f02 a5bd
00000300: 5945 44bc 15ba 99be 1a25 643b 462b 15bd
00000310: 0741 963d 25cb 15bf c6f5 b3bd 2a4f bebd
00000320: d609 2d3d 276a 73bf 1b7b 12bb fe3c 7cbd
00000330: 4200 1dbf e9a2 213e a91b a2bf 422f 09bf
00000340: 7399 8b3e aac0 f23e 5e8f 63bd 0442 44be
00000350: 0232 85be 52e2 88be 87c3 adbd 8486 02be
00000360: 3e68 d23e 6013 dd3e 605a 63bd 3831 193e
00000370: d82c f3bd c486 77bf 461a 0abc a5c1 2a3e
00000380: 0416 9f3e b36e 163f 3a31 3b3d c93d 903e
00000390: 0056 f4bd cf6c ecbf 0716 23bd bd4f 743e
000003a0: f641 23be 6ef2 963e 84b7 a3bc 9511 a7be
000003b0: 5b6a 3b3e 9046 77be 0928 dd3b 4297 b6be
000003c0: 83c3 b5bd 1997 643e 2b49 2ebd 38a1 2abe
000003d0: 1555 383e c01b 6abf 285a 2ebc 4130 59be
000003e0: 716c 253c 77af 043d 3cc2 66bd 74bf 553e
000003f0: 9edb 073e 6618 efbf f799 93bc 5026 3d3e
-0.024119524 -0.55124146 0.010578635 -0.017244598 0.56205404 -0.31386957 -0.096560985 -0.01784009
0.51478285 -0.39097977 -0.12174144 0.13655572 0.2380088 -0.13236292 -0.12020235 0.1423378
0.8107352 -0.16194463 -0.060959924 0.33969668 0.1645248 -0.40620312 -0.072036065 0.29149726
0.23616229 0.23821452 -0.05133797 0.18855767 -0.48509896 -0.41269666 -0.053689927 0.14371613
0.40490994 0.13838583 -0.054842316 -0.32565388 -0.31904662 -0.05474536 -0.066015586 -0.3669817
0.46986714 -0.002362669 0.018996872 -0.19046116 -0.11365454 -0.37241504 0.06482218 -0.18207811
-0.17678356 -2.136435 1.4679488 0.77286917 -0.25170094 0.08443334 -0.03614993 0.035656802
-0.83014125 -0.11608992 0.033769168 -0.008898744 0.09574433 0.011626502 -0.07108749 -0.08253959
-0.016613027 0.11151146 0.033503126 -0.05767187 0.34021086 -0.09619764 -0.02521105 0.09456533
0.77518547 0.547171 -0.004895168 0.098610066 -0.077240385 0.038103953 0.008404634 -0.005877346
0.84549016 -0.01103614 -0.0032037525 0.0037384531 0.045165032 0.2490588 0.0038501439 -0.019312771
0.084695294 0.132725 -0.019266132 -0.0043138764 0.12766778 0.36978102 -0.034430988 0.065785475
-0.86809313 0.6034531 0.034129877 0.055946846 0.8023253 -0.010207684 -0.27876648 0.23584333
0.443817 0.5160285 0.040672768 -0.07642014 -0.15769514 0.509845 -0.03733445 -0.12833628
0.4589418 0.39530888 -0.083777964 0.057596378 -0.04752013 -0.10926445 0.023177136 -0.037393138
0.75333184 0.32149586 -0.03914782 -0.11138928 -0.100793704 -1.5794954 -0.04769835 -0.04181933
-0.50890106 -0.0069947056 0.022361504 0.0969134 0.2282381 0.53562015 0.0025340861 0.052931756
-0.28158462 0.02421146 -0.036791254 0.19053762 0.019606097 -0.068144396 -0.013428259 0.118650965
-0.24018386 -0.0048913457 -0.09365536 0.09981117 0.052361023 -1.6494981 -0.08204039 0.03586052
0.35375974 0.70283 -0.40096572 -0.7817824 -0.30845135 1.5517913 -0.04860037 0.21242765
-0.15801854 -0.016687043 0.04761842 0.19576414 -0.02561465 1.7404627 -0.018923817 -0.011037884
-0.10093118 -0.26949036 -0.03326961 0.0011447163 0.2922896 1.5334989 -0.036471184 0.07402531
0.025666052 -1.0216172 -0.018350724 0.04468442 0.0933935 -0.41436625 0.0017721484 -0.16564144
0.14985134 0.06908668 -0.013073252 -0.15815504 0.110289276 -0.54306453 0.023723008 -0.08057081
-0.011979424 -0.30024782 0.0034812153 -0.036418222 0.07336622 -0.585131 -0.08787112 -0.09292443
0.04224571 -0.9508385 -0.0022351209 -0.061581604 -0.6132852 0.15784802 -1.2664691 -0.53587735
0.2726551 0.47412616 -0.055556647 -0.19165808 -0.26014715 -0.2673517 -0.084845595 -0.12746626
0.41095155 0.43178844 -0.05550611 0.14960182 -0.11873788 -0.9669001 -0.008429116 0.16675432
0.31071484 0.58762664 0.045701243 0.28172138 -0.11930466 -1.8470706 -0.03981593 0.23858543
-0.15943131 0.29481834 -0.019984968 -0.32630602 0.1830229 -0.24148011 0.0067491573 -0.35662276
-0.088751815 0.22323264 -0.042550247 -0.16663063 0.18001206 -0.91448593 -0.010641612 -0.21209814
0.010096655 0.0323939 -0.05633758 0.20873815 0.13267371 -1.8679321 -0.018017752 0.18471646

fcs1.bias f4 [200]
00000000: e05e 9fbe ad86 86bf 4386 a23e 75ef 483e
00000010: 139d 00bf db0f a1be bb73 26bf 52b6 d5bd
00000020: 3073 07bf 73ce e2be 9850 233f 5a6c 6abf
00000030: 5292 cdbe 57d1 38bf 1d1b f6be 49df 03bf
00000040: 9301 33bf ff29 373e 5869 5cbc a7cc 79be
00000050: 7f1e bb3c b137 89be 95e1 ebbe f63c dfbe
00000060: 3332 d2be 431e 06bf 4002 1fbf 9bb0 fb3c
00000070: 31cb 7abf 1178 e6bd eb9b 473c b232 d1be
00000080: 39cb 93bf 394c 9fbe 4eb8 09bf 1752 a6be
00000090: 6cbd 9e3d 499f 6fbf 0479 86bd dde9 57be
000000a0: 6e08 46be a8cd a2be 23f1 c3bd c8ec debe
000000b0: 7b32 a8be c64c 0cbf bd20 97be d144 82be
000000c0: 53fb 2dbf b405 e1bd a8a3 973d c834 b5be
000000d0: dcff 103f 0333 bf3d f122 0ebf 6ff4 47bf
000000e0: b6b1 2ebf dcc0 d8be 68c2 9ebd 5bb1 18bf
000000f0: 3e19 40be c2d8 7ebe 441e babf e9e7 2fbe
00000100: 2e61 263f a705 043e 5e32 9dbd d46b 35bf
00000110: f911 f5be 8d12 5c3d d299 cdbe 55c5 10bf
00000120: b20b 4abc 4efb abbe 2b01 35be b69f 2ebe
00000130: b9bc 94bd 83c2 f0be e31e bcbd 0e3d a73d
00000140: f916 0dbe 0254 39bf 8cab 2abf 3e96 1bbf
00000150: cca4 7abe 2cea 01bf 589c 89be ad50 6c3c
00000160: 71b1 21be 87d1 3c3e 8fb6 85be c9d2 0ebf
00000170: 16e6 d6bd a6c4 d9be df76 51be f87e e6be
00000180: cd56 dfbe 1e33 1abf 2eaa 86bf 679a 27bf
00000190: 3f03 66bf 0749 213e 9430 19be 3c36 3cbf
000001a0: 6ac5 703e 1326 dabe 8c95 afbf daaa febe
000001b0: 4ee2 e9be b689 31be 2b03 43bf b862 9abe
000001c0: bc2a 4fbe faba 6fbf 5f0a 15be 2a1e 11bf
000001d0: ba3d 19bf c681 edbe 7871 82be e72a 30bf
000001e0: f068 90bd e8a3 24bf 0c5d 56bd c846 c53d
000001f0: 87d1 d2be 8957 63bf 69d1 bdbe 4459 a7be
00000200: b80d 68bf cceb 8abe 67d5 22be b7f5 6fbe
00000210: d37c 14be a526 39bf fcf0 3fbf e286 c03f
00000220: 02d6 b1be 14d8 c03f b2e2 28bf 43fe 3abf
00000230: cdeb bbbe 6a37 47be ee61 24be cc3b bcbe
00000240: 8206 23bf 24a7 f7be 5847 1dbf deba 27bf
00000250: 35b3 4ebe 19c8 c2bd ebb5 85bf 51bd 1abf
00000260: 71fa 51bf 9350 fabd da08 8dbf 69a1 09bf
00000270: 5134 17be d584 52bf faf0 ddbe 8e71 a8be
00000280: 0274 a5be 3187 7fbe c300 703f 95aa 07bf
00000290: 0c80 2ebf ec43 8bbd cb4a 1fbe 2078 46bf
000002a0: 4874 d7be 62e0 c0be bc4f b1bd 2605 1fbf
000002b0: 099f c1be b05e 01bd eece 3ebe 52b4 82be
000002c0: 288f 513e 0384 c6be a813 c6be 7287 4dbe
000002d0: 73d7 f0be 363e 25bf ced7 1bbe 74c7 7cbf
000002e0: 27ac b9be b7d8 e7be d308 2bbf 9757 a4be
000002f0: e01b c0be b0c7 92be 086d 10be 43be 39bf
00000300: bee4 22bf 7082 bbbe 1632 dabe ba17 a7be
00000310: f7bc 123d bf3d 53bf 6b44 bb3e 9edc ce3e
-0.3112707 -1.050985 0.3174306 0.19622596 -0.50239676 -0.3145741 -0.6502034 -0.104351655
-0.5291014 -0.44298133 0.6379485 -0.9157158 -0.40150696 -0.7219443 -0.4806756 -0.5151258
-0.6992428 0.17887114 -0.01345285 -0.24394475 0.02284169 -0.26800302 -0.46070543 -0.43601197
-0.41053924 -0.52389926 -0.6211281 0.03072386 -0.97966295 -0.112533696 0.01218317 -0.4085899
-1.1546394 -0.3111284 -0.5379685 -0.32484505 0.07750973 -0.93602425 -0.06566051 -0.21085306
-0.19339153 -0.31797528 -0.095674776 -0.43540025 -0.32851014 -0.54804647 -0.29517165 -0.25443128
-0.67961615 -0.10987416 0.07404262 -0.3539183 0.5664041 0.093359016 -0.55522066 -0.7810735
-0.68239915 -0.4233464 -0.07751924 -0.5964562 -0.18759629 -0.24887374 -1.4540486 -0.1717831
0.64992034 0.12892781 -0.076756224 -0.7086766 -0.47865275 0.05372863 -0.40156418 -0.56551105
-0.01233189 -0.33590168 -0.17676227 -0.17053112 -0.072625585 -0.470234 -0.09185579 0.08165942
-0.13778295 -0.7239381 -0.6666801 -0.60776126 -0.24476928 -0.5074794 -0.26877093 0.0144235315
-0.15790345 0.18439303 -0.26115844 -0.5579038 -0.10493104 -0.42532843 -0.20455502 -0.45018744
-0.4362091 -0.6023425 -1.0520685 -0.65469974 -0.89848703 0.15750514 -0.14959937 -0.73520255
0.23512807 -0.42607173 -1.3717513 -0.49739724 -0.4568047 -0.17337689 -0.7617671 -0.3015344
-0.20231146 -0.9364468 -0.14554738 -0.5668665 -0.5985981 -0.46388072 -0.25477195 -0.68815464
-0.07051265 -0.643126 -0.05233483 0.09632641 -0.41175482 -0.88805443 -0.3707383 -0.32685292
-0.90645933 -0.27133024 -0.15901719 -0.23433577 -0.14500742 -0.7232459 -0.7497709 1.5041163
-0.34733588 1.5065942 -0.6597091 -0.7304422 -0.3670334 -0.19454733 -0.16052982 -0.3676437
-0.63681805 -0.48369706 -0.61436987 -0.6551951 -0.2018555 -0.09510822 -1.0446142 -0.60445124
-0.8202277 -0.122223996 -1.1018326 -0.5376192 -0.14766051 -0.82233936 -0.43347913 -0.32899135
-0.3231507 -0.24953915 0.9375116 -0.5299466 -0.68164134 -0.068000644 -0.15555875 -0.77527046
-0.42080903 -0.3767119 -0.08657786 -0.6211723 -0.37816647 -0.03158444 -0.18633625 -0.25528198
0.20464766 -0.38772592 -0.38686872 -0.200712 -0.47039375 -0.6454805 -0.15219042 -0.9874184
-0.36264154 -0.45282528 -0.6681034 -0.32098076 -0.37521267 -0.28667974 -0.14104092 -0.7255594
-0.6363028 -0.36622953 -0.42616338 -0.3263529 0.035824742 -0.8251609 0.36575636 0.40402693

fc2.weight f4 [150, 200]
00000000: 30e9 5e3c 2b9e b8be a19f 67be c3dc 8dbd
00000010: 2716 96bd 1e3a 09be 2a5f 91bd 9b69 07bd
00000020: 21cb bcbd 6294 b6ba 8323 b1bc 23ba 6cbe
00000030: 4bc7 7e3d 96c1 9cbe 0fb2 c8bd 895c 24bd
00000040: 7e0d 88bc 429f 85bc f58a acbe c5ca a8bd
00000050: 26c9 9a3c 01c8 d9be de95 b6bd aad3 22be
00000060: e352 cc3e ace4 8c3e 3880 18be 1382 5bbe
00000070: 5a03 bfbc 97dc 91be a20a 29be 9abc 20be
00000080: f1e7 71bd 18b8 43be 53a0 91bd d615 88be
00000090: 2a65 f9bd 8539 abbe f2d6 dbbe 1368 843d
000000a0: d305 07be 021e 11bd 9ae4 6fbd 53cc 47be
000000b0: 0402 8ebd e64b e7bd 71ee 473d 616c 8cbd
000000c0: 0c8e 46be 8c5a 2ebe 192b 80be 8ad6 f0bd
000000d0: 37ac 79be 23ea 693d 7409 26be 4721 5e3d
000000e0: bf89 a1be 82c3 d6be 218e 533e 379c 64bd
000000f0: 2304 58bd 8ff0 a6be 504f 2a3d cb44 e4bc
00000100: 1874 13be 7394 873c 0f61 2dbe a182 b1bc
00000110: 0d31 febd 3a0a f1bc ab9e c3be 87f4 e1bd
00000120: eea8 e6be b8b9 c5bc b266 12bf 9bf9 c83d
00000130: a435 0fbe f93e 12bd 33a4 3ebe 88bd 3abd
00000140: 9f0d 473d 434f 47bd 3028 56bd 4e21 36bd
00000150: 6642 56bd f34b 323e a762 08bd 2583 a83d
00000160: 3e48 183e 2f27 19be d698 4cbd e9ac debd
00000170: 367a bb3c 7808 cb3d 5917 18be 4f35 22bf
00000180: 1c30 4fbe 5716 f7bc f20e 36be 73ee 2a3e
00000190: 4b29 87bd 65c4 b7be 590d 7dbd b468 d23d
000001a0: 839b 723d a971 953d c402 f43b a8e9 09be
000001b0: 3726 09be fce6 84be f4d6 3a3c c4d4 aa3d
000001c0: 2de1 973d 776e e5bc 71eb 2abf b203 d73c
000001d0: 9474 583d 1171 c53d 6a6e 02be 7a1a 12be
000001e0: 0239 98be c774 64bc 5620 08bf 18cf 02bf
000001f0: 5718 27bd 42f6 afbd 7225 4dbe d182 d0bb
00000200: 794e 7fbe aba6 c5bd d2ce 313e f4e0 32be
00000210: 70f1 04be 20e1 85be 546e 93bc 9380 07bd
00000220: 3a4a b03c 14f5 c1be d2c6 0a3d e9cc 233c
00000230: 1634 0cbe c653 163d 4afb d5bd 1596 0abe
00000240: f878 69be 9f01 c3bb a9e1 e6bd b45f 4a3d
00000250: bd14 533e 4121 b13d 48c6 2abe 0229 7fbe
00000260: 82e6 92be 24dc 413e 688b 84be 535c a63c
00000270: 2d18 303b ba26 a6bd 1703 2bbb 013e 7a3d
00000280: 4b7d 4abc a01c e93d 2b34 53bd 3e57 22be
00000290: d13c afbd e08a d4bd 4f57 c5bc 1f65 353a
000002a0: f1b8 b9bc 8441 1abe 6540 1fbd 97b4 adbe
000002b0: a2f7 05be 5121 c43d a8cc a7bd 520e 10be
000002c0: 3fa1 19bc 37c5 a63d 05c6 d8bc f534 88be
000002d0: 3022 72be d1f5 22be 1d10 5a3d 2cfe 823d
000002e0: bd95 61be 02c3 b23c de14 b9be 2926 9b3e
000002f0: ceb0 5cbd 865d 55be b495 96bd f9b8 87be
00000300: a7b3 22be b16d a1be de5b 93be a547 283d
00000310: 9318 d33b 79f9 7e3c 28a8 0ebd 9412 dc3c
00000320: 89b9 c83c 9aaa 0abe 2eed b83c f4be 6e3a
00000330: 5b04 39bd d88e ca3b a084 e23c 4782 0d3d
00000340: c04e c5bd da87 a93d a7c5 e43c 3e50 113b
00000350: 8f1e 043d e59c 34bd 865c 13bd 946f 523d
00000360: 029e d1bc ccf4 1fbe b443 14bd a5a5 ad3c
00000370: 7b27 1dbc 28b0 c93c 1673 17bd 67f3 38bd
00000380: ac6a 38bd 7d3c 983d a85d 21bd f560 c03d
00000390: a394 cfbe 4eef e83c dc56 333e 0ba9 92bd
000003a0: e937 a2be 85e9 c03b 639c c0bc abe1 06bc
000003b0: 4eb6 b53c 93f9 88bd 256e d0bd 7875 15bc
000003c0: cba8 02bc 021b 44bc 548e 8bbc d3c8 053d
000003d0: 1976 40bd 4727 be3c f1f9 a7bd 647c d33c
000003e0: 4e01 cf3c 2f76 1b3d 0836 3c3e d9d1 923c
000003f0: 1511 b13d 064d 9dbd e32a 3a3a 81da 84bd
0.013605401 -0.36058173 -0.22619487 -0.069268726 -0.07328444 -0.13401076 -0.07098229 -0.033059698
-0.09218431 -0.001392972 -0.021623379 -0.2311788 0.06220178 -0.30616444 -0.09799587 -0.04012731
-0.016607996 -0.016311292 -0.33699766 -0.082418 0.018894743 -0.42535403 -0.08915304 -0.15901056
0.39906988 0.27518213 -0.14892662 -0.21436338 -0.023317028 -0.2848861 -0.16507962 -0.15696946
-0.059059087 -0.19113195 -0.071106575 -0.2657916 -0.12177499 -0.3344232 -0.42937428 0.06465163
-0.13185816 -0.03542901 -0.05856762 -0.19511537 -0.06933978 -0.11293773 0.04881138 -0.06856609
-0.19390124 -0.17026728 -0.2503288 -0.1175967 -0.24382101 0.057108056 -0.16214544 0.054230954
-0.31550404 -0.41946036 0.20659687 -0.05581304 -0.05273832 -0.32605407 0.041579545 -0.027864834
-0.14399755 0.016550278 -0.16931556 -0.021668734 -0.124116994 -0.029423822 -0.38206992 -0.11032968
-0.45050758 -0.02413641 -0.5718795 0.098132335 -0.13985306 -0.035704587 -0.18617325 -0.045590907
0.048596974 -0.048659574 -0.05228442 -0.044465356 -0.052309416 0.17411785 -0.033297207 0.08228139
0.14871308 -0.14956354 -0.049950443 -0.10872824 0.022885423 0.09913725 -0.14852656 -0.6336259
-0.20233196 -0.03016202 -0.17779139 0.16692524 -0.06599673 -0.35892025 -0.061780307 0.10273877
0.05923034 0.072970696 0.0074466188 -0.13468039 -0.13393484 -0.25957477 0.011403788 0.08341363
0.07415996 -0.028006775 -0.66765505 0.02624688 0.052845553 0.09640706 -0.12737432 -0.14267913
-0.29730994 -0.0139438575 -0.5317434 -0.5109725 -0.040794697 -0.08591892 -0.20033816 -0.006363251
-0.24932279 -0.0965093 0.17364052 -0.17468625 -0.12982726 -0.2614832 -0.017996944 -0.033081602
0.021519769 -0.37882292 0.033881016 0.009997585 -0.13691744 0.036700986 -0.1044832 -0.13533814
-0.22800052 -0.005951121 -0.1127351 0.049407676 0.2061338 0.08648921 -0.16677201 -0.24917987
-0.28691489 0.18931633 -0.2588761 0.020307695 0.0026869879 -0.08112855 -0.002609437 0.061094288
-0.012358974 0.11382413 -0.051563423 -0.15853593 -0.08556522 -0.10378051 -0.024089484 0.000691967
-0.022671195 -0.15064055 -0.03887977 -0.33926842 -0.13082746 0.09576667 -0.08193332 -0.14067963
-0.009376823 0.081430845 -0.02646161 -0.26602903 -0.23645854 -0.15914084 0.053238023 0.06396136
-0.22029777 0.021821503 -0.36148733 0.3030255 -0.05387955 -0.20836458 -0.07352772 -0.2650831
-0.15888844 -0.31529 -0.28781027 0.04108395 0.0064421385 0.015562409 -0.034828335 0.026864327
0.024502533 -0.13541642 0.022574034 0.0009107434 -0.04517017 0.006181579 0.027651131 0.03454807
-0.09634161 0.08277865 0.02792628 0.0022173072 0.032255705 -0.04409494 -0.03597691 0.05137594
-0.02558804 -0.15620726 -0.03619738 0.02119715 -0.009591932 0.02462013 -0.03697499 -0.045154
-0.045023605 0.07433412 -0.03939596 0.09393493 -0.40543088 0.028434422 0.17513603 -0.07161149
-0.3168328 0.0058872127 -0.023512071 -0.008232514 0.022181656 -0.066882275 -0.101772584 -0.009122245
-0.007974814 -0.01196933 -0.01703564 0.032662224 -0.046987627 0.023212088 -0.082019694 0.02581615
0.025269177 0.037954506 0.18379986 0.017922329 0.08645836 -0.07680707 0.00071017275 -0.06486989

fc2.bias f4 [150]
00000000: 932d 9bbe 3ecf c03e 74b0 2dbe 3de1 23be
00000010: 186c 3cbe 88db ecbd 0951 c5be d2cc 0cbc
00000020: 414a b9bd f468 3abd 037a 1a3d bb7b 23bd
00000030: 3eb2 af3b 130f d43d 6d41 a8bd 05b7 a4bc
00000040: b967 1dbe 74b5 62be f6e0 d33c f7b4 c4bd
00000050: b89f a9be 7b3c 34be c48d 84bd d64f b3be
00000060: ba23 79be 6ca6 14be 5915 0dbd ef74 dbbd
00000070: 2be2 b5bd 5d96 9fbe 0f57 11be 8037 14bf
00000080: a3d3 19be 86b9 39be 50b0 19bf 68a7 15be
00000090: a997 b6bd c283 bcbd ecf3 7bbe 088b 23be
000000a0: 5b3a 18bc e53f b4bd 66c1 c0bd 2736 f9bd
000000b0: 5d97 cdbd c70a 56bd 85d0 b13c f607 45be
000000c0: ef7b f4bd b8c9 32be c54f 93bd df14 eebd
000000d0: 8716 973d e4a0 c1bd 713e 52be d00e 62bd
000000e0: 7e9c 17bd d6d8 edbd 6ba1 20be 3288 0cbe
000000f0: 24bd babe 31ec ecbe aa95 e3bd 461f 19be
00000100: 2715 02be 73b5 efbd f7d9 2cbd 913e a0bd
00000110: 585f 89bf a95b 6ebd f2cf 373d 7bb2 bebd
00000120: 27ce dcbe f39e 57be be7a 2dbe 26f3 11be
00000130: 31aa 9bbe 323a 1cbe 09c5 d4bd afdb bdbd
00000140: 8d39 8cbe ada6 52be b0d7 51be a799 4fbe
00000150: 681d 42be 7aea bebd b020 8ebd a1c7 36be
00000160: d888 55be 73ca a8bd 1a17 6bbd 7307 f8bd
00000170: c4c5 7cbc de6d 3dbe 292d 6dbe 545b 42be
00000180: 64cc a7bd 95d0 1cbe a726 fdbd 689d eabd
00000190: 7503 9ebe ae14 afbd bf8f 973e 07b5 1dbe
000001a0: c99a 47be d9fd 79bd 3922 2fbd 64c0 01bd
000001b0: 6ac9 89be a4aa 18be cb0d 04be df2d 83be
000001c0: e8a0 19be 7a04 1ebf 98df febd f904 5ebe
000001d0: 6161 febd a940 aabd d37c afbd 15c8 4abe
000001e0: 1cef 7f3b 8984 d7bd 7ff0 823f df8d 0abe
000001f0: de29 57be 0717 57be f088 29be a63f c7bd
00000200: f457 f2bd 1f28 05be 5bd0 20be 569a 13be
00000210: f7cf 473f ecf4 733e 4466 00be c552 f0bd
00000220: fd78 1fbe 0d3d d5bd ea57 ddbe 3b3b 3e3e
00000230: afb6 b8bd 2258 83bd 8cc0 a5bd b9fd a4be
00000240: f97b a9bd 35ae a6be ea89 3cbe e461 b2bb
00000250: 4baa 25be 37f7 b4be
-0.30308208 0.37658113 -0.16961843 -0.1600389 -0.1840061 -0.1156531 -0.38538387 -0.008593755
-0.09047366 -0.045510247 0.037714016 -0.03991292 0.0053618243 0.10354438 -0.08215604 -0.020106802
-0.15371598 -0.22139531 0.025864106 -0.09604829 -0.33129668 -0.17601196 -0.06472352 -0.35021847
-0.24330035 -0.1451661 -0.034444187 -0.10715663 -0.08881029 -0.31169406 -0.14193366 -0.57897186
-0.15022139 -0.18137178 -0.60034657 -0.14614642 -0.08915646 -0.09204818 -0.24604768 -0.15971005
-0.009291257 -0.088012494 -0.09411888 -0.12168532 -0.10038636 -0.05225637 0.021705875 -0.19241318
-0.11937701 -0.17459762 -0.07192949 -0.116250746 0.073773436 -0.094545156 -0.20531632 -0.055189908
-0.037014477 -0.11613624 -0.15686576 -0.1372383 -0.36472428 -0.4627395 -0.111125305 -0.14953336
-0.12703381 -0.117045306 -0.042200055 -0.078244336 -1.0732222 -0.058192883 0.044876046 -0.09311386
-0.43126032 -0.21056728 -0.16941354 -0.1425291 -0.30403283 -0.15256575 -0.10389144 -0.09270417
-0.27387658 -0.20571394 -0.20492435 -0.20273457 -0.1895653 -0.093220666 -0.069398284 -0.1784959
-0.20852983 -0.08241739 -0.05739508 -0.12110796 -0.01542801 -0.18498942 -0.23161758 -0.18980151
-0.08193281 -0.15313943 -0.12360888 -0.11455804 -0.30862013 -0.08548866 0.29601857 -0.15401088
-0.1949264 -0.061033104 -0.042757247 -0.03167762 -0.2691148 -0.14908844 -0.12895887 -0.25620934
-0.15002787 -0.6172558 -0.12444991 -0.21681584 -0.12420917 -0.08313114 -0.0856873 -0.19802888
0.0039052432 -0.10523326 1.0229644 -0.13530682 -0.21012065 -0.21004878 -0.16556144 -0.09728937
-0.11833182 -0.13003586 -0.15704481 -0.14414343 0.78051704 0.23823899 -0.12539011 -0.11734537
-0.15573497 -0.10412035 -0.43231136 0.18577282 -0.09019219 -0.064132944 -0.08093366 -0.32224825
-0.08275599 -0.32554784 -0.18411985 -0.0054437984 -0.16178243 -0.3534486

fc3.weight f4 [1, 150]
00000000: 7bc6 dabc 90b3 27bc afc6 a9bc bdac 9c3b
00000010: d84d ac3b aff6 0abc ad6a 493c 9ee6 54bb
00000020: cd6f 673c cd68 72bd ee9d c3ba 3300 88bb
00000030: 1504 b73b 10c5 a73c 22e2 91bc ebc7 f83c
00000040: 8a32 863b 254e 433c bcb4 63bc d2d3 87bb
00000050: 76e0 743c b70c 48bc 25e3 c13c 1837 c43c
00000060: c32d abb9 3bf7 333c 84d3 99bb a97c ba3c
00000070: cfb6 cbbb 0d2a 56bc 66dd e8bc 93f7 b4bc
00000080: c93c 923c a270 bcbc d5c5 43bc 1aaa 88bc
00000090: 91a0 21bb f83a 0abd 5542 d7bc b145 dfbb
000000a0: 4266 7dbc a1b8 7d3c f222 903b 698b 173b
000000b0: af39 67bc 689a c13b ce46 323c 077e c03c
000000c0: 2043 c1bb 61af eb3c 0ba4 923c f341 4e3c
000000d0: fdf0 b03c 7de7 413b 5233 b23b 6157 84bb
000000e0: 7f7f 87bc cf0f 703c 8ed4 853c 8cf3 61bc
000000f0: 7e2d 43bc 0cb4 ab3c 866a ca3b 9ef6 c93b
00000100: 0eae 8c3b 9501 a53b 2dfa 2a3c d0b9 8e3c
00000110: 62d4 70bc cc3c 693c fb90 7cbc bb4c b339
00000120: 4375 47bc df2e 483c 1e87 bdbb 7e47 913c
00000130: af6d 6f3c 57e9 0ebb 36f3 60bc 183a 8e3c
00000140: e384 86bc 8553 8a3c d7c0 f3bb d5a0 62bc
00000150: eddc ec3b 152a 1c3b e0f1 5ebc 8bc6 783b
00000160: fd95 d7bc 9463 24ba d4b3 d23c 3e31 d3bc
00000170: a902 8fbb 985d ce3b 8545 d73a fa75 b83c
00000180: 5d57 b7bb eee1 c43c 8f49 efbb 3f49 e9bc
00000190: a6b3 4a3c bb8c 853c 569c 693c 70de 01bc
000001a0: 67d2 223b 71ac a2bc c0b8 293a 3068 c23c
000001b0: e059 3c3c 1f3d 953b 794b b2bc be87 2e3c
000001c0: 1b53 94bc 1a2e 8abc 176e 91bc ab4e afbb
000001d0: 5596 5b3c aeef cbbc b1a3 4d3b 8389 c83c
000001e0: 3fb3 0ebd 7aa0 89bc a5c0 2a3c 7f54 a83b
000001f0: 721c 573b 048b 1dbc a91d 08bc a4a7 0b3b
00000200: 5b56 c23b 370a 9d3b c118 2a3b c11b 873c
00000210: 82cf 8c3c fd3e a2bc c8d1 30bc 380f 91bc
00000220: fd77 c03b 6bff 533c b28c 74bc f4fb 00bc
00000230: 5472 973a d8e1 ceb9 57bb 3c3b ca71 773a
00000240: 3022 bebc d65e a7bc 9f78 1dbc 584f 223c
00000250: 93d0 c7bb 07d6 6cbc
-0.026705971 -0.010235682 -0.020724623 0.004781334 0.005258303 -0.0084816655 0.0122935 -0.0032486091
0.0141257765 -0.059181977 -0.0014924386 -0.0041504144 0.0055852034 0.020479709 -0.017808024 0.030368766
0.00409538 0.011920487 -0.013898071 -0.004145124 0.014946094 -0.012210063 0.023667881 0.023952052
-0.00032649757 0.010984237 -0.004694404 0.02276452 -0.006216861 -0.013071549 -0.028425884 -0.022090709
0.01785125 -0.023002926 -0.011949022 -0.016682673 -0.0024662355 -0.033747643 -0.026276747 -0.006813728
-0.015466275 0.0154859135 0.004398697 0.0023123866 -0.014112874 0.0059082992 0.010881139 0.023497595
-0.0058978945 0.02877015 0.017900487 0.012588966 0.021599287 0.002958744 0.0054382468 -0.0040387367
-0.016540287 0.014652207 0.016336706 -0.013790976 -0.011912702 0.020959876 0.0061772494 0.0061634323
0.00429321 0.005035589 0.010435623 0.017422587 -0.0146990735 0.0142356865 -0.015415425 0.0003419871
-0.0121739535 0.012218206 -0.0057839295 0.017734285 0.014613553 -0.0021806562 -0.013729861 0.017361686
-0.016420787 0.016885528 -0.00743876 -0.013832291 0.007228485 0.0023828794 -0.013607472 0.0037960138
-0.026316637 -0.0006270942 0.025720514 -0.025780316 -0.004364331 0.0062977783 0.0016423917 0.022517193
-0.0055951313 0.024033513 -0.00730247 -0.02847731 0.012371933 0.016302457 0.014258465 -0.007926568
0.0024844648 -0.019857617 0.0006474368 0.023731321 0.011496037 0.0045544053 -0.021764504 0.010652481
-0.018106034 -0.016867686 -0.01775269 -0.005349954 0.013402541 -0.024894562 0.0031378085 0.024479633
-0.03483891 -0.016800154 0.010421907 0.005137026 0.0032823351 -0.009615663 -0.008307853 0.0021309638
0.0059307045 0.0047924775 0.0025954696 0.016492726 0.017188791 -0.019805426 -0.010792203 -0.017707452
0.0058736787 0.012939314 -0.0149261225 -0.00787257 0.0011554458 -0.00039459649 0.0028798187 0.0009439258
-0.023209661 -0.020430963 -0.009611278 0.009906612 -0.006097862 -0.014455325
