SabrinaPalis-Grand-Chelem-a098441/agent1_checkpoint_actor.pth (torch_old, 142811 bytes, 6 tensors)

fc1.weight f4 [200, 24]
00000000: 774d 743d cff0 0dbc d4ff 3fbd 0c94 073d
00000010: 31da b0bb fa7f f53c 4a43 453c 0832 77bd
00000020: 9803 683d 0679 14bc 8b58 c2bc 1f4c ea3d
00000030: 1a62 b1bc dc20 58be f3df 19bc 3460 0e3e
00000040: eb8c 31bd b5ca db3a 3aae 47bd f89c fe3d
00000050: a726 8abc 0967 26bf a750 2d3d f512 433d
00000060: a49c 9ebb 91e2 b8bd 3411 4abd 8c59 0a3e
00000070: 6432 4abe e734 9b3d 4822 643c caac ea3d
00000080: 03cb 3abb 0532 cabd c4d0 33bd 2df4 123e
00000090: 0a93 a7bb c78a cf3d 2d7f 49bd 4510 b93d
000000a0: e4bb 19bd 208b e1bc 34aa 33bb 9f7e e33d
000000b0: 5810 8b3d d12a 433d c141 06bd 29b2 b93d
000000c0: f279 7f3c dfae 30be 24b3 8eba e06d 6abd
000000d0: 8ea0 d13d 4199 fdbd 8b84 3b3c 482b 5cbd
000000e0: cb37 06bc 1847 41bd 3806 40bd 196d ca3c
000000f0: 2139 3f3e 8cfb f6bd 6a81 79bd c820 85bd
00000100: 1919 c13d 0af8 a6bd 9ade f2bc 1675 ac3d
00000110: 8ee3 363e e638 48be cab6 ac3d 0fcf f33d
00000120: 8e24 703d 47e2 99ba 3e22 973c 4b9c 53be
00000130: 01fe 0abb 9229 533d 4b54 463c c4a6 a5bd
00000140: 55dd 9c3c b582 993b 4421 9a3c b1bf 3abe
00000150: 3380 b33d a9bd bdbd 6e1f b1bb ae06 6fbe
00000160: c7c2 193d 2d7c cdbd b424 4fbd b47f d4bc
00000170: 933e 143d b737 8cbe 6c31 f6bd 121d c5bd
00000180: 2f3d 143e 0de6 373d e8f7 9cbd 4e57 c83d
00000190: f500 ba3c f788 2a3d ddf9 913b 810d 463e
000001a0: 3bb8 0d3e a233 b23d 3390 61bd 30d6 8b3d
000001b0: 3e82 6abc 64f6 35be 9a39 f9bd b9e9 253d
000001c0: 59c0 8b3d 5602 b73d 1351 0dbb 3821 3dbd
000001d0: 0aac bdbd 8ddd 3fbe 32b3 4c3d 1f00 4d3d
000001e0: 9dab 91bd 6992 0cbe 7c1e 063c ad95 39bc
000001f0: 947e c13d a60c d23d af36 9fbc ca6c d2bd
00000200: 5366 0e3c 2416 92bd b1e8 e6ba a0da e4bd
00000210: 7f63 213d 1bb2 833e 78fa 86bc d91f a53b
00000220: 30a0 08bd 2337 12be e343 a13d 44ca 17bd
00000230: 120b b3bd aa1c da3e b26e b2bc 3258 38bd
00000240: fa8c 8a3d 5630 04be 8e3e 273d 871d 3b3d
00000250: 522e 04be e399 57be 2093 93bd d494 8f3d
00000260: fe91 493d b5ac ecbd b795 3d3d 7576 053e
00000270: dd7e 01be f3c1 7c3d 1944 01bd 7f1d 293e
00000280: 98a7 27bc 60ab 0fbd 1a14 44bd baef 2f3e
00000290: f6ff 4ebc 1892 a33e 50c7 4f3c af78 d73d
000002a0: 2a1b 073c 42b2 edb8 d485 973d c987 883a
000002b0: 2a09 43be 686e 8f3e 2613 09bd 0fb1 4e3d
000002c0: be8f f6bd 97ef b53d caaa 1ebb 44ea d8bd
000002d0: de92 cdbd c1e7 813e 83c3 063d 8f5a 0abc
000002e0: fa66 b7bc 55b2 3d3e 3dfb c23d d9ba 06be
000002f0: 6779 44bd a347 583e 75d1 f5bc b898 72be
00000300: 3f9c b03b 97a2 19be 3f6c 6f3c d870 973d
00000310: 897f 1f3e f5b6 973e 25f8 be3c dd5f b0bc
00000320: 48d0 cdbb 3f61 243c a1a3 86bc efee 90bd
00000330: b1f7 9c3d b6dd 2b3d c273 0a3d d84e 8abc
00000340: 33b1 36bd 10ec 123c 34a4 79bd 8274 80be
00000350: 16db cdbb 6b05 083d 522a 24bb 1257 a7be
00000360: 9447 16bd 04a8 fc3b 8c6c 21bd 5fc1 0bbe
00000370: 5fd3 0d3c 481f 163e 8476 103b 8944 20be
00000380: bca5 c33d b322 db3d a06a 4e3d bf0c e7bd
00000390: afaa 563c ab15 4d3e f2b3 85bd af62 e4bd
000003a0: 31fd a63d 0569 753d e11b c73b 805a aebe
000003b0: e88c 523d 0e25 8f3e eafb 6ebd be1c cbbe
000003c0: 9012 bbbc 0c9a 4abe 562c 4abd 07f1 e33d
000003d0: b2df 4c3d 0774 663b 2211 38bd c6ee 0f3e
000003e0: a328 9cbd e01b 73be 6e10 0b3d 766d cd3d
000003f0: c912 9dbd c1a8 a5bc 59ef b0bd 4ee5 dd3b
0.05964419 -0.00866337 -0.046874836 0.033100173 -0.005397104 0.02996825 0.012039969 -0.060350448
0.056644052 -0.009062057 -0.023723861 0.114403 -0.021653224 -0.21106285 -0.009391773 0.13903886
-0.04334728 0.0016768785 -0.04875014 0.12432283 -0.016864134 -0.6500097 0.042313244 0.0476255
-0.0048404504 -0.09027589 -0.049332812 0.13510722 -0.19745785 0.0757845 0.013924189 0.11458738
-0.0028502352 -0.09872822 -0.043900266 0.14350958 -0.005113964 0.101338916 -0.04919355 0.09036306
-0.037532702 -0.02753216 -0.0027414681 0.111081354 0.06790227 0.047648255 -0.03277755 0.090671845
0.015593039 -0.17254208 -0.0010887128 -0.05723369 0.102357015 -0.123827465 0.011445175 -0.053752214
-0.008192013 -0.04718694 -0.04688093 0.024710225 0.18674137 -0.120596975 -0.060914434 -0.06500393
0.09428615 -0.081527784 -0.02964716 0.0842077 0.17860243 -0.19552955 0.08433302 0.11904728
0.05862861 -0.001174041 0.018448945 -0.2066509 -0.0021208527 0.051553316 0.012105058 -0.08088449
0.019148508 0.004684771 0.01881469 -0.18237187 0.087646864 -0.092646904 -0.005405358 -0.23342392
0.03753927 -0.1003345 -0.050572112 -0.0259398 0.036192488 -0.27386257 -0.12021145 -0.09624685
0.14476465 0.044897128 -0.07664472 0.09782277 0.022705534 0.041634526 0.004454835 0.19341089
0.1383981 0.087012544 -0.05506916 0.068279624 -0.014313279 -0.17769772 -0.1216919 0.0405061
0.06823797 0.089359924 -0.0021563217 -0.046174258 -0.092613295 -0.18736859 0.04997558 0.050048944
-0.07112811 -0.13727726 0.008185979 -0.011327189 0.09447971 0.10256319 -0.019435255 -0.10274656
0.008691388 -0.07133129 -0.0017616955 -0.11174512 0.039401527 0.2572182 -0.016476855 0.005039197
-0.03335589 -0.14278845 0.078742765 -0.03705813 -0.08742346 0.42599994 -0.0217813 -0.045005985
0.067651704 -0.12909064 0.04083114 0.045682456 -0.12908295 -0.21054797 -0.07205796 0.070108086
0.049211495 -0.11556379 0.046285357 0.13033469 -0.12646051 0.061708402 -0.031559084 0.16515158
-0.010232829 -0.035075545 -0.047870733 0.17181292 -0.012634268 0.31947398 0.012681797 0.105210654
0.0082462225 -0.00011334244 0.073985726 0.0010416444 -0.19046465 0.2801392 -0.033465527 0.050461825
-0.120391354 0.08883589 -0.0024210685 -0.105915576 -0.10037778 0.25372127 0.0329013 -0.008444442
-0.02238797 0.1852506 0.09520576 -0.13157214 -0.04796734 0.21121077 -0.030007103 -0.2369107
0.0053897197 -0.1500343 0.01461321 0.0739457 0.15575995 0.29631773 0.023311684 -0.021530086
-0.0062809326 0.010032951 -0.016435446 -0.07076823 0.07664431 0.041959487 0.0338018 -0.016883299
-0.044602584 0.0089674145 -0.060947612 -0.25088888 -0.0062822206 0.033208292 -0.002504964 -0.32683617
-0.036689356 0.0077104587 -0.03941016 -0.13647984 0.008656352 0.1466037 0.0022043297 -0.15651144
0.09553096 0.10699978 0.050394654 -0.11281728 0.013102218 0.20027797 -0.065284625 -0.11151635
0.08153761 0.059914608 0.0060763215 -0.3405342 0.05140391 0.27957958 -0.058345713 -0.39670366
-0.022836 -0.19785327 -0.04935869 0.11129957 0.05001802 0.0035164373 -0.044938214 0.14055929
-0.07624938 -0.23741102 0.033951215 0.10030644 -0.076695986 -0.02022207 -0.08639402 0.00677172

fc1.bias f4 [200]
00000000: 0ccd 373e 49f5 c63d b095 34bd cb15 48bb
00000010: fe45 4bbe 7ad2 c2bd 4034 b9bc 1527 02be
00000020: 96c4 1c3e dde6 6ebe 64a5 b2bd 9cb6 0ebe
00000030: f939 4f3e c81f 8abd 6a18 ab3e 830b 023e
00000040: e734 25bc 12ae 053e 8737 d93c 8e73 dabd
00000050: b822 bc3d dcb3 0d3e 6ca6 1f3e 15a5 7ebd
00000060: 01f3 9d3c 47b2 0f3e 214a fb3d 2261 e03b
00000070: 820b fabd 3120 c0bd ef04 0bbd 8796 d53d
00000080: 0dd6 213d 4f2c 1fbe 8ebb 29bd 2ef4 d13d
00000090: 0fdb 05be da57 79be 012d 6f3e 2d6d 6a3d
000000a0: ef15 08be ea79 61be 9588 d3bd e0cf 983e
000000b0: b390 a5bc 2158 113d 1d16 113e e164 f7bd
000000c0: cebd 383b c53b 8abc e36e 8fbc 1660 883e
000000d0: 66f7 443e 6038 6d3e bbec 95bd dc3d 0bbd
000000e0: b25a 613c 1ab7 ec3d 4e53 98bd 6279 e1bd
000000f0: f1a0 6ebe 98cd 723d b6df 6d3e d811 7bbc
00000100: 94e7 4dbe 4d89 82be 809a 17be c220 973d
00000110: f455 1b3d 2428 f93d c07c 6d3d b536 213e
00000120: d325 4d3e 516b 3c3e 9892 413e 2d6d 963d
00000130: ba22 fc3d ebf1 29bd 016b eebd e51b da3d
00000140: 65a1 3e3d c992 45be f5e4 57be 1b9c 3fbe
00000150: 14fe 193e f8a2 27bc 6549 8b3b c551 593c
00000160: e00c a93c ce45 303e afbe 20be 02f6 44be
00000170: 8a88 5fbd 5b99 0b3e ac8c 31bd bb8e 263e
00000180: d2dd 103d 6772 19be e222 c2ba c285 733b
00000190: e4d0 bbbc 4451 9fbd df95 ef3d 08fc 613c
000001a0: e972 72bd 7610 04be 2f5e 2bbe a086 c13d
000001b0: 1b9b ec3c 90d6 313d 387e 88be 51e2 5fbe
000001c0: 57b9 0ebd 422a 32be aa39 3bbe add8 8bbe
000001d0: 35ab d4bd 5e51 1dbe f5dd 813d e542 92bc
000001e0: f121 0f3e f663 5cbe 0c9a 983d e2a8 e13d
000001f0: e72b bc3d b1bd dabc 02fd 353e b1e9 eabd
00000200: e013 4e3d 2a6e 0f3e 3014 4f3e 2d13 f6bd
00000210: 2edf 5c3d 7000 273d a8a2 8e3d ff82 0bbe
00000220: afa5 883d bd0b a2bd 1aa3 88bd e6ff 6dbd
00000230: d9e5 4abd b6fd f3bd b8f0 d93d 331b be3d
00000240: 088c a33c ed4c 533e 2fb8 1d3e 8014 57bb
00000250: 5fa0 11bd 8cbe f1bd 653a 143d b5e5 efbb
00000260: 8299 dabd 0c3a 7e3e 5988 b8bc 422f 60bd
00000270: ee34 9bbd e9a9 3dbe 7324 593e 337b 0bbe
00000280: df48 6dbd 4abe c13d 3b8c 00be 5958 4bbe
00000290: cd61 493e 7b08 d1bd 94d9 97bd 7bb8 fe3c
000002a0: 33c2 0a3b 00c5 0f3e 2bd1 a43c 043a 73be
000002b0: 01e5 623e 28f8 23be 6889 b7bc d01d 9fbd
000002c0: 14cc 14be 52bd 593e 66b4 8cbd 9e59 783d
000002d0: da35 303d 4dd9 523e 0efa 62be 0055 053d
000002e0: 54ba 993e a8e9 08be 2b6a 793d 4190 23be
000002f0: 144b 613d b6d8 25be a342 023e 2d45 a6bd
00000300: 1e12 5c3e 7907 873c 9109 44bd a566 18be
00000310: f621 65be 1074 05be 9bf5 113e c119 f5bd
0.17949313 0.09714753 -0.044088066 -0.0030530568 -0.19850919 -0.095128015 -0.022607923 -0.12710221
0.15309367 -0.23330255 -0.08722952 -0.13936847 0.20236959 -0.06744343 0.33417064 0.12699704
-0.010083414 0.13054684 0.026515735 -0.106665716 0.091863096 0.13838142 0.15590829 -0.062169153
0.019280912 0.14032851 0.12269998 0.0068475166 -0.12209226 -0.0938114 -0.033940252 0.104291014
0.039510775 -0.15544246 -0.04143863 0.10251652 -0.13071845 -0.24349919 0.23357011 0.057233024
-0.13289617 -0.22019163 -0.10328785 0.29846096 -0.0202106 0.035484437 0.14168592 -0.12079788
0.0028189304 -0.016874203 -0.01750893 0.26635808 0.19235 0.23166037 -0.073205434 -0.03399454
0.013754534 0.11558361 -0.07437764 -0.1100948 -0.23303582 0.0592781 0.2322987 -0.0153240785
-0.20107871 -0.25495377 -0.14805031 0.07379295 0.03792377 0.12165859 0.0579803 0.15743525
0.2003396 0.18400313 0.18903577 0.073450424 0.12311311 -0.041490477 -0.11641503 0.10649852
0.046540637 -0.19294275 -0.21083434 -0.18711893 0.1503833 -0.010231726 0.0042506927 0.013264124
0.020636022 0.17214128 -0.1569774 -0.1923447 -0.054573573 0.13632719 -0.043347046 0.16265385
0.035367794 -0.14985047 -0.0014811421 0.0037158583 -0.022926755 -0.07779172 0.116985075 0.013792999
-0.059191618 -0.12896904 -0.16735147 0.09449506 0.028882554 0.043417513 -0.26658797 -0.21863677
-0.034844723 -0.17398933 -0.18283716 -0.27313748 -0.10384218 -0.1536307 0.06341163 -0.017854163
0.13977791 -0.21522507 0.07451257 0.1101854 0.09188061 -0.02670178 0.17772296 -0.11470354
0.050311923 0.14006868 0.20222545 -0.12015376 0.05392378 0.0407719 0.06964618 -0.1362419
0.06672227 -0.07912395 -0.06671734 -0.058105372 -0.049535606 -0.11913626 0.106416166 0.092825316
0.019964233 0.20634814 0.15402292 -0.0032818615 -0.035553332 -0.11803922 0.036188502 -0.0073210844
-0.106738105 0.2482683 -0.022525953 -0.05473257 -0.07578455 -0.18521847 0.2120531 -0.13621216
-0.057930823 0.09460123 -0.12553494 -0.1985792 0.19666214 -0.10206696 -0.074145466 0.031093827
0.002117288 0.14039993 0.02011927 -0.237526 0.2215767 -0.16012633 -0.022404388 -0.07769358
-0.14530975 0.21263626 -0.06870346 0.06063234 0.043020107 0.20590706 -0.22165701 0.032551765
0.3002497 -0.13370383 0.060892265 -0.15972997 0.05500324 -0.1619595 0.12720732 -0.08118663
0.21491286 0.016483055 -0.047860686 -0.14882906 -0.22376236 -0.13032556 0.14253847 -0.11967803

fc2.weight f4 [150, 200]
00000000: 4ddb 9c3e 6d57 f63d 4ecc a93d cf36 ed3d
00000010: 2fef f9bb 3888 e0bc 6b51 69be 27f2 afbc
00000020: dbef e73c 201e 2e3d f4ac 0cbd 7d1f a1bc
00000030: 8f0f 573d a2ac 1a3d 396e 183e 0b0f 12bd
00000040: c9e1 e4bc 7c3d 293d 0c09 733d e0d2 83bd
00000050: ac6e 9f3d 190d 973c f703 823d 2f84 8a3d
00000060: a450 8e3d e741 55bc a7a2 953d 8d98 553d
00000070: d284 2cbe c044 c1bc 46d5 493d 98cf a8be
00000080: 2174 b33d 5bf9 c2bd c720 883d e5af e93d
00000090: 2d6e 083e 37a5 0ebe 3886 ecbd 10f1 d63c
000000a0: 1ace 9b3c 7317 373d ab5e fc3d 6151 803d
000000b0: 8207 33bd 1d1c c2bd 3662 c03d 5df5 943b
000000c0: d5f6 283d 7111 483d 20e5 003d 8d6e 023e
000000d0: 1b28 53be 7543 b03d 5a8b a23d 6689 f63c
000000e0: 0b4d e3bc 0e7f 02be ff77 afbc 8ccb 35bd
000000f0: 2c97 373c 738f 86bd e430 0fbc 20d0 23bd
00000100: 1c9a b9bc a76f f73d 8d68 cf3d 9df4 553d
00000110: 5494 32be 25ef 3e3d a365 bdbd 63f2 67bc
00000120: 98b2 ca3c 043f 7cbd 7eb2 0e3e 1504 08bd
00000130: b142 76bd a2e3 b33d 6794 e4bc 09d8 ac3d
00000140: eb99 823d 7095 1dbd 0ccc 8f3d ef85 a13d
00000150: f129 ab3c d275 363d 41bf df3c 08bd 8c3d
00000160: 7209 093d 45d7 74bd 7ec0 f0bc 4a1c 28bd
00000170: 9b45 5fbe 2d5c b7bc 85ee ffbb 6e73 ee3d
00000180: 64e7 43bd b1b1 af3d 3ead b83d d9bd 8dbe
00000190: 5c29 063e 9fb5 353e 3ded 943d 6dc5 133e
000001a0: 9755 2c3e 6227 f1bc af59 343e e2b4 b8bc
000001b0: e3f9 853c 6b99 37bd 0efd 03be 3124 f93d
000001c0: 5de3 11be 4f1f aebc b45f abb8 bcbd a6bb
000001d0: f049 4e3d 66f7 3d3d 000a a63d 4b29 c2bb
000001e0: 21af 0dbe a2cc efbd 8537 2c3d bdc4 e4bd
000001f0: 94d3 8a3d e191 5b3d deaf bebe ebdf d83b
00000200: 3fcd 603d 1821 c9bd dde3 1fbd 528b 863d
00000210: e734 b8ba be18 4b3d a72d 1cbc f8b7 923c
00000220: 3b08 94bd eb82 16bd c4e0 c83d 1914 a63c
00000230: 6fe9 a63d ee07 e53b b0e2 0e3c 7067 d43d
00000240: 9e2e 1c3c 983c febc dcec 673b d26b ab3c
00000250: ed67 07bd 03eb 93bc 3255 1a3d a496 773d
00000260: 2e80 70bd 6eb4 8cbc ffd2 c8bd f1e0 073c
00000270: 0b8b dd3d 3d42 c63d 6376 e3bc ab32 e5bd
00000280: 2686 533d ff26 5d3c fc96 72bd f5fc 803c
00000290: e3fa 263d 6553 1c3e cd94 9dbe 9f14 7abd
000002a0: eee2 0fbd b270 f73d f809 bd3d 3f81 2e3d
000002b0: 5067 a4bd d7b9 b9be eb58 6c3d ba2b 683d
000002c0: 8f60 a53d 069c 3fbd 4a66 51bd 617f 543a
000002d0: 4173 3d3d 59b1 9ebe 3172 cbbc 6008 20bd
000002e0: 03fa 1d3e d0c0 3fbe 31ba a2bc 9ecc d9bc
000002f0: 0ccd f3bd 3da5 ecbd 073f 88bd 1c2c e13d
00000300: 2652 913d 7383 b33d bab8 263d 05f8 aebb
00000310: 294d fcbd c391 5e3d 5e26 003e cc05 99bc
00000320: d1b0 b03d 0904 e13c 3183 903c dfbd 8b3d
00000330: b28b 353e a5af b33d a446 643d 8d11 603d
00000340: 48d0 cabd c954 d33d 0d61 893d 6ab6 b3bd
00000350: c04c 4d3e 475a afbe b68d 163c 8081 e63d
00000360: 8ea0 0f3d 6cf2 56bd 63bd 0d3e 97d6 8b3c
00000370: 2a30 e7bc a70e 3d3e 949c 223e 80df 763d
00000380: 2d91 883c 72f6 33be c798 74bd e9b0 3dbd
00000390: 5077 ca3c a6d7 513c 8bac eabd 63fe 863e
000003a0: 6910 f2bd 384a c63d f5cb 9c3e 9524 d23d
000003b0: b1c3 0f3d b259 cdbd 7dac 0dbd 7d3d 873d
000003c0: 6cb5 cdbb 0da9 ffbd f532 863d 11e5 0dbd
000003d0: 737a 3dbe c3d3 61be 5428 f5bc 6a4b 9cbc
000003e0: 49ce ef3d f46a 7fbe 30f1 233e ae80 e4bd
000003f0: 5378 fa3e d87a 1abd 8437 8cbc f67d 9a3d
0.30636063 0.12028394 0.08290921 0.115827195 -0.00762739 -0.027408704 -0.22784965 -0.021477772
0.028312614 0.0425092 -0.03434463 -0.019668335 0.052505072 0.03776229 0.14885797 -0.035658877
-0.027939694 0.0413184 0.0593348 -0.064367056 0.07784781 0.018438863 0.063484125 0.06763493
0.06948975 -0.013016201 0.07306414 0.052147437 -0.16847542 -0.023592353 0.04927566 -0.3297088
0.08762384 -0.09520217 0.06646877 0.11410502 0.13323279 -0.13930212 -0.11549038 0.026237994
0.019019175 0.044700097 0.12322744 0.06265522 -0.043708332 -0.094780184 0.09393732 0.004545851
0.041251022 0.04884476 0.03146851 0.12737484 -0.20620768 0.086066164 0.079367355 0.030094814
-0.027746698 -0.1274378 -0.021419523 -0.04438357 0.011205476 -0.065703295 -0.008739684 -0.039993405
-0.022656493 0.12081843 0.10127363 0.052235235 -0.17439395 0.046614785 -0.09247901 -0.014156911
0.024743363 -0.061583534 0.13935277 -0.033207018 -0.060122196 0.08783652 -0.027902795 0.08439643
0.06377014 -0.038472593 0.07021341 0.07886874 0.020894023 0.044545956 0.027312877 0.06871992
0.033456273 -0.05977561 -0.029388662 -0.041042604 -0.21803896 -0.02238282 -0.007810416 0.1164311
-0.047828093 0.08578814 0.09017418 -0.27683905 0.13101715 0.17745064 0.07271812 0.1443078
0.16829525 -0.029437725 0.17612337 -0.02254719 0.016354507 -0.044824045 -0.12889501 0.12165106
-0.14246888 -0.021255163 -8.1717415e-05 -0.005088536 0.05036348 0.046378516 0.08107376 -0.0059253327
-0.13836338 -0.117089525 0.042045135 -0.11170337 0.067786366 0.053605918 -0.3724355 0.00661849
0.054883238 -0.09820765 -0.039035667 0.06569542 -0.0014053852 0.049584143 -0.009532369 0.017909989
-0.07228132 -0.036745947 0.09808496 0.020273255 0.08149993 0.0069894707 0.008721039 0.10371292
0.009532599 -0.031034753 0.0035388982 0.020925436 -0.033058096 -0.018056398 0.037678905 0.060446396
-0.05871599 -0.01717588 -0.09805869 0.008293376 0.10817536 0.09680603 -0.027766412 -0.11191305
0.051641606 0.013498067 -0.05922602 0.01574562 0.040766608 0.15266187 -0.30777588 -0.061054822
-0.035128526 0.12082042 0.09230417 0.042603727 -0.08027518 -0.36274597 0.057701986 0.056682326
0.08075058 -0.046779655 -0.05112294 0.0008106139 0.046252493 -0.3099468 -0.024834724 -0.039070487
0.15427403 -0.18725896 -0.019864174 -0.026586827 -0.11904344 -0.11554954 -0.066526465 0.10994741
0.07095747 0.08765306 0.040703513 -0.005339625 -0.12319405 0.054338228 0.12514636 -0.018679522
0.08627475 0.027467744 0.017640682 0.068233244 0.17729071 0.08773736 0.05573143 0.054704238
-0.09903008 0.10318906 0.06707964 -0.08775027 0.20048809 -0.34248564 0.00918906 0.11255169
0.035065226 -0.052477285 0.13841777 0.017070098 -0.028221209 0.1846262 0.15880042 0.06027174
0.016670788 -0.1757448 -0.059716012 -0.046311293 0.024715096 0.012807762 -0.11458691 0.26365957
-0.11819536 0.09682125 0.30624357 0.10260884 0.035098735 -0.10026874 -0.034588326 0.06603525
-0.0062777307 -0.12483416 0.06552688 -0.034642283 -0.18503742 -0.22053437 -0.029926457 -0.019078929
0.11709268 -0.24943143 0.16009974 -0.11157356 0.48919925 -0.03771481 -0.017116316 0.075435564

fc2.bias f4 [150]
00000000: fdc0 5e3c 2fc6 883d 360a d53d 2798 e4bb
00000010: 4991 ae3d 6951 25bc 40d3 0dbb fbdb 09bc
00000020: a313 9c3c 0f9b 183d 3382 e63d 6cb3 6ebd
00000030: 7f01 903d c88a 8ebd 1e59 9dbb 9a2e 8cbd
00000040: cc5e 243d 99b0 b53c 0295 113d 521e 673d
00000050: 7f76 ebbc 9b9f 86bd 1ede 08bd 5f65 ce3d
00000060: 63ac c13d 4488 813d b6a8 ab3c 7ed6 5c3d
00000070: d898 153c f34d 953d 515e 773c 740a d93d
00000080: e260 67bd 4570 8bbd 682b 153d 71ad 05bd
00000090: a737 6b3d abe6 793d 1232 4b3c 4634 14bd
000000a0: 3113 5b3d edda 163b f134 18bd 29e0 a7bd
000000b0: 65f9 f7bc 9f43 103d 1261 163e 0721 7eba
000000c0: 012a 2b3d 339e 993d 9fc0 bf3c 47b6 5bbd
000000d0: db60 47bc 798e 843d 4748 6abd eb92 1a3d
000000e0: 4bd7 a83d 7d59 8c3d dfdb 783d 065b 75bc
000000f0: 05c8 68bc 2d32 8d3c fcaa b83b b769 1b3d
00000100: e83f 09bd 8d5e 943d 5321 29bd 1df9 cfbc
00000110: 6f50 23bd 9153 d43d 8bc2 433d acbb e63d
00000120: b5df 9b3d e81b b33c bcd1 05be cbcd 343d
00000130: 1471 ebbc d878 013e 41bb bdbd b208 0d3d
00000140: 4e65 acbc 7e07 3fbd b4a1 763d 465e f83b
00000150: 3870 d13b d342 603d 358c 703d b3a0 8a3d
00000160: efe9 ff3c a5c0 48bd 9288 613d e5b3 773c
00000170: d868 fd3b f30e afbb dd58 d3bc 510c bb3c
00000180: f2cc 803b b5e9 4fbc bacb 0dbd b17c 883a
00000190: acde 103e 7964 2cbd b5f6 cb3c b9ee 003e
000001a0: c37b db3d b71d c9bd 9b88 abbd acc9 073d
000001b0: 5a75 6d3c 045e a63c 8376 d53d e5ec 973d
000001c0: bada 383d 91bf f03d ee26 6b3d 0b0f cbbc
000001d0: d096 1c3d 5dbb 38bd cef2 23bd ff99 1fbc
000001e0: 1d68 083d 7438 a63d a599 1d3c 74f0 b33c
000001f0: 39d8 32bc bed8 823d 5bbc 7b3c a89c 96bc
00000200: 9f15 b23d bcd0 44bc c817 483d b5fc 953c
00000210: 5a26 493d d3cc c9bd 6677 f33c 6ec2 213d
00000220: d038 ce3d 93f1 9f3d e2b4 c33d 7d38 0abc
00000230: 3e6e 49bc 949d 89bc 0120 193d 1168 0cbd
00000240: 2ca5 95bd f02a 493d bb30 e63d 92cf df3d
00000250: 4ede ab3d aec6 03bc
0.013595817 0.066784255 0.10402338 -0.006976146 0.08523805 -0.0100902105 -0.0021640807 -0.008414264
0.019052332 0.03725725 0.11255302 -0.05827658 0.07031535 -0.06960064 -0.0048018834 -0.06844826
0.040129468 0.022178935 0.035542496 0.0564254 -0.028743027 -0.06573411 -0.033414952 0.10077929
0.09456708 0.06324819 0.020954471 0.053915493 0.009130679 0.07290258 0.01509817 0.10597697
-0.05648888 -0.06808523 0.03641835 -0.03263611 0.05742612 0.061010998 0.012402074 -0.036182664
0.0534851 0.0023018674 -0.037159864 -0.08197052 -0.030270288 0.03522074 0.14685467 -0.00096942525
0.041788105 0.07500877 0.023407279 -0.05364063 -0.012169088 0.06472487 -0.057197835 0.03773777
0.08244189 0.06853006 0.06075656 -0.014975315 -0.014207845 0.01723584 0.0056356173 0.037942614
-0.03350821 0.07244597 -0.041291546 -0.025387341 -0.03987163 0.103675015 0.047792953 0.11266264
0.07611028 0.021863893 -0.13068289 0.044141572 -0.028740443 0.12643754 -0.092642315 0.03443212
-0.0210444 -0.046638004 0.060212806 0.0075795976 0.0063915513 0.05475123 0.05872746 0.06768932
0.031239478 -0.049011845 0.055061884 0.015118574 0.0077334456 -0.0053423583 -0.02579921 0.022833021
0.0039306814 -0.012689997 -0.034618117 0.0010413137 0.14147443 -0.042088006 0.024897913 0.12591065
0.10716965 -0.09820121 -0.08375665 0.033151314 0.014493311 0.020308502 0.10422995 0.07418231
0.04513047 0.117552884 0.057410173 -0.024787446 0.038229764 -0.04510056 -0.04002648 -0.009741305
0.033302415 0.08116236 0.009619151 0.021965243 -0.010915809 0.063889965 0.015364732 -0.018385246
0.0869553 -0.012012657 0.048850805 0.018308977 0.04910884 -0.0985352 0.02972002 0.039492063
0.1006943 0.078097485 0.09555985 -0.008436319 -0.01229435 -0.016798772 0.037384037 -0.034278933
-0.07306895 0.049113214 0.11239763 0.10928263 0.08392011 -0.008042974

fc3.weight f4 [2, 150]
00000000: 3bc0 bd3d 91d8 8d3c 1431 8b3e 358e a6bc
00000010: bb2e b5bc 210c b43c c310 30be d99f 8cbd
00000020: 0bbc 263e 755a 983e d477 143e 341a c43d
00000030: 5f0c 10bd 05b1 cc3e 78ae aebd abed 48be
00000040: 35a4 6ebd 0059 e43d 423a 0dbd f023 10bd
00000050: a504 dc3d 1cb5 793d 0f42 463e 529c 20be
00000060: 43c1 11ba 9545 8c3e 7af1 0b3e 18b3 6bbd
00000070: 0928 76bc ecf9 e7bc 1373 9f3e 0f6f 503e
00000080: bf25 1f3d 46a3 73bd 0d19 8d3e c095 9f3e
00000090: b3e5 7abd 3596 813e 65d5 bd3e 7b35 9fbc
000000a0: d108 153d f412 13be bcec 06bd e1b3 a8bd
000000b0: 689c 03be 63b7 dd3a 9836 7cbd 6e4b 57bd
000000c0: 2396 bc3d 56e6 58bd cfc9 143e a48b 243e
000000d0: e838 eb3d ed84 253e 642f 91bd cad0 5f3e
000000e0: bc85 49bd 4621 683e 5901 773e 1ed6 4b3e
000000f0: 06dd 5dbc 3b9e 9c3d 3545 ec3d a562 56bd
00000100: ff39 643d 09b4 99bc ab3b ad3e b5fd 08bd
00000110: 0fca 17bd d24b 35bd b614 84bd df89 323e
00000120: 3ac7 49bd 284c 6e3d d19c fa3e bd2c 553e
00000130: af79 de3d 496e ad3e fdf4 1abd 5831 0d3e
00000140: 73cf e03d 114b a8bc b75f 34bd 12e7 c1bd
00000150: abee cebc 06d8 94bd e56c 93bd 4f6f a83c
00000160: 46c9 2a3e 7e0c 513d 9d3f 9a3e 1363 373e
00000170: 2fe1 dabc 955c 8d3e bf7d 52bc 2413 cc3d
00000180: f8ef 1b3e aad9 3e3e d1ca a2bc 834f 51bd
00000190: 1560 603e 7eed d1bc 02a0 86be 2e89 453e
000001a0: e853 e03e c327 8fbc d889 aa3e 6692 3d3e
000001b0: ddcb 9a3d ea21 163e 93fb 20bd 200b ad3e
000001c0: 3996 61bd fd05 4c3e e506 fcbc 5958 e13d
000001d0: f40f f4bc 21c4 ac3e 6ec0 933e 7ecd fabd
000001e0: 834e dc3d 90b3 7b3e 1702 bdbc 0b2d d8bc
000001f0: 0107 a53e 9c7c 373e 1cc0 e7bc 301e 02bd
00000200: 4c8d 983e eb77 753e c410 47bd b2c1 973e
00000210: 05e5 5e3e da59 fc3d 2748 2c3e 20cd 5b3d
00000220: 740a 98bc bbe2 9c3d 1927 0f3d 6473 0dbd
00000230: e279 19bd 2fde 4abc 7022 12be e161 ce3d
00000240: a2e2 123e 80bb 123a 42b7 4c3e c8cf 28bd
00000250: d7c7 6b3e 31a8 503e c664 3f3e 7991 43bf
00000260: 14a6 8abe 8107 743c 00ec 8cbd 36b4 433e
00000270: a961 b73d 0373 0d3d ce0f b23d f9f7 0d3d
00000280: dda9 5dbe 1b7b c63e 10db 013d 4e0e b93c
00000290: 66ef 07bb 25a0 edbc 5006 81be afca 17be
000002a0: d0aa 1d3c 5ff0 6fbe 2c7d c53d 2e44 0e3e
000002b0: ea1d 7dbd 1db6 463b e110 4ebe 42da 483e
000002c0: 2517 36be 673a 87bd be44 4b3e cc00 65bd
000002d0: bed4 783e 3985 ff3d 88eb ab3d 44fe f83c
000002e0: 38c1 08be 262d 023d 813a 6cbe b897 77bd
000002f0: 79b6 38bd e02f 693c 7cfc a2be 692b 19be
00000300: 1bc8 753d b12f e73d 82a8 b13d 87a1 8b3e
00000310: d9ba 35be 60fa 923c 1ad1 98be 4e67 9bbd
00000320: 955d 15bd abe1 74bd 08c8 38be a341 8a3d
00000330: f51a e83d e99c 703e 79a6 9a3c 9f2e 39be
00000340: 9521 e7bc 8170 223d 4cd3 943d f3c1 153e
00000350: 3aa0 be3d 119a a53d c484 ee3d c925 d73c
00000360: eccc 5abe bffa c33d e5f4 82bc 1a19 84bd
00000370: 0983 933d ce56 87be f217 83bc cb72 33bf
00000380: c050 4c3e 2985 3fbd a2ac 27be 6bed 69be
00000390: c095 ad3d d154 523e d0a2 9c3d f3c4 96bc
000003a0: 4a30 a9be 9420 b4bd b077 cc3c 721c e33d
000003b0: 11fb 94bc 2a06 87be 600e d0bd 3bab 3ebe
000003c0: 21d8 33bd c54d d03e b5d0 7c3b 0e5a c2bd
000003d0: cc6d da3d 84d1 123e 1485 273e 559f 6a3d
000003e0: d7ed b43c 2983 53be 351e dabd b921 8e3d
000003f0: e03b 29be 54f9 4e3e e151 33be 35fd dc3d
0.09265181 0.017315181 0.2718588 -0.020331481 -0.02211701 0.02197844 -0.17193894 -0.06866426
0.1628267 0.29756513 0.14498836 0.0957531 -0.035168048 0.39978805 -0.08529371 -0.19621913
-0.05826207 0.11149788 -0.034479387 -0.035190523 0.107430734 0.060963735 0.19361137 -0.15684631
-0.0005560109 0.27396837 0.13666335 -0.057543844 -0.015024194 -0.028317414 0.31142482 0.20354865
0.038854357 -0.05948188 0.27558175 0.31168938 -0.061254214 0.2530991 0.3707687 -0.019434681
0.03638536 -0.14362699 -0.03294061 -0.08237434 -0.12852633 0.0016915615 -0.061575502 -0.05256217
0.09208324 -0.05295404 0.14530109 0.16068894 0.114854634 0.16163988 -0.07089117 0.2185699
-0.049199805 0.22668943 0.24121608 0.19905898 -0.013541466 0.076473676 0.11536638 -0.05234017
0.055719372 -0.018762605 0.33834586 -0.03344508 -0.037057932 -0.04426176 -0.06449263 0.17435406
-0.049262263 0.058178097 0.48947766 0.20817848 0.10863053 0.33873203 -0.037831295 0.13788354
0.10977068 -0.020543607 -0.044036593 -0.09467901 -0.02526029 -0.07267766 -0.07198504 0.020560889
0.16678342 0.051037304 0.30126658 0.17908888 -0.026718704 0.27609697 -0.012847363 0.09964588
0.1522826 0.1863772 -0.019872101 -0.05110122 0.21911652 -0.02562594 -0.2629395 0.19290611
0.43814015 -0.017475015 0.3330829 0.18512878 0.07558415 0.14661375 -0.03930242 0.3379755
-0.055074904 0.1992416 -0.030765006 0.11003179 -0.029792763 0.33743384 0.2885775 -0.12246226
0.107571624 0.24580216 -0.023072286 -0.026388666 0.32231906 0.17918628 -0.028289847 -0.03176707
0.297953 0.23971526 -0.048599973 0.29639965 0.21767052 0.12321825 0.16824399 0.05366242
-0.018559672 0.07660433 0.034949396 -0.034533873 -0.037469752 -0.012382074 -0.1427095 0.10077263
0.14344266 0.00055973977 0.19991782 -0.04121378 0.23025452 0.2037666 0.18690786 -0.7639385
-0.27079833 0.014894367 -0.06880951 0.19111714 0.08954174 0.03453351 0.08694421 0.034660313
-0.21646829 0.38765797 0.031703055 0.022589829 -0.0020742058 -0.029007027 -0.2520013 -0.14823411
0.009623244 -0.23431538 0.09643015 0.13893196 -0.061796106 0.003032095 -0.20123626 0.19614509
-0.17782266 -0.06602936 0.19850442 -0.055908963 0.24299905 0.12476582 0.083945334 0.03039468
-0.13354957 0.03178134 -0.23069192 -0.060447425 -0.045095894 0.014232606 -0.31833255 -0.14957966
0.06000529 0.11288393 0.086747184 0.27271673 -0.17747058 0.017941654 -0.29847032 -0.07588063
-0.0364662 -0.059785526 -0.18045056 0.067508005 0.11333267 0.23497356 0.018878208 -0.18084191
-0.028214255 0.039658073 0.07266864 0.14624767 0.093079045 0.080860265 0.11646417 0.026263135
-0.21367234 0.095693104 -0.015985915 -0.064501 0.07202727 -0.26433414 -0.016002629 -0.70097035
0.19952679 -0.04675785 -0.16374448 -0.22844474 0.08475828 0.20540167 0.076482415 -0.01840446
-0.33044654 -0.08795276 0.024959415 0.1108941 -0.018186124 -0.2637189 -0.10158992 -0.18620007
-0.04390729 0.40684333 0.0038576548 -0.09489833 0.10665473 0.14337736 0.16359359 0.057280857
0.022086067 -0.20655502 -0.10650293 0.06940026 -0.16526747 0.20212299 -0.17511703 0.10790483

fc3.bias f4 [2]
00000000: bb90 b4bd e06f ac3c
-0.08816668 0.02104944
