SabrinaPalis-Grand-Chelem-a098441/agent1_checkpoint_critic.pth (torch_old, 164613 bytes, 5 tensors)

fcs1.weight f4 [200, 52]
000000 a3 92 87 3f 36 4b 78 3c 73 27 e5 3b 65 2a 0b 3e
       1.0591625 0.01515465 0.006993228 0.13590391
000010 07 07 8d 3e ad f0 6b be 64 19 cd bd 54 8e 0a 3e
       0.27544424 -0.2304103 -0.100146085 0.13530856
000020 68 30 66 3f 60 a8 3c 3c b7 8c f0 bc 99 4c 41 3e
       0.8991761 0.011514753 -0.029363973 0.18876876
000030 a9 36 9d 3d ee b1 bc be 63 f1 e3 bc 6f 38 47 3e
       0.07676441 -0.368545 -0.027825063 0.19455121
000040 37 f0 0b 3f 77 61 e5 3d d3 f1 97 bc a2 83 99 3e
       0.54663414 0.112002306 -0.018547928 0.2998324
000050 71 e1 65 be 64 65 43 3e 7e ad f2 bc 5a d6 80 3e
       -0.2244928 0.19081646 -0.029623743 0.25163537
000060 01 64 a5 3e 94 8b 48 3f 38 81 67 3b 20 09 c9 3e
       0.3230286 0.7833798 0.0035324823 0.39264774
000070 27 40 4b be 84 91 a8 be 15 b8 9a 3a b0 13 b2 3e
       -0.19848691 -0.3292352 0.0011804128 0.34780645
000080 fc 22 6c 3e 0d 50 44 3f de 76 00 be 5b 92 8d 3c
       0.2306022 0.7668465 -0.12545344 0.017281702
000090 96 97 21 be b2 f4 94 be 0b e8 0b be a6 fb c4 bc
       -0.15780482 -0.29092938 -0.13662736 -0.024045777
0000a0 ce 6c be 3e d9 3e ff 3e 90 33 2d 3d cb c9 50 bf
       0.37192386 0.49852636 0.042285502 -0.8155791
0000b0 54 fc 8c 3e c7 fe 65 3e 1e 73 b4 3d 97 a4 4e bf
       0.2753626 0.22460471 0.08811019 -0.80719894
0000c0 21 4f b5 bf 04 e8 e5 be 03 a8 8a 3f 5f a8 95 bf
       -1.4164773 -0.44903576 1.0832523 -1.1692008
0000d0 10 8e 36 3e 93 85 ff bb f2 02 ce bc 9b 1b 97 3d
       0.1782763 -0.0077979057 -0.025147889 0.07378312
0000e0 8e 63 79 3e 50 6b 0f 3f 3d 61 37 3d 85 6f ef 3c
       0.24354383 0.5602312 0.044770468 0.029227981
0000f0 14 78 91 3e 2c c6 fa bd 7b d5 98 bd 12 5c 32 be
       0.28411925 -0.122448295 -0.07462593 -0.17417935
000100 cb 1e 88 3e ca 09 8e be 69 75 f5 3c 4a e5 18 be
       0.26585993 -0.27741843 0.029963212 -0.14931217
000110 c4 db 6a 3f 1b b1 8c 3c 0c 69 7a bd 23 6b 18 be
       0.91741586 0.017174294 -0.061135337 -0.1488462
000120 d4 d7 8c bb ca 7d b1 bf f9 31 27 bd b3 46 14 be
       -0.0042981897 -1.3866513 -0.040819142 -0.14480095
000130 da 95 da bd b6 fb a8 3f ee b7 82 bc 05 ac 81 3d
       -0.10673113 1.3201816 -0.015956845 0.06331638
000140 31 ab 69 be 0a 50 2a 3f 71 d0 e1 bc df 5c 95 3d
       -0.2281921 0.6652838 -0.027565213 0.072931044
000150 bc 95 24 3d 90 8f c3 3f 49 3a 13 bd 64 24 b1 3e
       0.04018186 1.5278187 -0.035944257 0.34598076
000160 03 86 4a be 22 2d 83 be 84 e9 71 bd 5c d2 b8 3e
       -0.19777684 -0.2562037 -0.05906059 0.3609799
000170 57 6f 6f 3e af 41 cc 3f 1a 13 80 bd f8 e8 c9 3d
       0.23382317 1.5957545 -0.06253643 0.098588884
000180 c1 78 b5 bd 61 49 aa bf 64 63 c5 3b 61 c2 b5 3d
       -0.088609226 -1.3303643 0.006023811 0.088749655
000190 b0 01 d1 be fd a0 a3 3f 66 75 55 3f a4 7c d3 3e
       -0.408216 1.2783505 0.8338226 0.4130603
0001a0 3b f3 97 be b7 6a 40 be 0a 76 28 3d 16 60 a5 3d
       -0.29677758 -0.18790708 0.041128196 0.080749676
0001b0 71 12 93 be 4d e2 11 3f c0 0e 17 bd 27 2f ec 3c
       -0.28725007 0.5698593 -0.0368793 0.028831078
0001c0 0b d6 c8 3d 07 34 22 3e 15 59 97 bd b7 e5 0c 3e
       0.098064505 0.1584016 -0.07390038 0.13759504
0001d0 f9 34 be 3d bd 5b c7 3d 39 67 07 3d e8 85 2e 3d
       0.092874475 0.097342946 0.033057425 0.04260817
0001e0 32 ab c7 3e 2b 10 eb 3e 33 0c ac bb a4 2c ab 3d
       0.389978 0.45910773 -0.0052504777 0.08358124
0001f0 74 bb 58 3f a3 3a e4 be a8 1d 62 bc 59 d3 1c 3e
       0.8466103 -0.44575986 -0.013801016 0.15314998
000200 4c 32 27 be 4d ec 6f 3e 01 f5 26 3b e7 a0 91 bc
       -0.1632778 0.23429985 0.0025475624 -0.01777692
000210 6a 30 b7 3e 54 7b 18 3f eb 8e 8d bc 1a f7 7c bd
       0.35779124 0.59563184 -0.017280063 -0.061759092
000220 dc 40 0e 3e db 27 0e 3f 30 58 f4 bc f3 1c 28 3d
       0.1389193 0.55529565 -0.029827207 0.041043233
000230 a1 60 f7 bd e6 c8 0d 3e 45 cd d3 bb 72 a6 fc bc
       -0.120789774 0.13846168 -0.006463679 -0.030841086
000240 71 e5 8e 3e c1 a0 17 3f 40 03 82 3a 04 fb 2b 3d
       0.27909425 0.59229666 0.0009919181 0.041987434
000250 85 21 65 bf dc 08 04 bf ea 8d 4e 3c 89 ef b3 bc
       -0.8950427 -0.5157602 0.012607077 -0.021964805
000260 cb c0 aa 3e 0b 06 36 be d5 11 c7 3e 9a a6 5a be
       0.33350214 -0.17775743 0.38880792 -0.21352616
000270 97 ed 24 be a1 5b c2 3f 6c b5 57 bd 78 65 ee 3d
       -0.16106258 1.5184213 -0.05266325 0.116404474
000280 86 67 32 3d aa 3a 76 3e 19 66 32 3d 99 44 cc 3d
       0.04355576 0.24045816 0.0435544 0.099740215
000290 d4 2c 32 bd ed 5e e3 3f d2 8f 39 3c bc 02 0c be
       -0.043499783 1.7763344 0.011325793 -0.13672918
0002a0 65 49 49 bc ca 42 a9 3d f5 e1 45 bb 77 12 ff bd
       -0.012285565 0.08264692 -0.0030194495 -0.12454694
0002b0 6d d4 88 3d b2 c4 ca 3f 0c e8 b0 bc 24 9d 99 be
       0.06681142 1.5841277 -0.021595024 -0.300027
0002c0 ba f3 ef 3c 8d f1 98 be 62 bd 63 bb c0 a2 a8 be
       0.029291023 -0.2987179 -0.0034750332 -0.32936668
0002d0 f8 a5 30 3e f1 5e e6 3d ef 57 12 3b 22 39 9e bd
       0.17250812 0.112485774 0.0022330245 -0.07725741
0002e0 70 db 53 bd e7 07 a7 3e fd a4 4e bc b4 e3 8e bd
       -0.051722944 0.32623217 -0.012612578 -0.06977025
0002f0 60 2a c1 bd 98 7f 88 3e 1d 13 94 3b dd b7 06 3e
       -0.094319105 0.26659846 0.00451888 0.13156076
000300 63 15 ce bd c6 88 54 3d 6a cd 80 bc 75 ee 33 3e
       -0.10062673 0.05188825 -0.015722949 0.17571433
000310 00 18 13 be e2 e1 95 3e 6c 8d 9f bc c4 c8 3a 3e
       -0.14364624 0.29273897 -0.019476615 0.18240649
000320 f5 31 1e 3d e7 68 69 be d9 7e 87 3d f3 e0 5a 3e
       0.03862186 -0.22793923 0.06615991 0.21374874
000330 a8 9a 77 bd 6d d2 0f 3e cc 2b b4 3e 2e f0 12 bd
       -0.060450226 0.14045115 0.35189664 -0.035873584
000340 fd 82 a8 3e c1 9c f3 3e d0 7d 0b 3c 5d 26 aa bd
       0.32912436 0.4758053 0.008513883 -0.083080985
000350 b2 33 0b bf 25 e6 1c bf b3 30 aa bc ac ba 9a bc
       -0.54375756 -0.6128867 -0.020775175 -0.01888784
000360 be d7 5b 3f 3d 64 dc 3e ee c8 a3 ba af 46 0c 3e
       0.8587607 0.43045226 -0.0012495795 0.13698839
000370 9a 30 d9 be 0a 97 03 bf fd b4 3b 3d d7 d6 1d 3e
       -0.42419893 -0.5140234 0.0458269 0.15413986
000380 a9 e7 a4 3f 18 12 01 3f 5d 36 7c 3d 12 de 99 3d
       1.2883197 0.50418234 0.061575282 0.0751306
000390 cf 28 ff be fd c5 ea be e9 1d c4 bc 7e 0a 03 3d
       -0.49835822 -0.45854178 -0.023940044 0.031992428
0003a0 9c 3e 6b be ef 0a 23 bd bd 79 02 bc 75 88 ec 3c
       -0.22973102 -0.03980535 -0.007963595 0.028873662
0003b0 5f ea ee 3e b3 46 16 bf 83 c6 99 3c 48 08 bd ba
       0.46663186 -0.5870163 0.018771416 -0.0014422024
0003c0 b5 fd 1b 3e 54 56 47 bd d3 f8 a2 bc 6a cd 5b 3d
       0.152335 -0.048666313 -0.01989404 0.053662695
0003d0 f5 8f f8 3e b0 58 ec be 4d d7 44 3c 1a 46 06 3c
       0.4854733 -0.46161413 0.012014222 0.008195424
0003e0 60 d6 8c 3e 80 81 01 be fa 7c 21 bd 9c 23 53 3c
       0.27507305 -0.12647057 -0.039425828 0.012886908
0003f0 93 00 03 3f 01 74 f5 be af e1 90 ba 4c 71 36 bc
       0.5117275 -0.47940066 -0.0011053587 -0.0111354105

fcs1.bias f4 [200]
000000 ed 3a 28 bf 72 9a 2b 3e 65 91 2a bf da 9c 6f 3e
       -0.65714914 0.16758135 -0.66628104 0.23399678
000010 37 7d ab be b3 aa 27 bf d7 6d d8 be 8c 0d a2 3f
       -0.3349397 -0.6549484 -0.422713 1.2660384
000020 8d fa 3d 3e 3b d0 12 bf 61 24 af be 3f e1 93 be
       0.18552609 -0.57348984 -0.34207442 -0.28882787
000030 cf fd b2 bf 0a 96 1f bf 32 36 02 bf 72 d8 11 bf
       -1.3983706 -0.62338316 -0.50863945 -0.56970894
000040 0a af 87 bf db a3 25 be 86 7a a9 bf bd b7 a1 bd
       -1.0600293 -0.16175787 -1.3240516 -0.078963734
000050 3d 74 09 bf 50 4b 14 bf 2e 13 54 bc 7d d0 a9 3e
       -0.5369299 -0.5792742 -0.012944026 0.33166876
000060 23 17 f7 be 37 f8 1f bf 35 3c 37 bf 88 12 c2 be
       -0.4825984 -0.6248812 -0.71576244 -0.37904763
000070 57 82 1b bf 22 01 d0 be 4e a6 18 3f e7 96 08 bf
       -0.6074576 -0.40625864 0.5962876 -0.5335526
000080 2c 4d 21 bf 54 26 a8 be 5f bd ed bd ec 80 81 bd
       -0.6300838 -0.32841742 -0.11608385 -0.06323418
000090 34 f0 2a bf aa 06 60 bf c7 0d 35 bf f7 34 17 bf
       -0.6677277 -0.8751017 -0.7072415 -0.5906519
0000a0 92 e2 28 be 27 11 20 bf c0 c7 73 be 09 89 21 bf
       -0.1649268 -0.6252617 -0.23806667 -0.63099724
0000b0 06 39 94 be 5b a2 3b bf 7a ba be 3c e5 bb 22 bf
       -0.28949755 -0.7329461 0.023282278 -0.63567954
0000c0 eb 74 05 bf e3 ff ab 3e 7b 46 85 3f 97 e8 e4 3c
       -0.5213153 0.33593664 1.0412134 0.027942939
0000d0 91 1c 2c 3f 07 a9 c0 be 0d ab 53 be 3e 1f 68 be
       0.6723109 -0.37628958 -0.2067072 -0.22668168
0000e0 67 7d 49 bf 18 7e 08 bf 0b d0 4e bd 77 2a 92 bd
       -0.78706974 -0.53317404 -0.050491374 -0.07137006
0000f0 25 df 8f bd fd d4 3e 3e 98 1f 45 bf 25 e8 89 bd
       -0.07024983 0.18635936 -0.77001333 -0.06733731
000100 97 b5 99 3f f4 e8 a9 3e 93 97 33 bf 4d b5 e4 bd
       1.2008542 0.33185542 -0.7015316 -0.11167393
000110 65 43 13 bf 27 b9 9c 3d e9 26 ac bc b8 13 90 3d
       -0.5752471 0.076525025 -0.021014648 0.07035011
000120 bc 61 8c bf b5 17 a3 bd 4f 33 4e 3f d1 1e 59 bf
       -1.0967326 -0.07963506 0.8054704 -0.8481265
000130 b1 4b 1e bf 61 ad 27 bf f4 b3 7e bd 67 60 4b bb
       -0.61834246 -0.6549893 -0.062183335 -0.0031032802
000140 53 66 82 bf 5a 42 15 bf b1 0f 1f bf 2a 6e f5 3d
       -1.0187477 -0.5830437 -0.6213332 0.11983903
000150 99 53 f8 bd 35 fc 75 be 6a cb 4e be 08 9f d9 bb
       -0.1212532 -0.2402199 -0.20194784 -0.0066412725
000160 6c 60 a4 be 71 e5 8f bf 9a 45 00 bf e3 59 67 be
       -0.32104814 -1.1241895 -0.50106204 -0.22592883
000170 79 3c 2e bf e2 2a 33 be 70 6b 5c be 7e 9e be be
       -0.68061024 -0.17496827 -0.21525359 -0.37230295
000180 bf 62 aa bf 0a 31 34 bf 8c 58 86 bf f5 ed 67 be
       -1.3311385 -0.7038733 -1.0495772 -0.22649367
000190 0e b8 bb be 01 9f 5e bf a3 23 2f bf d1 5e 2c be
       -0.3666386 -0.8696137 -0.6841375 -0.16833045
0001a0 f4 c4 9e be 92 ab 44 bf 6d 76 ac 3e d2 d4 e0 be
       -0.31009638 -0.76824296 0.33684102 -0.4391237
0001b0 ba 37 24 bf fa 31 51 be d2 79 d5 be b3 ff 0c bf
       -0.6414753 -0.20429221 -0.41694504 -0.55077666
0001c0 fa 3b c4 3d e3 45 31 bf e0 07 83 bd 9d 47 2b bf
       0.09581752 -0.69247264 -0.063979864 -0.6690615
0001d0 f8 af 5d bf e9 b2 c3 bf 72 65 b2 be ee b7 77 bf
       -0.8659663 -1.5288974 -0.34843022 -0.9676503
0001e0 3e f5 20 3d f0 03 e3 be de b8 c1 be 3d 1d 21 3e
       0.03929638 -0.44338942 -0.37836355 0.1573381
0001f0 e0 ff e8 be 1e 91 c6 3d 3a d2 3a bf 0c bd 34 be
       -0.45507717 0.09695648 -0.7297703 -0.1765024
000200 63 5a c4 be 3a 6a 01 bf a1 5e 82 3d 50 1b 6d be
       -0.3835021 -0.50552714 0.06365705 -0.2315495
000210 11 c6 32 bf 48 d9 34 bf eb 96 f0 be 1e 6a 44 be
       -0.69833475 -0.70644045 -0.4699014 -0.19181105
000220 76 7c bf be de 24 0b bf 2b 1b 09 3e 45 8d 36 bf
       -0.37399644 -0.5435313 0.1338927 -0.7130931
000230 af ed 4d bf 4a 80 14 bf df 6f 15 bf 68 2b 0a bf
       -0.804408 -0.58008254 -0.58373827 -0.5397248
000240 4d c5 5a bf 25 2b 3f bf 61 f0 de bd b3 07 81 bf
       -0.8545731 -0.7467521 -0.108856924 -1.0080475
000250 96 bd 11 bf fd be 1a bf cf 1a d6 be 1d 68 97 be
       -0.5692991 -0.60447675 -0.41817328 -0.2957162
000260 8e 19 8e bf 28 75 69 be 7f 7d 2c bf 9d 99 b3 bd
       -1.1101549 -0.22798598 -0.6737899 -0.08769534
000270 e9 96 bb be 15 1a 65 bf 1b 71 63 bf b6 96 c0 be
       -0.36638573 -0.89492923 -0.8884446 -0.37614983
000280 4d 46 05 3d 3b 36 4e bf 34 34 c0 be 97 be 17 bf
       0.032537747 -0.805515 -0.37539828 -0.5927519
000290 53 ef 1c bf 34 5a 9a 3e 0d 26 a3 be 32 56 33 bf
       -0.6130268 0.30146945 -0.31864968 -0.700534
0002a0 fb 4c 32 bf 67 01 e4 be d0 cb bf be 3a 3c 37 be
       -0.6964871 -0.4453232 -0.37460184 -0.17894068
0002b0 18 2d 8c be 2d e4 85 bf 43 73 8f bf dd a8 4d bf
       -0.27378154 -1.0460259 -1.120705 -0.8033579
0002c0 e9 67 3b bf dd ed 01 bf 98 fb 70 bf 23 d1 88 be
       -0.7320543 -0.50753576 -0.941339 -0.2672206
0002d0 27 9e 15 be 2a 86 c6 bd 25 4d 3c be 13 4e 90 be
       -0.14611112 -0.096935585 -0.18388803 -0.28184566
0002e0 19 6d 1e bf bf f6 02 bf 21 46 a7 bf b7 b6 a3 bd
       -0.6188522 -0.51157755 -1.3068277 -0.079938345
0002f0 68 94 e3 be 96 b3 2c be e0 10 02 bf be 1a ee be
       -0.44449162 -0.16865382 -0.50807 -0.46504778
000300 81 4a db be 16 c9 35 bf e9 9b 38 bf 08 f2 ff bd
       -0.4283028 -0.7100996 -0.721129 -0.12497336
000310 18 d0 02 bf db 77 78 bf ba 33 8e 3e 2d 57 29 bf
       -0.51098776 -0.97057885 0.2777384 -0.66148645

fc2.weight f4 [150, 200]
000000 c8 7d ed bc b6 f2 ad 3d e2 e4 90 bd 99 68 ce bd
       -0.028990641 0.08493559 -0.07074906 -0.10078544
000010 c2 0c 23 bc 4d 43 95 3c f1 e2 06 3d cf bc be bd
       -0.009951772 0.018220568 0.032931272 -0.09313356
000020 f5 f7 24 be 32 69 e9 3c 88 fe 81 bc 53 36 4b be
       -0.16110213 0.028492544 -0.01586844 -0.19844942
000030 6f 6c 80 bd d9 dd 98 bd 7c 98 98 3c 85 b9 f6 bd
       -0.06270682 -0.07464189 0.018627398 -0.12047104
000040 b3 a6 5d bd 98 d5 02 be 8a 4c 25 be 35 5a c9 bc
       -0.054114055 -0.12776792 -0.16142479 -0.024579147
000050 4f 7a c3 3c 4a f4 b3 bd 1e 59 e8 3c be 40 f8 bd
       0.023862032 -0.08786829 0.028362807 -0.121217236
000060 4f e6 31 3d 1f 2b 88 bc 4f a0 f4 bd f7 76 63 bd
       0.04343253 -0.016622124 -0.11944639 -0.055533376
000070 24 83 42 be 4f 0c e3 bb 43 0c ab 3c 4d 57 0c bd
       -0.18995339 -0.0069289575 0.02087987 -0.034262944
000080 fd 57 eb bd 57 ef 0d 3d 81 66 0c be 65 59 da bd
       -0.11491392 0.03465208 -0.13710977 -0.10661582
000090 4b f2 b5 3c fb 1d 0f bd bc 32 7c bd 13 53 c7 bc
       0.02221026 -0.0349407 -0.06157182 -0.024331605
0000a0 9c 30 f5 bd ec 9c 6a bb a8 67 b0 bd fe c8 51 3d
       -0.11972162 -0.00357991 -0.08613521 0.05121707
0000b0 5a 07 3b 3c a3 c2 1f 3c 38 8c dc bd 3f b6 4d bd
       0.011415327 0.009750995 -0.10768932 -0.05022263
0000c0 bd f5 5d be e0 79 17 be 1e ab 16 bd b8 6b f1 bd
       -0.21675773 -0.14792585 -0.036784284 -0.11788124
0000d0 e4 93 9b bd 56 7c 51 bd 7e 23 2a be 77 8e 16 bd
       -0.07596567 -0.051143967 -0.16615102 -0.03675696
0000e0 2f 7b ae bd 6d dc 7f bd a3 88 2d be e5 25 3a bd
       -0.08519589 -0.062466074 -0.16946654 -0.045446295
0000f0 07 81 1d 3e cc c9 2a bd 15 06 64 3c 2b 87 ae bd
       0.15381251 -0.041696355 0.013917466 -0.08521875
000100 e4 fb b2 bd 3f 21 2c bc 78 1c b1 bd ff 3a a3 bd
       -0.087394506 -0.010505973 -0.08648008 -0.07970237
000110 50 27 87 bc dd 2b e9 3c 1d 68 cc bd 10 62 93 bd
       -0.016498238 0.028463298 -0.099807955 -0.07196438
000120 d6 80 ba bc 36 50 bd 3c 50 15 12 be ed 39 20 3d
       -0.022766512 0.023109537 -0.14265943 0.039117742
000130 1b a8 e5 3d b4 b3 be bd 1b 91 d3 bd d2 f3 61 3d
       0.11213704 -0.093116194 -0.10330411 0.055164166
000140 f8 e5 d1 bc 2b fa e8 bc cb 1d 34 bd f6 3f f5 bd
       -0.025622353 -0.028439602 -0.043973725 -0.1197509
000150 7c cf 04 bb ad 5a 9f 3d ab a5 f8 3c 30 e5 05 be
       -0.0020265272 0.07780967 0.030352434 -0.1307571
000160 73 92 fa 3c 31 b8 9a bd 54 a5 a3 bc 6d 22 0a bd
       0.03058741 -0.07554663 -0.019976296 -0.033724237
000170 bc 90 17 3c 3b 2b 8a 3b 59 80 88 3c 2d 6d 32 be
       0.009250816 0.0042165793 0.016662763 -0.1742446
000180 c3 9c 4f 3b 62 99 38 3b 54 34 5d bc cc 52 a9 3d
       0.003167913 0.0028167595 -0.0135012455 0.082677454
000190 da 60 41 bd 2e 26 eb bc 58 3f 07 3e 5a c4 04 bc
       -0.047211505 -0.028704729 0.13207757 -0.0081034545
0001a0 ca a1 64 bd 94 4b 16 bd 02 f5 cf bd aa 06 fd bd
       -0.055818357 -0.03669317 -0.101541534 -0.12354787
0001b0 03 94 8a 3d 3c 7a dc 3c 2c f1 12 bd 22 35 a4 bd
       0.06766512 0.026913755 -0.03587453 -0.08017947
0001c0 cf 32 ee bd 9a 27 bd bc 8c 78 9f bc fe 2a c2 bc
       -0.11630785 -0.023090173 -0.01946666 -0.02370214
0001d0 42 ea 03 3d 35 8f 9f bd db da 0c bd b8 5e 22 be
       0.032205828 -0.077909864 -0.034388404 -0.15856445
0001e0 f5 54 24 bd 7d fa cf 3c 5b 7f a1 bd f0 a1 08 3c
       -0.040120084 0.025387997 -0.07885619 0.00833939
0001f0 31 b8 09 bd 0c df 38 bd 55 d3 97 bd a6 2b a7 3b
       -0.033622924 -0.04513459 -0.07413355 0.005101639
000200 83 fd be bb 41 00 c2 3b 61 cc 9d bd 57 e7 bc bc
       -0.005828561 0.0059204404 -0.07704998 -0.02305953
000210 95 1d 80 3c a3 1f 47 bc c7 8f 11 bd 63 18 e7 bc
       0.015639106 -0.012153539 -0.035537507 -0.02820987
000220 4c 13 fe bb 13 65 b0 bd 4b 50 20 3d 2a 2c 39 bc
       -0.007753765 -0.086130284 0.039139073 -0.011302033
000230 13 2d 42 bd 77 5f 93 bd 4a 55 09 be ad e3 03 be
       -0.047406267 -0.07195943 -0.13411441 -0.1287982
000240 46 d5 0e be f3 be 06 3d a6 2f 00 bd 0e c7 95 bc
       -0.13948545 0.032896947 -0.03129544 -0.018283393
000250 b3 c1 7a 3d 83 03 1f 3d e6 26 3a bd bd c4 bc bd
       0.061219882 0.03882171 -0.045447253 -0.09217212
000260 3f f1 22 bd f7 3d e5 3b 8f 1b 9b 3b 84 e1 f5 bc
       -0.03978085 0.006995912 0.00473351 -0.03001476
000270 04 ab 8b ba d7 9e 25 3d cb d3 10 bd e9 fe 99 bd
       -0.0010655825 0.040434685 -0.03535823 -0.075193234
000280 9d e8 b8 bd c9 9f c6 bd bd db 05 3c af 01 a0 bd
       -0.090287425 -0.09698445 0.0081700655 -0.07812821
000290 4c 33 43 3d 07 b5 13 bd 25 62 25 3d 77 33 59 3d
       0.047656342 -0.036061313 0.0403768 0.053027596
0002a0 3e 29 4b be 81 c9 a2 bd e3 7b a5 bd 7b c9 0a be
       -0.19839951 -0.0794859 -0.0808027 -0.13553421
0002b0 27 e8 38 bb 48 21 fa bc d4 64 cc bd 3a 90 5d bd
       -0.0028214545 -0.030533448 -0.09980169 -0.054092623
0002c0 dc ba ae bd 83 cd 86 bd 64 e0 05 bd 17 11 1b be
       -0.08531734 -0.06582167 -0.0326847 -0.15143238
0002d0 c0 12 6f bd 57 89 96 bc 13 70 31 be ec 1e d1 bd
       -0.05836749 -0.018376036 -0.17327909 -0.10210976
0002e0 6e 6b 07 be 3a a0 22 bd 0b 41 6d be 8c 41 00 bd
       -0.13224575 -0.039703585 -0.23169343 -0.03131251
0002f0 03 ea f6 bc f6 1b a7 bd 0c 31 0a bd 88 48 7f bd
       -0.030140882 -0.0815963 -0.03373818 -0.06232503
000300 2a 78 04 be 23 48 7e bd 2b 04 05 3c 72 f6 59 3d
       -0.12936464 -0.062080514 0.0081186695 0.053213544
000310 a8 31 9c 3c 52 fe 7d 3d b0 28 d9 3b bc b2 81 bd
       0.019066647 0.062010117 0.006627165 -0.06332919
000320 11 b5 e6 bd c1 44 c3 3d e6 c5 23 bd 35 f9 8f 3d
       -0.112650044 0.09534598 -0.039983653 0.07029954
000330 a9 bc 10 3c 74 43 e8 3c bb ab bd bd d7 d5 7b 3e
       0.008834043 0.028352477 -0.092612706 0.24593292
000340 0f 24 04 3e fd 25 ad 3d eb 1b 29 bd fd dd 97 bd
       0.1290438 0.08454511 -0.04128639 -0.07415388
000350 32 e3 6d be a2 9b ff 3c 35 10 20 bc a2 17 65 bd
       -0.232312 0.031202141 -0.009769489 -0.05593074
000360 7d c2 18 3d 11 4d b8 bd 9e be 97 bd 3b cb d9 bc
       0.037294853 -0.08999074 -0.07409404 -0.026586166
000370 3e 2b b2 ba c8 c7 22 3f dc ae ef 3d 0a b0 95 bd
       -0.001359321 0.6358609 0.11703274 -0.073089674
000380 b0 c9 7d be b0 11 03 bd ef dc 2f 3d ce 8a ba 3d
       -0.24783969 -0.03199929 0.042935308 0.09108506
000390 b8 12 7d bd 93 52 ed bd e4 1c 52 3e e0 bc 2c be
       -0.06178543 -0.115880154 0.20518833 -0.16868925
0003a0 44 42 07 bd 1b c9 b1 3d b1 78 f7 3b 17 3a fe 3d
       -0.03302218 0.08680936 0.0075522293 0.124134235
0003b0 04 ad 01 be e4 07 9d bd 31 af 32 be 28 51 03 be
       -0.12663656 -0.07667521 -0.17449643 -0.12823927
0003c0 54 a8 ae 3d de 4c 84 bd fc c3 03 bd 7c d4 00 3e
       0.085282 -0.06459974 -0.032169327 0.12581056
0003d0 5c 04 7a 3c 02 39 2c 3c 79 42 17 3d b4 6c 0e bc
       0.015259828 0.010511639 0.036928628 -0.008692909
0003e0 45 77 5d 3d 6f c8 3d bc 7a 84 8e 3e 48 dd 78 3d
       0.054068822 -0.011583432 0.27835447 0.060757905
0003f0 68 e5 8b 3e 99 ac 27 bd fa 0f 32 bd 04 e0 ac 3b
       0.2732346 -0.040936086 -0.043472268 0.005275728

fc2.bias f4 [150]
000000 c2 4d 2a be c8 df 20 3d 88 e8 ef bd b7 dc c3 bd
       -0.16631225 0.039275914 -0.11714274 -0.095635824
000010 d7 11 07 bf 40 99 01 be c5 f1 1a be 55 a2 a4 bd
       -0.52761596 -0.12656116 -0.1513129 -0.08038775
000020 d6 f4 b5 bd b5 7d a7 be 00 bb 9b bc df 7e cf bc
       -0.088845894 -0.32713094 -0.019010067 -0.025329052
000030 68 01 0d be eb 6d bb bd 15 3d 0a be 28 83 18 3e
       -0.13770068 -0.091518246 -0.13499863 0.14893782
000040 9c 3c 07 be b6 f9 e9 bd 48 77 91 bd d0 8a b0 bd
       -0.13206714 -0.11424582 -0.07102829 -0.086202264
000050 25 f6 24 be d0 9b 2d bf 46 9a f4 bd f7 29 f7 bd
       -0.16109522 -0.67815876 -0.11943488 -0.12068551
000060 f9 34 0f be 04 47 15 be c9 ba 02 be c6 52 51 be
       -0.13985051 -0.14577872 -0.12766565 -0.20441732
000070 ae e7 89 bd 62 52 33 bd 67 18 17 be ee 12 97 be
       -0.067336425 -0.04377974 -0.14755403 -0.2950663
000080 e5 7e 07 be cf e5 fa bd 48 27 24 be 52 93 3c be
       -0.13232 -0.12250864 -0.1603061 -0.18415573
000090 c0 28 36 be 3b fe 1c bd fd ef ff bd fc 18 1b be
       -0.17788982 -0.03832839 -0.12496946 -0.1514625
0000a0 94 97 80 bd cb df 02 be 9f d4 43 bd 15 e2 0b be
       -0.06278911 -0.12780683 -0.047810193 -0.13660462
0000b0 d7 ae 04 be 8e 57 e4 3b 72 cb b6 bd ad 1d 25 be
       -0.12957321 0.006968445 -0.08925523 -0.16124602
0000c0 90 de 8d bc 99 7b a4 3e a4 b2 f6 bd a8 c1 95 be
       -0.01731804 0.32125548 -0.12045792 -0.2924931
0000d0 5a 7b 2b bd 8e d2 0e bd 75 81 de bd 92 53 85 bc
       -0.041865684 -0.03486877 -0.10864536 -0.016275201
0000e0 ee e8 92 bc e0 d5 5e 3f 3b 09 07 bd 24 4e fa bd
       -0.017933335 0.870451 -0.032967787 -0.122219354
0000f0 1a 9a 5f be f6 e1 e3 bd ee cd fd bd be 49 38 be
       -0.21836129 -0.11127083 -0.123927936 -0.1799688
000100 aa 1f d7 bd 60 04 05 be a7 71 32 bd a8 e3 ec bc
       -0.10504086 -0.1298995 -0.04356542 -0.028917149
000110 6b 23 60 bd 67 2c 5f bd bd 47 21 3c af a9 80 bd
       -0.054721277 -0.054485705 0.009843764 -0.062823646
000120 b2 b1 dd bd 72 cf 33 be dc e4 10 be ae 4e ab bd
       -0.10824908 -0.17559603 -0.14149803 -0.08364616
000130 c1 a8 27 be 88 28 1f be 53 ec ca 3d f2 6b 94 bd
       -0.16372968 -0.15542805 0.099083565 -0.072471514
000140 b7 21 19 be 05 b0 65 be ca b8 44 be 06 ab b1 bd
       -0.14954267 -0.22430427 -0.19211116 -0.08675198
000150 7e 74 6a 3e d3 50 1f be f3 9f d0 bd 0a 50 52 be
       0.22896 -0.15558176 -0.10186758 -0.20538345
000160 eb 1d 1a be 56 08 46 bd d2 c4 45 bd 5c 6c dd bd
       -0.15050475 -0.048347794 -0.048283406 -0.108116835
000170 8d f2 e6 bc 34 78 09 be 77 0c 55 be f1 64 36 be
       -0.02819183 -0.1342476 -0.20805536 -0.17811944
000180 4d 8f 7d 3e 7d 76 01 be 62 b6 5e be 83 c7 28 be
       0.24761696 -0.12642856 -0.21749261 -0.16482358
000190 2f b9 2a be 46 83 a3 bd 67 22 8c 3f 65 f0 f3 bd
       -0.16672204 -0.07984023 1.0947999 -0.11911086
0001a0 1c 6b 3b be a4 56 56 bf 2b fc 0a be e7 81 7b bd
       -0.18302578 -0.83725953 -0.13572757 -0.06140318
0001b0 38 30 0e be 48 4a c4 bd b5 2d ec be 18 2b 2a be
       -0.13885581 -0.095844805 -0.46128622 -0.16618001
0001c0 dc e5 14 be 7b a7 7c be a0 86 d6 be 5f f8 23 be
       -0.1454081 -0.24673264 -0.41899586 -0.16012715
0001d0 f5 e2 a2 bd 8c 94 a9 bd d8 a4 89 bd 2f 31 53 be
       -0.07953445 -0.08280286 -0.067208946 -0.20624231
0001e0 ed 8e 37 be 3b 07 06 be 4f f6 27 3f 9d ba 19 be
       -0.17925616 -0.13088696 0.6561021 -0.15012594
0001f0 ec 4e 08 be 86 a3 96 bd 1d 43 7e bd 82 cd 10 be
       -0.13311356 -0.07355408 -0.062075723 -0.14140895
000200 c9 8d cb bd 92 b6 04 be a3 8d 25 be c6 0a 02 be
       -0.09939153 -0.1296027 -0.16167311 -0.12699422
000210 46 aa 20 bd e3 a6 fd bd af b5 e5 bd 35 45 31 be
       -0.039224885 -0.12385347 -0.11216294 -0.17311557
000220 3c b2 32 be b7 2e aa bd b1 fa 20 be f7 32 a8 3e
       -0.17450804 -0.083096914 -0.15720631 0.32851383
000230 0e 56 76 bd 1d 87 c4 bd 2a f8 8f bd 7c 52 29 be
       -0.060140662 -0.09596083 -0.070297554 -0.16535372
000240 4a 4d 26 be 18 f9 ea bd 30 0a 1b be af 6f 5c bd
       -0.16240421 -0.11473292 -0.15140605 -0.053817447
000250 78 85 ff bd e8 dc 23 be
       -0.12476629 -0.16002238

fc3.weight f4 [1, 150]
000000 f4 42 ea bc 4c 72 1b bc 8b 1e ac bc 19 54 ee ba
       -0.028596379 -0.0094877 -0.021010658 -0.0018183022
000010 27 93 52 bc 23 23 1f bc d5 9b e5 3a 79 15 73 bc
       -0.012852467 -0.009712967 0.0017517755 -0.014836662
000020 ae e3 84 bc 29 98 79 bc e0 5c df bc ce 56 93 3b
       -0.016221847 -0.015234032 -0.027265966 0.004496432
000030 1e a4 9e bc 1c 6d a6 bc 29 bd 0f 3c 61 db 16 3d
       -0.019365367 -0.0203157 0.008773127 0.03683031
000040 07 de 79 bb dd 3d 60 bb 84 f3 b5 bb 31 32 9e bc
       -0.0038126723 -0.003421656 -0.005552711 -0.019311043
000050 05 ed be 3b bf d8 d9 bc 2b 57 c1 bb 63 9a 83 bc
       0.005826595 -0.02659261 -0.005900284 -0.016064828
000060 af 4f 9d 3c 5f 34 a2 3c 4b 47 0d bb d4 44 30 3c
       0.019203035 0.019800363 -0.0021557386 0.010758597
000070 8a b2 fc 3b 64 54 cc 3b 8b a4 bc 3c 5c fa 4d 3c
       0.007711713 0.006235646 0.023027679 0.012571897
000080 be 61 be 3c 5b 90 2a 3c 38 70 60 3c a3 ab 5e 3b
       0.023239966 0.010410394 0.01369863 0.0033976815
000090 c1 f5 d6 bb 45 9c 2c bc c3 70 e8 3b 6f a4 10 3c
       -0.006560058 -0.010535304 0.0070935204 0.0088282665
0000a0 7d f1 03 bc 46 9b 91 bc 37 bb 71 3b 63 4f 93 3c
       -0.008053181 -0.017774235 0.003688527 0.01798219
0000b0 ea 5c 98 bb be f6 2f bd dc 78 95 3b e3 ea a9 3c
       -0.004649748 -0.04295992 0.0045615267 0.020741886
0000c0 b7 28 c4 3b 1e 97 38 3c c7 8a 90 bb 75 16 93 bc
       0.005986299 0.011266498 -0.004411075 -0.017955044
0000d0 e5 8f a0 bc 44 29 ca 3a 6c 71 29 3c df ff 10 bc
       -0.019599864 0.0015423675 0.010341983 -0.008850067
0000e0 3d 59 21 bc 89 8d 7d 3c f5 95 7f 3c 86 5b 53 bb
       -0.009847936 0.015475639 0.015599717 -0.0032250597
0000f0 20 67 9a 3c 44 98 da bc b9 2b 8d 3c dc 18 c8 ba
       0.018848002 -0.026683934 0.017232763 -0.0015266198
000100 b5 fd 7e 3b 81 ea b9 3c 0f d1 95 3c 1d a0 d4 3c
       0.0038908545 0.022694828 0.018288163 0.025955254
000110 65 5c 23 bc fb e7 42 3a 15 2c 6f bc c0 b9 e8 3b
       -0.009970759 0.00074350805 -0.014597912 0.0071022213
000120 8a 0d 93 3c d1 44 81 bd 5d 98 81 3a 90 2f ca bc
       0.017950792 -0.06311954 0.0009887327 -0.024680883
000130 de 67 be 3c cf 66 f0 3c c0 2e 84 3c 07 c9 94 3c
       0.023242887 0.029345898 0.016135573 0.018162264
000140 5b 74 c7 bc 4f 2e b6 bc 3c 37 ef 3b 7a 8b 21 3c
       -0.024347475 -0.022238879 0.0073002856 0.009859914
000150 a0 75 50 bc aa 1b b9 bc c6 db 44 bb ad ac 9d 3a
       -0.0127233565 -0.022596199 -0.0030038222 0.0012029611
000160 44 46 71 3b 0c 9d 25 3c 6f ed d8 3c 67 aa 13 3c
       0.0036815563 0.010108244 0.026480405 0.009012795
000170 09 04 5f bc 5e bc 7c bb 0f 0e 0d 3c 60 6d ab 3c
       -0.013611802 -0.0038564424 0.008609309 0.020926178
000180 fa fa 88 3c 8f a7 a7 bb 5b 2c 13 bc 9f ea b5 bb
       0.016721237 -0.00511641 -0.008982743 -0.0055516507
000190 89 ae ba bc 6c 1b 92 bb 9f 99 20 3c d8 5e 1b 3b
       -0.022788303 -0.0044588353 0.009802251 0.0023707654
0001a0 65 d7 4e bc 47 34 44 bc a5 5b 1f bc 00 11 04 bc
       -0.012624596 -0.0119753545 -0.00972644 -0.008060694
0001b0 66 c9 45 3c 0b bb d5 bb df 35 e6 bc 40 71 59 3c
       0.012071943 -0.0065225414 -0.02810186 0.01327163
0001c0 a1 10 a7 3c b8 c1 4c 38 11 e5 04 bd ed c2 55 bb
       0.020393671 4.8817805e-05 -0.032445017 -0.0032617406
0001d0 e1 42 85 bc e3 3c 4d 3c 5f 69 25 bc 1d 86 d7 3c
       -0.016267242 0.012526724 -0.010095923 0.026309067
0001e0 c3 14 ae 3c d9 7c 4f ba 84 6c 91 3c 43 4e 12 3b
       0.021250134 -0.0007915027 0.01775194 0.002232448
0001f0 7d ac 9d 3a 6b 4a e0 3b 44 24 3e 3c ae 0d 06 3b
       0.0012029555 0.006844809 0.011605326 0.002045493
000200 1c 8d 35 bc 08 80 0d bc dd 0b 85 bb 86 bc d8 3c
       -0.011081006 -0.008636482 -0.004060252 0.026457082
000210 e4 3a 8e bb e9 df 7d 3c 48 87 78 3c c8 27 28 bb
       -0.0043405164 0.015495279 0.015168972 -0.0025658477
000220 e8 ec 01 bb 81 00 da ba 58 1f c3 bb ea e5 7f bc
       -0.0019825045 -0.001663223 -0.005954664 -0.015618781
000230 16 64 af 3c 0d 3c 8d 3a be 0e 37 3c b7 34 6f 3c
       0.02141003 0.0010775343 0.011172948 0.014599971
000240 f1 4c 26 3c 7e f8 8d bb ad 38 d0 bc e2 89 69 3b
       0.01015018 -0.004332601 -0.02541765 0.0035635163
000250 73 06 6c 3b 87 e7 1b bc
       0.0036014586 -0.00951565
