SabrinaPalis-Going-bananas-8f093a4/qnetwork_local_checkpoint.pth (torch_old, 173490 bytes, 6 tensors)

fc1.weight f4 [256, 37]
000000 b6 85 27 3e d0 bb 8a be 54 79 32 3d 87 75 5f be
       0.163596 -0.27096415 0.04357274 -0.21822177
000010 92 39 02 be 7d 2b c4 3d ff 62 0e be 5d 1c 74 bd
       -0.12717274 0.09578607 -0.13904952 -0.05959736
000020 2d c0 26 3d 32 51 fd bd 66 71 bc be 11 3a 18 be
       0.040710617 -0.123690024 -0.36805266 -0.148659
000030 05 d4 d2 3d 58 6a 63 3e a2 55 3b be 1b bd 9d 3e
       0.10294346 0.22208536 -0.18294385 0.3080834
000040 ca 48 12 3e 33 e8 99 be 90 9d 6b be 7d 67 26 be
       0.1428558 -0.30059966 -0.23009324 -0.16250415
000050 03 7e a6 bd 91 66 93 be e4 6f 1d 3e 0f c1 fa bd
       -0.081295036 -0.2878919 0.15374714 -0.12243854
000060 17 d6 6c bc eb 38 39 bc 5d 69 35 3e ec 33 26 3e
       -0.01445534 -0.011305074 0.17715974 0.16230744
000070 b3 84 1b 3e 1d f4 e3 3d bd c3 32 3a e0 9f 23 be
       0.1518734 0.11130545 0.00068193284 -0.15978956
000080 17 f6 9b bd 7d 5a 64 3d e9 62 c4 be 92 2f cd 3d
       -0.07615297 0.05575036 -0.38356712 0.10018839
000090 62 3d 25 bd ba b6 28 bc 9d 9d 8d bd 32 00 ec 3d
       -0.040341742 -0.010297472 -0.06914828 0.11523475
0000a0 8c 0e d2 bd 1a bc dc ba 0f 5a a3 3d 7a 08 f7 bc
       -0.10256681 -0.0016840727 0.07976162 -0.03015541
0000b0 78 f1 0b 3c f4 2e b1 be 13 15 bc be e6 e3 b0 3b
       0.008541457 -0.34606135 -0.36734828 0.0053982614
0000c0 29 5c 1c be f2 57 e1 bb 66 7e 0a be d3 4e 93 3d
       -0.15269531 -0.006876939 -0.1352478 0.07192769
0000d0 85 4c 4a 3d 3e e2 33 be 3a a5 38 3e 1f 52 51 3e
       0.04938938 -0.17566773 0.18031779 0.20441483
0000e0 65 86 91 be 6e e8 11 bd ef 65 c3 be 88 8b 66 3e
       -0.28422847 -0.035622053 -0.38163707 0.22514164
0000f0 b6 a2 62 3e 32 5d 8d be 45 aa 96 3d 08 0f 68 3c
       0.22132382 -0.27610165 0.07356695 0.01416374
000100 c8 bc 32 3e e1 ea 0c bf c1 32 e8 be 19 84 4a 3e
       0.17454827 -0.55045897 -0.45351222 0.19776954
000110 fe 95 a0 be 8f 15 19 bc ed f2 0c bf 0b 16 fa be
       -0.31364435 -0.009343519 -0.55058175 -0.48844942
000120 c5 3a 6b 3e 79 3a 51 bc 4a 61 a0 be d5 e5 9a be
       0.22971638 -0.012770289 -0.31324226 -0.30253473
000130 f2 e0 be 3d 4d 39 84 3d 05 fe 91 be ee ef ce be
       0.09320249 0.06456242 -0.28514114 -0.40417427
000140 77 e2 a3 be eb 38 07 bd bc de 44 3d bb c2 a4 bd
       -0.32008716 -0.033013266 0.04806398 -0.080449544
000150 82 01 ec 3d 73 9f c7 3c 8d 46 40 3d 2b 96 4b be
       0.11523725 0.024368023 0.046942282 -0.19881503
000160 42 84 58 be c0 f9 b9 be e8 34 5a be ec e4 73 3e
       -0.21144202 -0.36323357 -0.21309245 0.23817796
000170 6d 71 ae bd 65 d2 a7 bd de 16 24 bd 49 2a 78 3e
       -0.08517728 -0.081944264 -0.04006087 0.2423488
000180 90 a7 80 bd 51 04 a6 be b4 5e 02 3e 74 0e 58 be
       -0.0628196 -0.32425168 0.12731439 -0.21099263
000190 4a 6e 8b be 6c f2 8a be 6d 95 73 3e 72 3d e7 be
       -0.2723258 -0.27138078 0.2378747 -0.45164067
0001a0 40 1f 77 3d d7 1c 81 be 7e 3e 9e be af a0 15 3c
       0.060332537 -0.25217316 -0.30907053 0.009132548
0001b0 d7 fc b6 be 4a fd e6 bb 19 16 f5 3b 72 a6 98 3d
       -0.35739776 -0.0070492374 0.007479441 0.07453622
0001c0 7c ca 1c 3e f1 38 7b be a6 71 19 be a3 39 73 3d
       0.15311617 -0.2453344 -0.1498476 0.05938114
0001d0 49 58 4a be 1c c2 f2 3d aa 82 86 3d 8b ee d4 bd
       -0.1976024 0.1185343 0.06567891 -0.10397061
0001e0 07 17 70 3c 24 7b bb be b9 a5 6a 3e c5 60 ee bd
       0.014653928 -0.36617386 0.2291478 -0.11639551
0001f0 96 e2 e2 bc 7d d0 73 3e 36 ec 58 bd e3 d6 26 be
       -0.027695935 0.2381 -0.052959643 -0.1629291
000200 26 16 2f 3d d3 3c 14 be a8 44 b0 be 10 7e 19 be
       0.04274573 -0.14476328 -0.3442738 -0.14989495
000210 a6 9f 82 be 52 ee 4c bd 56 dd 7b 3e 85 8b d0 be
       -0.25512427 -0.050031967 0.24596152 -0.40731445
000220 10 57 3c 3e 7d 97 e9 bd e6 07 99 be b9 d0 ea be
       0.18392587 -0.11405847 -0.2988884 -0.45862368
000230 df de 01 3d 31 c9 28 3d dd 10 c7 be c3 68 04 be
       0.031706687 0.041207496 -0.38880053 -0.12930588
000240 7e 99 54 3d 56 9e 90 be 30 2c a6 3b f6 e2 91 3c
       0.051904194 -0.282458 0.0050711855 0.017808419
000250 3b 8e 21 be 9d b3 91 bc 99 14 f4 bd 89 bd 38 3d
       -0.15776913 -0.017785842 -0.11917991 0.04510263
000260 bc cb 0e be 1d f3 70 3e ea c5 59 3d 9e 5a 17 be
       -0.13944906 0.2353024 0.05316726 -0.14780661
000270 38 1d c2 be 0f 80 81 3e 4f ec 41 bc 2b c1 c0 3d
       -0.37912917 0.25293013 -0.0118361255 0.09411844
000280 aa 4a 12 bf 02 ac 67 be ef 0e 20 be d7 58 2f bd
       -0.5714518 -0.2262421 -0.15630697 -0.042809334
000290 8f 22 a1 3d be 12 ea bd 52 fd 9f bd 7c 48 61 3d
       0.0786792 -0.11429356 -0.07811989 0.055000767
0002a0 85 20 65 3e a2 bb 83 bd a0 96 b5 bd 36 85 f0 be
       0.22375686 -0.064322725 -0.0886662 -0.46976632
0002b0 49 ff 2a 3d 63 3d 69 be e6 bd 84 3a 94 df 81 3e
       0.041747365 -0.22777323 0.0010127395 0.2536589
0002c0 df 40 84 be 22 a7 ee 3d e3 1f 73 3e 8a 37 00 bf
       -0.25830743 0.11652972 0.23742633 -0.50084746
0002d0 54 e6 14 bd 08 03 8e bd 0b 03 ec be df df 38 3e
       -0.03635247 -0.06934172 -0.46096072 0.1805415
0002e0 a4 f5 3e bd f4 d5 8b 3d 28 31 50 3e 9c 1b 88 bb
       -0.04662098 0.06827918 0.20331252 -0.004153682
0002f0 51 97 ff 3d c1 be 12 3e 60 2e 03 3e 54 4e 18 3e
       0.12480033 0.1433058 0.1281066 0.1487363
000300 3d 13 97 bd 36 76 78 bd ce 3c 2a 3e 99 62 47 3e
       -0.07376716 -0.06065961 0.16624758 0.19471206
000310 29 49 1a bd a1 37 c8 bd fa bd b0 be e7 6e b0 bd
       -0.037667427 -0.09776235 -0.3451994 -0.08614903
000320 6a 20 52 bd 58 03 98 3d 46 74 45 3e ad bb a0 3d
       -0.051300444 0.07422513 0.19282636 0.07848296
000330 5d 41 92 3e 14 70 93 3c cb 2a d5 3d 24 27 39 3e
       0.28565493 0.017997779 0.10408553 0.18081337
000340 ea a5 33 be 3a 32 94 3c a1 c1 82 be 4a 4a b1 bc
       -0.1754376 0.018090356 -0.25538352 -0.02164187
000350 64 8d c2 bd a8 c9 58 3e 9e a1 13 3e 6c 7b b7 be
       -0.09499624 0.21170676 0.14417121 -0.3583635
000360 90 b0 5e 3d f9 6c ed 3c 17 75 05 3e fe 15 6b 3e
       0.054367602 0.028982626 0.13032947 0.22957608
000370 be 5a ff bd b3 69 d8 3b 52 f1 96 be 7f 73 0a 3e
       -0.124684796 0.006604397 -0.29480988 0.13520621
000380 9b fe 15 3d 86 d8 fe bc ec 77 53 3e 73 c1 97 be
       0.036619764 -0.031109106 0.20651215 -0.29639778
000390 07 e8 0b be c6 ec 2f 3e a8 57 a4 3d 50 9e e8 bd
       -0.1366273 0.17180166 0.080245316 -0.11358321
0003a0 e7 09 0d 3c e7 c3 af 3d a4 0f ae bd 72 31 8c 3e
       0.008608318 0.08582287 -0.08499077 0.27381474
0003b0 38 4e 87 3e 89 88 9a be 44 e5 82 3d 25 7f 94 3d
       0.26426864 -0.30182293 0.06391385 0.072508134
0003c0 2b 29 e3 bc 26 3c 39 3d 9d 36 06 be f1 3d d7 3d
       -0.027729591 0.045223378 -0.13106771 0.10509861
0003d0 20 82 da bd 11 10 4f bd a3 f9 cc 3d c9 7f b5 be
       -0.106693506 -0.05055243 0.10008552 -0.35449055
0003e0 57 2a 9c bd ab d1 28 3d c6 c4 97 3e 61 90 6d bd
       -0.07625263 0.04121558 0.29642314 -0.05799902
0003f0 31 a6 0f bc a3 00 a5 bc dc aa 2c 3e 57 22 54 3d
       -0.00876765 -0.020141905 0.16862053 0.05179056

fc1.bias f4 [256]
000000 d0 c4 98 3d f0 02 88 bc 20 95 5e bc 31 27 43 bd
       0.07459414 -0.016602963 -0.013585359 -0.047644798
000010 87 5a 3d be 93 f3 32 be 90 06 b5 bd de 13 35 be
       -0.18491565 -0.17475729 -0.08839142 -0.1768336
000020 b5 be fd bd 29 2b 3e 3d c4 32 70 bc 50 31 a3 3d
       -0.1238989 0.04642788 -0.014660541 0.0796839
000030 85 eb 61 3c 99 fa 6c bd 2c 73 28 3d 64 54 51 bb
       0.013789062 -0.057856176 0.04112546 -0.003194117
000040 37 b4 08 3c 1a 6a cb 3d 48 86 17 bd b9 87 13 be
       0.008343748 0.09932347 -0.036993295 -0.14407243
000050 df a7 b3 3d 63 be c6 bd 52 cd 3c be c3 f4 e0 bd
       0.08772253 -0.09704282 -0.18437698 -0.109841846
000060 70 4b 96 bd ee 21 0d be fc 66 f9 bd 86 2d e2 3d
       -0.07338607 -0.13782474 -0.12177846 0.11043839
000070 3d ee 42 be d4 38 ea 3d fb 37 e7 bd 45 b7 a3 3d
       -0.19036193 0.1143662 -0.11289974 0.0799394
000080 97 89 1c be 23 ed df bd 04 43 92 3c 36 ab 87 bd
       -0.15286861 -0.10933902 0.017854221 -0.06624453
000090 9e 7c b3 3d 4a 21 9b 3c 22 65 0d ba f8 d7 6d bd
       0.08764003 0.018936772 -0.0005393793 -0.058067292
0000a0 f7 40 37 3d ba 7b a9 bd 0c 5f 3b 3e 2b 9d b7 3d
       0.04473969 -0.08275552 0.18297976 0.08965524
0000b0 cd 08 e2 bd 03 10 22 3d 31 be 66 be f2 7c d7 bd
       -0.11036835 0.03956605 -0.2253349 -0.10521878
0000c0 f9 0c 03 3d 46 10 9e 3d bd 54 39 bd b8 22 d7 3d
       0.031994794 0.07717948 -0.04524683 0.10504669
0000d0 dc 7c d6 bc 17 ed aa bd 61 6b 4f bd 83 f2 f2 3c
       -0.026182584 -0.083460025 -0.050639514 0.029656654
0000e0 d9 0a 01 be 13 42 af bd 60 03 0d be a1 ca 42 3e
       -0.12601794 -0.085575245 -0.13770819 0.1902261
0000f0 39 ab 1f be 27 b2 cf 3c 39 4e 6f bd f9 f2 18 be
       -0.1559266 0.025353504 -0.05842421 -0.14936437
000100 d2 ec 01 be 37 5e 55 bd 73 d8 0a be c1 bd 84 be
       -0.12687996 -0.052091803 -0.13559131 -0.2592602
000110 f9 5a 05 bd 28 84 cf 3d 34 ee dd bc da fb 8b bd
       -0.03255746 0.10132629 -0.027091123 -0.06835146
000120 a7 f0 11 be 6a 0a 9b 3d d4 c0 82 3e ba 91 5c 3d
       -0.14251958 0.07570346 0.2553774 0.053849913
000130 42 81 f5 3d c8 83 63 bd 13 dd c7 3d ca 6e 07 bc
       0.119875446 -0.0555456 0.097589634 -0.00826616
000140 2e 94 15 3e 37 d0 aa bd a9 17 b7 3d c6 e6 a4 bd
       0.14607307 -0.08340495 0.0894006 -0.08051829
000150 12 fb a4 bd 8c 77 01 3e cb 90 0d bc c4 e7 e4 3d
       -0.080557 0.1264326 -0.008640478 0.11177018
000160 89 5f dc ba 50 55 21 be 02 94 4b bb cd fb c6 3d
       -0.001681314 -0.157552 -0.0031063561 0.09715996
000170 c7 ac 4d bd f1 98 2d bd 37 9e b0 bc b3 f9 25 be
       -0.0502136 -0.042382184 -0.021559818 -0.16208534
000180 a9 bf ab bc b8 0e 02 be e2 1f 60 3d a1 8a 3f bd
       -0.020965414 -0.12700927 0.054717906 -0.046763066
000190 95 06 23 3d 34 50 4c 3d f3 75 01 be fc 5d 9a bd
       0.0398012 0.049881175 -0.1264265 -0.07537457
0001a0 74 c7 85 ba 7a e8 9d bd fb 9d 14 3e 40 91 25 bd
       -0.0010206536 -0.07710357 0.1451339 -0.040421724
0001b0 4a 95 7c be 4b ef 47 be 8d d1 14 bd f3 6a 35 3e
       -0.24666324 -0.19524877 -0.036332656 0.17716579
0001c0 b0 93 3e 3e 27 be 6a 3d f9 72 a2 bd a1 82 99 3c
       0.18611026 0.05731025 -0.079320855 0.018739047
0001d0 9a c8 31 be 9b 02 5f be d9 84 80 bc cd be 06 3d
       -0.1736168 -0.21778338 -0.015688347 0.032896806
0001e0 71 67 c6 bc 6e 8a 54 bd 05 a7 3e 3e a5 7b 49 3e
       -0.024219247 -0.05188983 0.186184 0.19676073
0001f0 ef d2 41 be c9 b7 2f be 7c d7 3d 3c d1 52 86 3d
       -0.18928121 -0.17159952 0.01158702 0.06558765
000200 f3 82 84 3c f2 a0 b0 3c ec 6d b5 bd 09 44 53 3d
       0.016175723 0.02156112 -0.088588566 0.051578555
000210 40 d4 2c bd 9d 69 93 bd 7d 8f 28 be c3 fe a7 bd
       -0.042194605 -0.071978785 -0.16460986 -0.08202889
000220 32 bb fb 3d 31 2a 44 be d1 5b 22 3d ae 10 3a bd
       0.12291564 -0.1915672 0.039638344 -0.045426063
000230 d6 54 06 3d 53 59 d9 3d 8d 8b 64 bd 13 91 6b 3d
       0.03279575 0.1061274 -0.05579715 0.0575114
000240 09 19 0c be 22 58 b4 3c 18 5e f4 bd d9 25 90 3c
       -0.13681425 0.022014681 -0.119320095 0.017596172
000250 0b ff 63 3d 1a 3f 30 3d 88 6a 71 bd 0a fd db 3d
       0.05566315 0.04302893 -0.058939487 0.10741623
000260 95 46 6a 3e 60 5b 68 3e 99 e6 d4 3c 88 43 51 bd
       0.22878487 0.22691107 0.025988864 -0.051089793
000270 f9 2c 09 3e 0f 57 28 3e 0f 69 a7 3d 05 49 49 bd
       0.13396062 0.1643946 0.08174335 -0.049141902
000280 ee 7a 06 be 54 23 4e 3e c2 39 05 3d 4d 28 07 3e
       -0.13132831 0.20130664 0.032525785 0.13198967
000290 5e 6e ed bd 7d 3d 2c 3e 48 31 a1 bc 86 ed 91 3d
       -0.115933165 0.16820331 -0.01967682 0.07125382
0002a0 3a 7a 19 bd 83 eb 0e 3e 0f df 0b 3e db e0 b8 bd
       -0.03747008 0.13957028 0.13659309 -0.09027263
0002b0 fa 57 76 bd 51 ac 00 bd 21 e7 ce bd 5e ee 4d 3d
       -0.060142495 -0.031414334 -0.10102678 0.050276153
0002c0 e7 90 44 bd 33 e5 86 be d5 7b d9 3d aa 6f 10 be
       -0.047989752 -0.2634674 0.10619322 -0.14105096
0002d0 77 cf 86 3c c3 52 41 3d a8 be 37 be 98 91 8b 3d
       0.016456349 0.04719807 -0.17943823 0.06814879
0002e0 34 d3 0b 3e a1 11 11 3e d9 8d 2e bd 20 a9 b7 3c
       0.13654786 0.14166881 -0.042615745 0.022419512
0002f0 5d 8a 4a bd 6e f3 07 be da 9f 9d 3d ee 2f 71 3c
       -0.04944836 -0.13276455 0.07696505 0.0147209
000300 82 57 24 bd ff 72 c5 3d e6 bc 00 be 7a 0f b2 bc
       -0.040122516 0.096410744 -0.12572059 -0.021735895
000310 a5 56 b0 3d 93 63 9c bc a4 c8 03 bb a2 ba 06 3e
       0.08610276 -0.01909045 -0.0020108605 0.13157132
000320 39 78 0a be ec 86 82 bd 22 b4 19 3e 22 f0 83 bb
       -0.13522424 -0.063733906 0.15010121 -0.004026429
000330 ad 37 72 be 41 ce 1c bc 09 89 24 3d 85 6c 27 3e
       -0.23654051 -0.009570659 0.04016975 0.1634999
000340 dc 4e 11 3e 4f 67 3e be 40 00 89 3d 70 6e 85 3d
       0.14190239 -0.18594097 0.06689501 0.06515205
000350 86 42 d2 bd 37 c5 64 bd fc bd da bd 97 72 1b 3c
       -0.102665946 -0.05585214 -0.10680768 0.00948777
000360 fa f6 13 3e a3 ae 08 3e c4 b5 1f be 3d fb 2a be
       0.14449683 0.13347869 -0.15596682 -0.16697402
000370 14 a0 42 be dc 1f 8d 3d d0 bf 4d 3d 22 98 36 be
       -0.19006377 0.06890842 0.050231755 -0.17831472
000380 4a 5e fc bd 5c 5e 9a bd 89 5e 18 be 07 ed a1 3d
       -0.12322672 -0.07537529 -0.14879812 0.079065375
000390 c5 f7 15 3e 52 00 8e bd ce 03 e8 bd 5e 5a a6 bd
       0.14645298 -0.06933655 -0.11328851 -0.08122705
0003a0 73 3e b8 3c 13 a4 b9 bd cf e9 58 3d 95 cf c2 3d
       0.022490716 -0.09064498 0.052957352 0.095122494
0003b0 1a 86 eb 3c b3 f8 9b bd af 80 b6 3d 01 00 e9 bd
       0.028750468 -0.07615795 0.08911263 -0.11376954
0003c0 10 11 b3 bd 72 b1 5a bd e6 88 6b ba 84 2c 03 3e
       -0.08743489 -0.05339188 -0.0008984938 0.1280995
0003d0 5c 13 57 bd d2 6a 15 bc e6 5a a6 3d 8f 6f ab bd
       -0.052508697 -0.009119706 0.08122806 -0.083708875
0003e0 83 36 57 3d 17 78 4f 3c d0 51 22 3e 0b 0d e0 3d
       0.05254222 0.012662909 0.15851521 0.10939988
0003f0 e0 6d 39 be b2 52 5a 3d 71 8e 5a be 15 f7 a2 bd
       -0.1810832 0.05330152 -0.213434 -0.079572834

fc2.weight f4 [128, 256]
000000 66 a1 e2 bc e5 0e 8b bd 5c ca b9 3c fd ce e7 3c
       -0.027664851 -0.0678995 0.0226795 0.028296942
000010 42 13 12 bc 76 c3 77 bd 26 1a 81 bd fd 2a 9e bd
       -0.008915724 -0.06048914 -0.063038155 -0.07723043
000020 6f 31 c5 3c 72 8c ad 3c fe 8f 8d b8 c0 83 5c bd
       0.024071423 0.021185134 -6.7502246e-05 -0.053836584
000030 e4 9d 35 bd ba 4e da bc c2 ee 0c bd c3 9c cd 3c
       -0.04434003 -0.026648868 -0.034407385 0.025099164
000040 c3 b3 b2 3c 56 e1 3d bd 42 e5 89 bd b9 4f eb 3b
       0.021814233 -0.046357475 -0.067331806 0.0071811345
000050 07 00 5c 3d 9d 38 c4 bc b2 40 35 3c 75 cc 4c 3d
       0.053710964 -0.023952777 0.011062788 0.049999673
000060 30 9d d5 3c 62 0f f0 3a 19 c5 b8 3c a3 a0 21 3d
       0.02607593 0.0018315131 0.022554921 0.039459836
000070 b5 e8 36 bd be f0 23 bd 26 b1 3f bd a0 54 35 3b
       -0.04465552 -0.04002451 -0.0467998 0.0027668849
000080 d0 95 10 bd ab fe 1e 3d be 92 43 3c 31 e4 42 bd
       -0.035299122 0.03881709 0.0119368415 -0.0475809
000090 1e f9 8f 3c 3c de f8 3c bf a2 5a bd 92 73 00 3c
       0.017574843 0.030379407 -0.053377863 0.007840054
0000a0 13 c9 eb bc 10 5c 4a bd 01 a5 3b bd 94 11 bb bd
       -0.028782403 -0.049404204 -0.045811657 -0.09134212
0000b0 87 f0 ae bd 7a 8c 89 3c f9 f6 bc 3b 02 d4 0c 3d
       -0.08541971 0.016790617 0.005766746 0.034381874
0000c0 6b 36 66 bb ab ca 07 3d 6c aa 07 3d e4 f6 98 3c
       -0.003512765 0.033152264 0.03312151 0.018672414
0000d0 6b 17 03 3b 80 c2 61 bc a4 a3 84 bd 18 83 15 bd
       0.0020002972 -0.013779283 -0.064765245 -0.036501974
0000e0 a8 e5 05 3d 9c 29 96 bd fa 42 d7 3c 9d 11 8c bd
       0.03268972 -0.07332155 0.026277054 -0.06839297
0000f0 50 a5 02 bc 30 65 0d 3d 9e 0e 5d bd 13 3d 30 bd
       -0.007973984 0.034520328 -0.05396902 -0.043026995
000100 2c 92 bf 3c c0 cf c2 ba c4 1e 74 bd 0d 7a 31 3d
       0.02338513 -0.001486294 -0.059599653 0.043329287
000110 fc d0 bb 3c 32 0b 9e bb 94 ef 85 bc 86 90 fc 3c
       0.0229268 -0.004823112 -0.016349591 0.030830633
000120 3d 08 71 bd 47 24 b3 bd ea c3 2a bd 28 2f 76 bd
       -0.058845747 -0.08747154 -0.041690744 -0.060103565
000130 9d 5d 17 3c a0 da 50 3d fd 78 3b bd d9 f8 30 3c
       0.009238628 0.050989747 -0.04576968 0.010801517
000140 4c 01 29 bd ff 02 e2 3c a8 35 12 3d 8c 7c 1f bd
       -0.041261002 0.02758932 0.0356957 -0.038937137
000150 2e a9 58 bc 86 02 2c bd 4c 2b 8e bd 95 8b 49 3d
       -0.013223929 -0.041994594 -0.06941852 0.04920538
000160 ec ab 9f bd 73 ba ac bc 5b 04 bc 3b f0 0b c6 bc
       -0.07796463 -0.021085 0.005737824 -0.024175614
000170 50 c8 e7 ba 32 ef 31 3d c3 ee a7 bd d7 af 88 bd
       -0.0017683599 0.043441005 -0.08199837 -0.06674164
000180 a0 58 82 bb 37 ab 8b 3b 99 2d 9a 3b 13 91 45 bd
       -0.00397785 0.0042623538 0.0047051427 -0.048234057
000190 08 ec 16 bd 94 16 bb 3c 24 96 a5 bc 73 c3 80 bd
       -0.03684619 0.022837915 -0.020213194 -0.06287279
0001a0 a0 2d d6 bc 8e b1 4b bd 5e ca 14 bd a9 3f 51 3d
       -0.026144803 -0.049729876 -0.036325805 0.0510861
0001b0 3a b9 49 3d ac 20 3e bd 70 d3 0e bd cd 8f 4e bd
       0.04924891 -0.046417877 -0.03486961 -0.050430108
0001c0 87 5c db 3c a8 1a 5a bd c6 5b 84 bd 10 59 fe 3c
       0.026777519 -0.053248078 -0.06462817 0.031048328
0001d0 53 b4 9f bc 6c 2e f5 bc 20 dc 0e bd 31 28 7c 3c
       -0.019495165 -0.029929362 -0.034877896 0.015390442
0001e0 29 ce 19 bd a8 d6 69 3c a7 2f 90 bd e7 7d 77 bd
       -0.037550125 0.014272369 -0.07040339 -0.060422804
0001f0 6c b0 61 bd 35 d7 43 3d 18 3e 93 3c 05 b8 81 bd
       -0.05509989 0.04781266 0.017973945 -0.06333927
000200 d5 63 a0 3c f0 b9 be 3c 10 73 ed bb 21 f0 9e 3c
       0.019578854 0.023282021 -0.0072463825 0.019401612
000210 05 15 7f 3c cc fd 10 bd 62 8a 3b bc c4 da ab bd
       0.015568976 -0.03539829 -0.011446567 -0.083913356
000220 f1 6c e3 3c 34 32 e3 3c 94 11 b7 ba 72 07 94 bd
       0.027761908 0.0277339 -0.0013967031 -0.072279826
000230 1e 29 f0 bc fe 14 90 bd 77 a0 c9 3a e4 36 4f bd
       -0.029316481 -0.07035254 0.0015382905 -0.050589457
000240 00 a2 a5 b9 82 4f db 39 bb 23 30 bd 32 81 f7 bb
       -0.00031591952 0.00041830173 -0.043002825 -0.007553243
000250 d2 b9 04 3d ca 9c 03 3d f2 b3 3e 3d 94 80 b5 bc
       0.032403775 0.032131948 0.046558328 -0.022156037
000260 89 ae 3b bd 1d f6 95 bd 22 5e 8f 3a b8 44 fb bc
       -0.045820747 -0.07322333 0.0010938088 -0.030672416
000270 ac e0 83 3c 7c 50 2b 3d 0e 95 6e bd b8 08 b1 bd
       0.016098343 0.041824803 -0.05824762 -0.08644241
000280 2b 9f c9 3c 2d 0c 55 3c 82 89 96 bc 96 4d 63 ba
       0.02461203 0.013003391 -0.018376116 -0.0008670924
000290 5d d0 43 3d d1 4e 9d 3c 18 e0 9a bd ab 7d ad bc
       0.047806133 0.019202622 -0.07562274 -0.021178087
0002a0 b7 f5 81 bd c2 a3 3d bd ff b3 94 3c c8 eb 2b 3c
       -0.063456945 -0.04629875 0.018152235 0.010493226
0002b0 e9 b2 36 bc 2c 35 15 bb 9d 81 77 bd e8 fc 98 3c
       -0.011151054 -0.0022767289 -0.060426343 0.018675283
0002c0 92 36 45 bd 68 2b 50 3d c5 39 98 3c aa 5f a0 bd
       -0.048147745 0.050822645 0.018582234 -0.078307465
0002d0 ed ea 07 bd 07 70 dd bc 7e 94 38 3c bc 7f 10 bd
       -0.033183027 -0.027030958 0.011265872 -0.035278067
0002e0 86 df 3b bd e5 76 26 bd 1f 79 21 bd e0 7e 9c bc
       -0.045867465 -0.04064073 -0.03942215 -0.019103467
0002f0 7b 68 cd bc 29 7f 8f 3c a3 1d 49 3c 35 df c5 bc
       -0.025074234 0.01751669 0.012275132 -0.024154285
000300 23 5d 36 bd b4 c9 60 bd 56 ad 94 bd 60 97 a1 bd
       -0.044522416 -0.05487986 -0.07259624 -0.078902006
000310 b2 8d ae bc 40 84 41 bd f9 01 f1 3c d3 6a 13 bb
       -0.0213078 -0.047245264 0.029419886 -0.0022494092
000320 b0 b0 72 3c 0b cf 9f bd 47 11 62 3d 5a e3 a4 3c
       0.014812633 -0.07803162 0.05519226 0.02012794
000330 fc bf d4 3c 3e c9 73 bd 62 81 2d 3c fa 70 3f bd
       0.025970452 -0.05951809 0.010589929 -0.046738602
000340 55 14 f5 bc 40 7a 80 bd 9a f1 a5 3b 5e a5 41 3c
       -0.029916922 -0.06273317 0.0050642015 0.011819212
000350 62 30 31 bd fe 6d 01 bd 7b 96 08 bd 5c d9 18 bc
       -0.043259032 -0.031599037 -0.033346634 -0.009329166
000360 47 e8 1f bd dc 4c 99 bd 77 9d ee 3c a5 00 70 bd
       -0.039039876 -0.07485363 0.02912782 -0.058594365
000370 4c b6 87 bd f5 75 92 bd f5 f5 b5 bd bc dc a7 3c
       -0.06626567 -0.07151405 -0.08884803 0.020490997
000380 da 26 7e bd 5d 57 9d 3b 17 88 18 3d ba b2 37 3c
       -0.06204877 0.0048016743 0.03723916 0.011212045
000390 72 1e 32 ba a8 43 26 bd 7c d4 78 3b e9 b2 19 bc
       -0.0006794698 -0.040591866 0.0037968447 -0.009381034
0003a0 2b bc 45 bd 37 9b b1 bc 7b 3a 8f bc b6 a1 45 bc
       -0.048275154 -0.021680458 -0.01748394 -0.012062481
0003b0 6e 64 41 bd ac 83 22 bd a0 6d 68 bd 1e 12 2c bd
       -0.047214918 -0.039676353 -0.05674517 -0.042009465
0003c0 28 cb 91 3c 83 27 6e bd 5f 4b 17 3d 48 0e 10 3c
       0.017797068 -0.05814315 0.036937114 0.008792467
0003d0 69 8b c1 bd 62 07 09 bd c9 87 0d 3d d3 a9 3f bc
       -0.094504185 -0.033454306 0.034553323 -0.011698204
0003e0 2c 5d 92 bd 1a 37 05 bd 70 3a e2 bc 75 a6 57 bd
       -0.071466774 -0.032523252 -0.027615756 -0.05264898
0003f0 80 d7 14 3d 22 ae e0 bb 5d 7a 5e 3d ef 46 bb ba
       0.03633833 -0.0068566957 0.054315913 -0.0014288108

fc2.bias f4 [128]
000000 04 df 2c bb 9f 05 98 bc ec 92 d0 bc 09 c3 23 3c
       -0.0026378045 -0.018557368 -0.025460683 0.0099952305
000010 f7 c5 62 bd 97 ba 30 3c 0b 4b 87 bd ca 50 e5 bc
       -0.055364575 0.010786674 -0.0660611 -0.027992625
000020 eb f8 f5 3d a9 55 6d bd 90 07 b1 bd 0f 5e bb 3c
       0.12010368 -0.05794302 -0.086440206 0.022872
000030 94 73 a8 bc a2 a4 dc bb f5 2b 89 bc 2a 4b 72 bd
       -0.020562924 -0.006733493 -0.016744593 -0.059153713
000040 24 94 cd 3d 41 2b ba 3b 17 49 02 bc 9a f9 a9 bd
       0.10038021 0.005681426 -0.007951996 -0.08299561
000050 ca 67 4d bd cd d0 f2 3c 55 8d 37 3c 4c fc 08 be
       -0.05014781 0.02964058 0.01120313 -0.13377494
000060 e4 6f e1 ba ec 20 01 3d 90 79 84 bc e0 59 92 3b
       -0.0017199484 0.031525537 -0.016171247 0.0044662803
000070 32 ee f4 3c 6d 6b 11 3c 94 94 19 ba eb c2 63 bd
       0.029898737 0.00887571 -0.00058586267 -0.05560581
000080 38 5c a4 bd 93 ba 24 3d de 0a b0 bc 2a 2c 82 3e
       -0.08025402 0.040216994 -0.021489557 0.2542432
000090 3b 06 93 3d cd 41 0a bd ed 05 b7 bd 8a 58 0a bd
       0.07178923 -0.03375416 -0.08936677 -0.033775844
0000a0 0f fc 4e bd c2 38 33 3a 10 27 33 bd 7e 7f 8b 3d
       -0.05053335 0.00068367657 -0.043738425 0.068114266
0000b0 a9 f8 14 3d 07 48 97 3d 51 82 e5 bc 7c f6 a3 3d
       0.036369953 0.07386785 -0.028016241 0.080059975
0000c0 bf 4b aa bd 86 08 b0 bb 7a 3e 1d 3d d1 23 9e bd
       -0.08315229 -0.00537211 0.03838966 -0.07721675
0000d0 75 c8 31 bd 4b af 43 bd 0a a6 09 bd 56 90 9b bd
       -0.04340406 -0.047774594 -0.033605613 -0.07595889
0000e0 2c 23 ac 3c 4c c0 4a bd 4a a2 b6 3c 5d 9b 67 bd
       0.021012865 -0.049499795 0.022294182 -0.05654465
0000f0 09 d0 95 bd 4e 5d 60 bc 42 b0 6c bd 72 81 b5 bb
       -0.0731507 -0.013694121 -0.05778528 -0.0055391127
000100 65 e9 2d bd 46 77 86 bd 42 22 d6 bc c9 e2 9b 3b
       -0.04245891 -0.06565718 -0.026139382 0.0047572595
000110 36 09 dd 3b b5 07 90 bd 4c c4 7c bd c2 c9 cc 3c
       0.006745483 -0.0703272 -0.06171064 0.02499855
000120 9b 15 3d bd d0 69 36 bd 9e 23 cd 3c ff d5 1e bd
       -0.046163183 -0.044534504 0.025041398 -0.0387783
000130 c2 d1 23 bd b9 54 9b 3c 8e d0 1e bd d1 fe c5 3c
       -0.039994963 0.018961297 -0.038773112 0.024169357
000140 88 d6 a3 3e 83 33 e3 bc de c7 97 bc a5 a1 db bb
       0.31999612 -0.027734524 -0.018527921 -0.006702619
000150 aa 45 f2 bd ea 34 ea 3a 0d 03 d4 bd f9 ff 15 3d
       -0.118296936 0.0017868553 -0.103521444 0.036621068
000160 5f 06 01 bd 0e cf d3 3c 27 ba 88 3d cc fa 1a be
       -0.031500217 0.025855567 0.06676131 -0.15134734
000170 19 d5 07 3d c0 cc 9a bd b0 7d 8e bd 13 a5 b9 3d
       0.03316221 -0.07558584 -0.06957567 0.090646885
000180 0e 49 af bc f9 29 7f bb 06 fc 12 bb 59 ba cc bd
       -0.02139714 -0.003893493 -0.002242805 -0.099964805
000190 4a df 03 bd 22 6c 89 bd 66 fe 40 3c 1d ca b3 bc
       -0.032195367 -0.06710078 0.011779403 -0.021946961
0001a0 8c dc b1 bd 62 1d c7 bb 00 32 04 bd 67 e8 c1 bd
       -0.08684644 -0.0060765008 -0.032274246 -0.09468155
0001b0 30 84 40 bd 8a 57 55 3d 49 bc 93 3e ab de be bd
       -0.047001064 0.052085437 0.28854588 -0.09319814
0001c0 83 80 b6 3c 71 4c 81 3d a3 a6 81 3d d7 cb d3 3c
       0.022278076 0.06313408 0.063306116 0.025854034
0001d0 52 cd a8 bd 8c e4 72 3d fa 1d 75 bd 2f 0f 4c bd
       -0.08242287 0.05929999 -0.05984304 -0.049819168
0001e0 a6 8a 8f 3d 8f ac e0 3d 68 83 3b 3d 26 e1 db 3c
       0.07008867 0.10970413 0.045779616 0.026840758
0001f0 c9 db 3a bd a4 a2 81 bd 07 a9 ca 3d 60 08 99 bd
       -0.04561976 -0.06329849 0.09895521 -0.074723005

fc3.weight f4 [4, 128]
000000 fc 4d 1e bd 0e d3 8d 3d c4 fa 8f be 10 52 16 bb
       -0.03864859 0.06925021 -0.28121006 -0.0022937097
000010 35 43 fa bc f8 be 35 be d8 06 97 3d 56 43 d6 bc
       -0.030549625 -0.1774863 0.07374352 -0.026155155
000020 d7 cd d1 3d d8 43 17 3e f9 1c be 3c d6 97 a6 3d
       0.10244339 0.14771974 0.023207175 0.08134429
000030 bf c6 2f 3e 8b b2 d3 3d bc 80 d0 3c a5 61 d0 bd
       0.1716566 0.10336789 0.02545201 -0.10174874
000040 e2 82 92 3e dd 24 fd bb fa cd 1c bd d3 74 82 bd
       0.2861548 -0.0077253417 -0.038282372 -0.06369939
000050 72 c5 f3 bc 6a bf 74 3e 23 a4 07 3e 66 c0 d8 bd
       -0.029757235 0.23901144 0.13246207 -0.10583572
000060 18 7e 96 3c d2 b5 ae 3d 38 c3 21 3b e0 c0 10 3d
       0.018370673 0.08530773 0.002468301 0.03534019
000070 3b 08 ef bd 13 96 ec bc 3f 36 56 3d b9 89 e2 3c
       -0.11671492 -0.028880155 0.052297827 0.027653562
000080 dd 75 54 3c 39 7f 07 3e d1 2f 9b bd 57 cd 30 3e
       0.012967554 0.13232125 -0.0757748 0.17265831
000090 ca 26 fb 3d af 74 01 3e c3 7c 99 3d e6 93 20 3d
       0.12263258 0.12642168 0.074944995 0.039203547
0000a0 69 64 f8 bd 3e 78 79 3d 2a 42 76 bc c1 1b 9d be
       -0.12128527 0.060905688 -0.015030423 -0.30685237
0000b0 76 e1 ba be 12 49 67 be 04 f9 96 be aa c3 c8 be
       -0.36500138 -0.22586468 -0.2948686 -0.3921178
0000c0 99 b4 0a be 9c 54 0c 3e 00 7a a5 3b e0 b6 72 3d
       -0.13545455 0.13704151 0.005049944 0.059256434
0000d0 20 ec 23 3c 92 68 5e bd 78 38 59 3b e7 2e 2a bd
       0.010005027 -0.054298945 0.003314523 -0.041548636
0000e0 71 35 8f 3d fa 7a 62 bc 34 11 c3 3c 51 b0 f4 bd
       0.06992615 -0.013823265 0.023811914 -0.11947692
0000f0 e7 d7 99 3d 83 7f aa 3e 6e 55 3a 3d 02 b4 b2 3d
       0.07511883 0.3330041 0.04549163 0.0872574
000100 6d 28 12 3d ea 24 94 3d 2c 38 18 3d 31 0d ea b8
       0.035683084 0.07233603 0.037162945 -0.000111604466
000110 e1 cc 21 be 79 b4 13 bd 09 33 6c 3d 36 3b a8 be
       -0.15800811 -0.036060784 0.05766586 -0.32857674
000120 d3 4c 5f 3d 5d 4c 63 3d c1 f3 81 3d 91 ae 4d bd
       0.054516625 0.055492748 0.063453205 -0.050215308
000130 ee 13 9e 3c 1c d4 51 3d 5c 97 a5 bc 75 42 9b 3d
       0.019296613 0.051227674 -0.020213775 0.07581035
000140 34 be fd 3d 6c f9 e5 bd f2 36 e7 39 59 26 db bc
       0.12389794 -0.11229214 0.0004410069 -0.026751684
000150 af 86 f1 bd a5 a2 e1 3d 36 f6 25 3d 46 2c 05 bd
       -0.11793267 0.1101735 0.04051801 -0.032512926
000160 f1 a0 eb 3c 73 e7 2d 3e 63 25 d2 bd 72 fd 15 be
       0.028763266 0.16982822 -0.10261037 -0.14647463
000170 05 22 02 3e af 1f 3b bd 4b 9a 50 3e be 45 1a 3d
       0.1270829 -0.045684513 0.20371358 0.037664168
000180 02 1b 88 bd 37 54 46 3e f4 e1 8b 3d 71 d1 dc 3c
       -0.06645776 0.19368063 0.068302065 0.026955338
000190 bd 58 4b 3c c2 58 96 bc 16 35 cc be 2f 8d ba 3c
       0.012411294 -0.01835287 -0.3988425 0.0227724
0001a0 7f 77 b2 3d 95 06 22 bd 70 90 11 3e eb c0 2d 3d
       0.08714198 -0.03955706 0.14215255 0.04242031
0001b0 2a c0 93 bd 15 0b 14 3d 60 13 e1 3d da 0f 78 bd
       -0.07214387 0.03614338 0.109900236 -0.060561992
0001c0 0e 4e 81 3d 63 aa 39 3e 43 a5 b7 be 2a 99 83 bd
       0.06313716 0.18131404 -0.35868272 -0.06425698
0001d0 8a 8f 1b 3d 63 69 c6 3d c2 96 a1 3e 3c fd 45 bd
       0.037978686 0.0968807 0.31560332 -0.048337206
0001e0 93 23 41 3e 80 f7 64 3d 17 ba d8 be 9d 7a 36 3e
       0.18861227 0.055900097 -0.42329475 0.17820211
0001f0 97 c0 cb 3b 27 0c c5 3c 21 33 ea 3d 32 bf 0a bc
       0.006218027 0.024053646 0.11435533 -0.008468436
000200 48 30 50 3c ef 29 0c be f1 c7 98 bb 61 83 41 bd
       0.012706824 -0.13687871 -0.0046625067 -0.047244433
000210 d2 b7 13 bc f4 fc 12 3e 85 65 65 3e 65 d2 b8 be
       -0.009015994 0.14354306 0.22402008 -0.36098018
000220 99 67 30 be c2 69 6e 3e 74 41 d6 3c 77 36 3d bc
       -0.1722702 0.23282531 0.026154257 -0.01154863
000230 48 60 2c 3e 2f 6f cb bb a8 d6 b7 3d ef 94 38 bd
       0.16833603 -0.0062083225 0.08976489 -0.04506391
000240 70 4c 2d 3e b6 ac 02 3d ff a4 0c 3d ee 98 2f bd
       0.1692369 0.03190299 0.03433704 -0.042870454
000250 88 ec 4c 3c 63 31 88 3e 8f 7a 0a 3e da c1 5a 3e
       0.012507565 0.2660018 0.13523315 0.21363011
000260 ee 08 8f 3d df 42 1f 3e ae b9 a7 bb cf 04 5a 3e
       0.06984125 0.15552853 -0.0051185703 0.21290897
000270 40 98 32 3e bd 60 59 3e fd 6e 20 3b bb a8 6c bd
       0.17440891 0.21228309 0.0024480217 -0.0577781
000280 e2 42 35 3d f6 54 56 3e 00 75 6f 3e 70 e9 1e 3e
       0.044253238 0.20930848 0.23384476 0.15518737
000290 8b 4c 96 3d 03 d3 42 bd 06 d1 9a bc c8 a7 d2 3c
       0.07338818 -0.047564518 -0.018898498 0.02571477
0002a0 68 ba 18 bc a5 e0 b1 3d f7 b6 0f ba a3 3b 02 be
       -0.009321786 0.08685426 -0.0005482281 -0.12718062
0002b0 92 7b 94 3d 25 83 2a 3e 81 b1 22 be 69 ad 10 3e
       0.07250132 0.1665159 -0.15888025 0.1412865
0002c0 bd 08 15 bc 2a ff 29 be 7b fd 8f bd de 84 58 3d
       -0.009096322 -0.16601244 -0.070307694 0.052861087
0002d0 d6 02 1a 3d 75 cf 37 3d a4 eb 39 bd c1 a1 38 3e
       0.03760036 0.04487558 -0.04539074 0.18030454
0002e0 e4 59 3c 3d 96 68 2a 3d b2 6d 7b bd a3 80 14 bd
       0.045984164 0.041603647 -0.06138391 -0.03625549
0002f0 53 d5 e0 3b 60 75 34 3e de fe b4 3b 41 22 f8 3d
       0.0068613677 0.176229 0.0055235466 0.121159084
000300 b0 97 e5 3c 2a 3c 4d 3e 78 a5 87 3e 3b 17 e2 bc
       0.028026432 0.20042482 0.2649343 -0.027598968
000310 4a da 97 3c 10 25 de 3c f1 d3 96 3d 00 04 c8 3e
       0.018536706 0.027117282 0.07364643 0.39065552
000320 8e e5 94 3d b6 31 2f 3d 37 5b 16 3d 79 87 64 bd
       0.072703466 0.042772017 0.036708083 -0.05579326
000330 a0 0e c7 3b 9f 32 81 3e da 92 e9 3a 22 9d 22 3e
       0.0060747415 0.25233933 0.0017820254 0.15880254
000340 de da 05 3e d0 26 7d 3e 07 94 25 bc d1 81 3c 3d
       0.13071772 0.24721837 -0.010106093 0.04602224
000350 5c 5f 5a 3e ae 9a 74 3e 89 85 2f 3c 5d 03 0b 3d
       0.21325439 0.2388713 0.01071299 0.033938754
000360 ba de 16 3d 22 c7 a3 3d 08 0f bb 3d 39 dc fa bd
       0.036833502 0.07996966 0.09133726 -0.122490354
000370 15 04 c2 3d 4e d4 51 bd fe 89 7f 3e fd c8 35 3e
       0.09473435 -0.05122786 0.24954984 0.17752452
000380 6b 25 16 3e 65 86 96 bd 09 c0 83 3d 89 52 c1 bc
       0.14662711 -0.073498525 0.06433112 -0.023598926
000390 f9 33 d5 bd 7b 1b b1 3b 3c 0c 3c be 81 05 3f 3b
       -0.104103036 0.0054048873 -0.18364042 0.0029147568
0003a0 64 10 f8 3c 06 f1 1f bd 44 cb 8d 3b dc c9 45 bd
       0.030281253 -0.039048217 0.0043272097 -0.04828821
0003b0 c3 e1 e5 3d e3 90 87 be 72 b3 99 3d ed 25 8e 3c
       0.11224701 -0.26477727 0.075049296 0.017352069
0003c0 4f 09 d0 3d 53 24 c7 be 62 c1 6e be a6 32 04 3d
       0.101580255 -0.388949 -0.23315957 0.032274865
0003d0 52 98 b3 bc 48 b5 13 3e 16 b9 09 3e 1b 01 85 3d
       -0.021923218 0.14424622 0.13449511 0.064943515
0003e0 b3 ac 96 3e a8 17 a2 3d 0f de 33 bd 80 98 b0 bc
       0.29428634 0.07914668 -0.043912943 -0.021557093
0003f0 df e4 01 bd b8 f4 19 bd 47 a9 50 be af dd 1b 3d
       -0.03171241 -0.037586898 -0.20377074 0.03805321

fc3.bias f4 [4]
000000 e3 a3 84 3e a1 ef 50 3e 28 43 5b 3e 9d 79 3d 3e
       0.25906286 0.20403911 0.21412337 0.18503423
